src/checkpoints/ppo_best_checkpoint/learner/module_state/adversary_3/module_state_dir/module_state.pt (torch, 655490 bytes, 11 tensors)

encoder.actor_encoder.net.mlp.0.weight f4 [256, 54]
000000 fa ef 9a bc 67 77 c8 bc 37 10 8e 3d 86 2c d6 bb
       -0.018913258 -0.024470998 0.069366865 -0.0065360693
000010 46 12 ad 3d 3c ad f6 bc 31 f7 ba 3d 9f f7 1d bd
       0.08450751 -0.030111901 0.09129179 -0.038566228
000020 8d b3 ba 3d 61 5c 96 3d 8b 7d 7a 3d f0 62 a2 3d
       0.09116278 0.07341839 0.061154883 0.07929027
000030 4d aa 0e 3e bf 29 f7 3d 65 4e 70 3e e4 d8 50 be
       0.13932152 0.12068509 0.23467405 -0.20395237
000040 e1 f8 fb 3d c4 6e 7a 3d 4e 47 90 3d be 75 8f 3d
       0.12303329 0.06114079 0.0704485 0.070048794
000050 d3 76 83 3d 4c e5 90 bd 10 5e 87 bc cd aa 9a bd
       0.06419148 -0.07074985 -0.016524345 -0.07552109
000060 e4 54 82 bb c8 fa c4 bc 5f bc 39 bd b6 d8 30 bc
       -0.003977405 -0.024045363 -0.04534566 -0.010793855
000070 11 c4 ee bd 1e 70 b0 bd 95 f4 d2 3c 96 90 f2 bd
       -0.116584904 -0.08615135 0.025751391 -0.11843984
000080 0c 6b 79 3e 3f a1 cf bc bd 51 78 bd 1e 1a 0d 3d
       0.24357241 -0.025345443 -0.060624827 0.034448735
000090 3b c7 72 3e f9 43 cc 3d b1 61 27 bc d6 a3 0a be
       0.23708813 0.09973902 -0.010216163 -0.13539061
0000a0 e6 bb d0 bd 7d d6 05 3e 53 f4 43 bd 0a 4a dc 3d
       -0.10192089 0.13070102 -0.047840428 0.10756309
0000b0 ac 40 8b bd 33 31 f0 3c c6 c4 e6 3c 62 2e 20 3c
       -0.067994446 0.029320335 0.02817 0.0097766835
0000c0 62 15 2d bd a1 47 1a bc c9 fc 88 3d 37 e9 05 bc
       -0.04225672 -0.009416492 0.0668884 -0.0081732785
0000d0 18 83 ad bc bf 24 bb 3d 3c f5 98 3d 8e 37 8a bd
       -0.021180674 0.09137868 0.0746865 -0.067488775
0000e0 6c 5a b3 3d 12 0c 31 3e e8 6c 0a 3e 85 c2 1b 3d
       0.08757481 0.1728976 0.13518107 0.038027305
0000f0 4d b3 8b bd 86 74 18 be ff 1c 19 3c 0e 08 ec bc
       -0.06821308 -0.148882 0.009345292 -0.028812435
000100 ad 67 06 3e 7f 3b 38 3d 4f 7a 42 bd c5 c2 23 bd
       0.13125487 0.044978615 -0.047479924 -0.03998067
000110 9b 1e 91 be c7 ad 0e 3e 07 21 6c 3c aa 46 04 bd
       -0.28343663 0.13933478 0.014412171 -0.032293953
000120 6b d7 42 bd 3a 7f a3 bd 28 f9 07 be 39 17 71 3d
       -0.04756872 -0.07983251 -0.1327864 0.058860037
000130 a0 ec 42 bd da 68 11 be 40 9b f4 bd 0b a1 b7 bd
       -0.047588944 -0.14200154 -0.11943674 -0.089662634
000140 02 8a b2 bd ad 5d e5 3d 09 1a df 3d d1 f2 93 3d
       -0.08717729 0.11199508 0.10893638 0.07224048
000150 22 47 92 3d 74 e0 83 bc 73 7f bd bb 6d 7c 53 3e
       0.07142474 -0.016098239 -0.0057830154 0.20652933
000160 85 02 08 bd 8c 3b 34 3d 3d 85 56 3e f8 da 8e bd
       -0.033205528 0.0440021 0.20949264 -0.06975359
000170 7e 41 de bd c1 82 46 bd b6 a5 8c bd 46 c5 fa bb
       -0.108523354 -0.04846454 -0.06867544 -0.0076529114
000180 c8 bb 17 be 41 e0 6a bd ca 65 6c 3c e9 12 ae 3d
       -0.14817727 -0.05734277 0.014428565 0.084997006
000190 22 0a 5e bc b2 f0 ad 3d 09 02 89 3d 23 5f e8 3d
       -0.013552221 0.084931746 0.06689841 0.11346271
0001a0 4e 73 1c be d6 c7 5e 3e 13 19 e0 3d b6 88 88 3c
       -0.1527836 0.21755919 0.109422825 0.016666751
0001b0 f2 ed 0a be f7 f1 af 3c 63 63 9c bd d0 6b 15 3b
       -0.13567331 0.021477683 -0.07636144 0.0022799857
0001c0 e5 f1 e2 3c 44 e6 db bc d1 a6 e6 bd 86 0b cf 3d
       0.027703235 -0.026843198 -0.112622865 0.1010962
0001d0 05 c9 a9 3d 72 35 ec 3c ba 4f 1f be df 1d 8b bc
       0.082902946 0.028834078 -0.15557757 -0.016982017
0001e0 dc 45 20 3a 7a 03 98 bb 52 8e 18 3e 0f 73 66 be
       0.00061139255 -0.0046390863 0.14898041 -0.22504829
0001f0 a5 2e 40 3e 83 25 c8 3c 1e e8 ff 3d dc 58 9a 3d
       0.18767793 0.02443195 0.12495445 0.0753648
000200 41 18 00 bd a1 5d 82 bb c0 b8 af bd 78 fd 82 bd
       -0.03127313 -0.0039784466 -0.0858016 -0.063960016
000210 44 52 01 bd 72 1c c0 bd cb a9 c6 3c 75 93 9c 3d
       -0.031572595 -0.093804255 0.024250885 0.07645313
000220 13 87 d4 3c 59 ac 11 bd e2 42 52 3d 39 d5 a7 bd
       0.025943315 -0.035564754 0.051333316 -0.08194966
000230 e4 cf 7a bd 9a 37 5b bc 49 94 63 3d cd f0 1b 3c
       -0.061233416 -0.013379956 0.055561338 0.009517861
000240 64 34 b4 3e a0 57 02 be 9a 10 a4 bc d1 f9 e4 3d
       0.3519622 -0.12728739 -0.020027447 0.11180461
000250 7f 39 9c bd 4b 91 e4 bd 05 af 14 3d 8a af 0e be
       -0.07628154 -0.11160525 0.036299724 -0.1393415
000260 27 4a 8e ba fd 17 ee bc 91 b6 de bc fc 6a f6 bb
       -0.0010855839 -0.029064173 -0.027186664 -0.0075200778
000270 6b f0 95 3c 3a 4b 25 bd ba af 5b be e9 00 c4 bc
       0.018303117 -0.040354945 -0.21453753 -0.023926215
000280 d4 f6 d9 3d cb 72 41 bc 2c a9 79 be 3c 52 90 bc
       0.10642782 -0.011807154 -0.2438094 -0.017617337
000290 bf d2 ef bd 69 6e 93 3d 09 23 88 bc 7e 9d d1 3d
       -0.117101185 0.071987934 -0.016618269 0.102351174
0002a0 bb 52 90 3d e9 aa 36 3d 32 ce b5 bd ca 22 40 3d
       0.070470296 0.044596586 -0.08877219 0.046908177
0002b0 ad f1 86 3d 79 b9 1e 3e 9e be b2 bc ed 6a 30 bd
       0.06589065 0.1550044 -0.021819409 -0.043070722
0002c0 09 5b 66 3e d0 92 2d be e6 cd 70 be 8d 35 26 bc
       0.22495665 -0.16950536 -0.23516044 -0.010144603
0002d0 1d 7b ed 3c 82 47 77 bd 6f d1 e2 bc 7d 9d 86 bd
       0.028989369 -0.06037093 -0.027687756 -0.06573007
0002e0 02 b7 9e 3c b2 db c4 bb 8f 55 01 3e f1 a6 ac 3d
       0.019374374 -0.006007635 0.12630294 0.08430279
0002f0 36 0f e5 3d 9b 7f a1 bc d5 fb 7c 3d c5 5c da 3d
       0.11184542 -0.019714167 0.061763603 0.10662226
000300 cf 4b b5 3d 7a 54 d2 3d 72 06 d1 3c 1a 9d ab bd
       0.0885235 0.10270019 0.025515769 -0.08379574
000310 f8 a8 0d 3d b3 f5 25 3e 44 13 c0 3b 72 9d 2f 3b
       0.03458497 0.16207008 0.0058616716 0.0026796726
000320 df 6e 1b 3e 81 44 94 3d bc 97 9a 3c 6e d0 f6 3d
       0.15179013 0.072396286 0.01887118 0.120514736
000330 db 04 ef bd ba 83 ed bd b2 16 47 3d a6 88 3c bd
       -0.11670848 -0.115973905 0.04860563 -0.046028756
000340 dd 43 68 bd 05 2d 35 bd ca d7 ab 3d d9 18 53 bd
       -0.056705344 -0.044232387 0.08390768 -0.05153737
000350 7f 38 99 3d 36 64 71 3e c9 1b 28 be c7 94 88 bd
       0.07481479 0.23573384 -0.16416849 -0.06669002
000360 4c c6 00 3e 3b 2d 58 3e 18 28 85 3d c1 c5 1b be
       0.12575644 0.21111004 0.06501788 -0.15212156
000370 6a 1c fc 3d 55 1f 82 bc 38 dc 2f 3d 43 59 b5 3d
       0.12310107 -0.01588408 0.042934626 0.08854916
000380 79 3b 60 3b 5e ed 08 bd 32 5e 83 bd 36 02 79 bd
       0.0034215136 -0.033429496 -0.06414451 -0.060793124
000390 63 86 e5 bd b7 e6 9e 3b 03 27 42 3d 68 9d 11 be
       -0.11207273 0.0048492807 0.047400486 -0.14220202
0003a0 2b 06 83 3c 8c 1b 1a be c2 66 39 3e dc b3 bb 3d
       0.015994152 -0.15049571 0.18105605 0.09165165
0003b0 34 97 e6 bc e6 61 66 3d c0 6f 2a 3d 91 7a fa 3d
       -0.028148271 0.056245707 0.04161048 0.12230409
0003c0 d3 27 ea bc dd a1 7d bd d4 09 38 bd 54 e1 ba bc
       -0.028583443 -0.061921943 -0.044931248 -0.022812523
0003d0 f9 9f e4 3c f5 5c 25 3d bb bf f8 3d 27 6d b6 bc
       0.027908312 0.040371854 0.12145945 -0.022268845
0003e0 95 59 e2 3d 08 13 0b be 43 53 8e 3d 83 13 82 bc
       0.11052243 -0.13581479 0.06949475 -0.015878445
0003f0 cd 9a cc 3d 89 2e a4 3c 72 3b 9e ba 12 72 2b 3d
       0.099904634 0.020041721 -0.001207216 0.041856833

encoder.actor_encoder.net.mlp.0.bias f4 [256]
000000 4d 17 9f bd a2 dd ee 3c c6 b1 85 bd 3f 16 1b be
       -0.07768116 0.029158417 -0.06528048 -0.15145205
000010 b2 a6 6c 3c 6a 41 fe bd 58 09 3a 3d 5d 85 c2 3d
       0.01444404 -0.124148205 0.045419067 0.09498093
000020 b3 a6 4b be 6a 7d 82 bd 40 69 e0 3d 39 c4 c4 3d
       -0.1988781 -0.06371577 0.10957575 0.09607739
000030 c0 b6 84 3d 39 9e 42 bd 70 bd 3e bd 62 55 ba 3d
       0.06480169 -0.047514174 -0.04656738 0.09098317
000040 c4 19 33 bd d8 0b ea bd d5 78 94 3d e4 9e 03 3e
       -0.043725744 -0.1142804 0.072496094 0.1285358
000050 2e 9c 36 be f7 0a 0e 3e 6b 31 e6 bc f0 a1 9c bd
       -0.17833015 0.1387137 -0.028099736 -0.076480746
000060 32 34 a3 3d fe f7 94 3c b3 6a dd 3d 53 c5 1c 3e
       0.0796894 0.018184658 0.10811367 0.15309648
000070 4d 08 4c be 38 16 50 3e a3 c3 e5 bd 35 70 cf 3d
       -0.19925041 0.20320976 -0.11218955 0.10128824
000080 40 c4 18 3d b4 3a 08 be d4 cc c0 3d 52 00 4e 3b
       0.037296534 -0.13303643 0.09414068 0.0031433296
000090 78 c7 4a 3e b8 eb 76 be b5 86 80 3e 24 99 e0 3c
       0.19802654 -0.24113357 0.25102773 0.027416773
0000a0 94 82 49 3d 87 02 dc 3d a4 b0 32 be f1 6a 50 bd
       0.049196795 0.107426696 -0.17450196 -0.050883237
0000b0 76 56 83 3d d8 ee 4a bd 42 a6 02 bd 8f fa bc bd
       0.064129755 -0.049544185 -0.031896837 -0.09227478
0000c0 53 ba 03 be 28 ea 90 3d 3b 28 d3 bd 50 fc 88 bb
       -0.12864046 0.07075912 -0.10310408 -0.0041804686
0000d0 02 fd 67 bd ad 09 0a be b3 5f e0 3d 70 ad 15 3b
       -0.05663777 -0.13480254 0.10955753 0.0022838973
0000e0 a1 c8 ad 3d 20 e8 06 be 81 91 cc 3c 31 b4 21 be
       0.084855326 -0.13174486 0.024971725 -0.15791394
0000f0 90 02 4d bd d6 4c 2c be 42 cf 42 bb 9a 58 20 3e
       -0.050051272 -0.16826186 -0.0029725586 0.15658799
000100 88 fc 50 bd ff f9 15 3d 03 6f 28 be 95 cb 52 bd
       -0.051022083 0.036615368 -0.16448598 -0.051463682
000110 60 e5 19 be 20 1f 93 3d 1a 3d f0 3d 42 6d 3a be
       -0.15028906 0.07183671 0.11730404 -0.18205741
000120 77 98 48 3c 42 fc 4f bd 0f 91 aa bd e8 0b 68 3d
       0.012243382 -0.05077768 -0.08328449 0.05665198
000130 9e 2f 75 bd 98 b4 d4 bd a3 97 85 3c 9b 21 e3 bd
       -0.059859864 -0.10386008 0.016307658 -0.11090394
000140 5c 1f ff bb 1d 64 7a 3d 27 88 09 be 02 ca 1d 3e
       -0.0077857208 0.06113063 -0.13430844 0.15409091
000150 ac 6b 58 be db 93 0b 3e f3 e3 e4 3d da 46 fe 3d
       -0.21134824 0.13630621 0.1117629 0.124158576
000160 35 44 e2 3d d1 07 9d bc 11 a3 92 bd dc 23 4e 3d
       0.11048166 -0.019168766 -0.07160009 0.050327167
000170 07 82 05 be 7a 9e 5f bd b2 23 27 3c 1d ac a8 bd
       -0.13037883 -0.054594494 0.0102013815 -0.08235953
000180 24 25 07 3e cb 6f de bd e4 b9 b1 3d cc 33 f6 bd
       0.13197762 -0.108611666 0.08678034 -0.12021598
000190 54 c6 2b be 88 7f 28 be 8d 30 89 bd c8 3c 2e bb
       -0.16774875 -0.164549 -0.066987135 -0.0026586521
0001a0 3e 89 f0 bd 0c 0b 77 3c 32 a6 20 3d 7d 7a b3 bc
       -0.11744927 0.015078317 0.039220996 -0.021908993
0001b0 b6 1b 57 3d 61 4e 0f 3e 16 49 89 bb 94 c8 75 bd
       0.05251666 0.13994743 -0.0041896207 -0.06000574
0001c0 7c d9 f9 bc 0c 06 a3 3d c7 f7 cd bd f6 d4 a1 bc
       -0.030499212 0.07960138 -0.100570254 -0.019754868
0001d0 92 12 16 bc fa f5 f0 bc f3 9d e7 3d ac a1 6c 3e
       -0.009159701 -0.029414166 0.11309423 0.23108548
0001e0 a7 f9 a3 bd f6 f4 2b 3e ef 7f 66 3e 85 a0 e8 bc
       -0.08006602 0.16792664 0.2250974 -0.028396854
0001f0 6b c8 55 bd 7b 54 4c 3c 9f ca 04 be f4 5c c8 bd
       -0.052193087 0.012471314 -0.12967919 -0.097833544
000200 a9 85 ed bd ea a5 b0 3d e3 62 a8 3d a2 0b 00 be
       -0.11597759 0.086253956 0.08221986 -0.12504438
000210 c4 1b 24 3e e1 14 7a bd 35 20 2a be 2c a3 60 3b
       0.16026217 -0.061055068 -0.16613849 0.0034276946
000220 da cf 2f bd a7 a4 20 3e 3d 66 57 3d 62 2e b3 bd
       -0.042922832 0.1568781 0.052587736 -0.08749081
000230 23 9e 0a 3e 27 5e 4d be 07 62 56 3d 11 5a 3a 3e
       0.13536887 -0.20055448 0.05233958 0.1819842
000240 fc a9 cc bd 45 8f 91 3d 5d 2a 60 be e9 86 20 be
       -0.099933594 0.071074046 -0.2189116 -0.15676464
000250 0a 8b 76 3d f8 5f 04 3e fb c1 4c 3d 00 30 96 3d
       0.06019119 0.12927234 0.04998968 0.07333374
000260 64 ee 0a be 05 78 38 be d8 94 69 bb 73 c1 08 3e
       -0.13567501 -0.18014534 -0.0035641696 0.13355045
000270 b4 fa 73 3d 06 cc 50 bd b4 58 7b 3d eb ac 1f be
       0.05956526 -0.050975822 0.06136389 -0.15593307
000280 72 96 de 3d 5f 08 73 3c 46 28 eb bd f9 1c 47 be
       0.10868539 0.014833539 -0.11482291 -0.19444646
000290 e3 5a c4 3c 72 da 3e be f7 94 03 3d dd 86 a1 bd
       0.02396912 -0.18638018 0.032124486 -0.07887051
0002a0 37 5d c3 bd 92 a5 7a bd 56 d0 ef 3d b1 35 9c 3d
       -0.09539264 -0.061193056 0.11709659 0.07627428
0002b0 27 a3 62 3d 5b 17 e3 bd f9 c0 48 3e 7d d8 10 3e
       0.055331375 -0.11088439 0.19604863 0.14145084
0002c0 d8 c9 0a 3e 1a 1c 46 3e c8 e2 26 be 1c 0a be bd
       0.1355356 0.19346657 -0.16297448 -0.09279272
0002d0 a8 49 dc bd bb c5 01 3c a4 a7 e2 bd 18 cf a5 3c
       -0.10756236 0.007920678 -0.11067131 0.020240352
0002e0 a5 43 11 3e d9 1a 81 3b ca f9 3c bd 40 3c 8e 3d
       0.1418596 0.003939968 -0.046136655 0.069450855
0002f0 03 74 9b 3d a1 fc 1d be 48 21 0f 3d d0 7e 9d bc
       0.07590487 -0.15428402 0.03494385 -0.019225508
000300 7d b9 62 be 79 39 27 be 37 6c 9a bd e0 aa 60 bd
       -0.2214107 -0.16330518 -0.075401716 -0.05485046
000310 3c b7 88 3c 26 23 e7 3c 24 af 1d bd a9 27 4e 3c
       0.016688935 0.028215002 -0.038497105 0.012582698
000320 1d 23 fe 3d 07 29 2c 3d e1 7e 20 be f8 5a 25 3e
       0.12409041 0.042031314 -0.156734 0.16147983
000330 60 55 44 be f6 19 f6 bd 04 72 ae bd d9 de 26 be
       -0.19173193 -0.120166704 -0.085178405 -0.16295947
000340 7d af b9 3d 2d 39 34 3d 6a f2 05 3e a2 de c5 bd
       0.09066675 0.04399984 0.13080755 -0.096616045
000350 50 55 b3 3d 35 66 56 bd d9 f6 f9 3d 4c fa 83 bd
       0.087565064 -0.052343566 0.122052856 -0.06444225
000360 df ee 26 3e 88 ea 05 3c 5e 65 3e bd a8 6c ec 3d
       0.1630206 0.008173592 -0.04648339 0.11544162
000370 52 6a 62 bd 4c ba 8b be a6 c9 a7 3d b0 0c 63 bd
       -0.055277176 -0.2729057 0.08192758 -0.05543202
000380 11 26 4b 3e 63 60 2c 3e 57 b5 fa bd 96 73 d6 3d
       0.1983874 0.16833644 -0.12241619 0.10471265
000390 55 ec 94 bc e0 9f cb 3d f1 65 06 3e 56 0e 1c 3e
       -0.018179098 0.09942603 0.13124825 0.15239844
0003a0 6b ad 28 3e c4 59 ea 3d 11 53 0a be bc 11 52 be
       0.16472404 0.11442903 -0.1350825 -0.20514578
0003b0 14 0a ea 3c 55 78 d2 3d 13 8f 14 bd be 62 e4 3d
       0.028569259 0.10276858 -0.03626926 0.11151646
0003c0 fe 4b 2c be dd 16 c4 bd 6d 68 50 3d 3b f1 59 3e
       -0.16825864 -0.09574673 0.05088084 0.21283428
0003d0 f1 b6 84 bd c2 49 01 bd dd 61 9d bb 8c 7f 0d 3c
       -0.06480206 -0.03156448 -0.004802926 0.008636367
0003e0 d3 e6 aa bd 8b 99 92 bd e5 55 ae 3d c5 35 d7 bd
       -0.083448075 -0.07158192 0.08512477 -0.105083026
0003f0 e0 78 a4 3c d3 81 27 be 30 ee 21 be a5 7f 22 3b
       0.020077169 -0.16358118 -0.15813518 0.002479532

encoder.actor_encoder.net.mlp.2.weight f4 [256, 256]
000000 e9 9f 3f bd bf 3c cc bc d4 d0 ff 3c 97 bc b1 3d
       -0.04678336 -0.02493131 0.031227507 0.08678549
000010 44 85 80 3d 43 81 1f 3d c1 cb b1 bc 2e e7 89 bb
       0.062754184 0.038941633 -0.021703603 -0.004208467
000020 94 e9 9d 3c 3d d2 fe bc bb b7 3f 3d ca ea de bc
       0.019276418 -0.031106109 0.04680608 -0.027211566
000030 42 57 af 3c bd 8a b3 bd 81 88 c7 bc c6 8c fe 3c
       0.021403912 -0.087666966 -0.024357082 0.031072985
000040 5c 1d 54 3d 99 96 08 3d e6 00 53 bd 71 a1 df 3b
       0.05178581 0.033346746 -0.05151453 0.0068246652
000050 02 52 d8 bb 63 b7 03 bd fc af bf 3a 75 cd bb 3b
       -0.006601573 -0.032157313 0.0014624591 0.0057312795
000060 6c 13 d7 3c dc 1f 98 bd 5b 0e 19 bd 12 a9 72 bd
       0.026254378 -0.07427952 -0.037367206 -0.05924327
000070 9c fb e7 3c 55 3c 80 3d e3 89 90 3d 6a 40 13 3d
       0.028318219 0.062615074 0.0705755 0.035950102
000080 75 e1 36 3d f1 f3 54 3c db 2d 8f bd 27 89 af 3c
       0.044648606 0.012997613 -0.06991168 0.021427704
000090 d2 cd de 3c df 2a ea bc 7a 97 20 3d 08 46 4f bd
       0.027197752 -0.028584896 0.03920696 -0.050603896
0000a0 a5 51 a8 bc 65 57 db 38 f7 84 15 3d 8c 38 cb bc
       -0.020546744 0.00010459012 0.03650376 -0.024807237
0000b0 e4 67 57 bd c8 5d 55 bb 73 31 56 bd b0 2b be 3c
       -0.052589312 -0.0032557119 -0.052293252 0.023214191
0000c0 34 3e a3 3a ce 24 94 3d a3 87 8b bb ae 0a 70 3d
       0.0012454451 0.072335824 -0.0042581125 0.058603935
0000d0 e3 c0 25 3d c2 6f c2 bd 43 9f 39 3d 97 7e 7d bd
       0.040467154 -0.09493972 0.0453179 -0.061888304
0000e0 4e 61 7a bd 01 1b 48 3b 83 21 88 bd 29 92 52 bc
       -0.061127953 0.0030533674 -0.06647017 -0.01285223
0000f0 f9 49 ee b9 1d 03 22 3d 84 dc e6 bc 70 54 80 3d
       -0.0004545001 0.03955375 -0.028181322 0.06266105
000100 28 47 a8 3c ab f8 8c bd 4c 08 1a bd b5 e7 0b 3c
       0.020541742 -0.06883367 -0.03760557 0.00853913
000110 16 51 0c bc 56 09 88 3c a2 13 44 bd 62 86 fa 3b
       -0.008564254 0.016606014 -0.047870286 0.007645414
000120 5a 89 e7 3c ea 93 58 bd 88 1a 34 bc 8e e1 0e 3d
       0.028263737 -0.052875437 -0.010992654 0.034883074
000130 3c ed c0 3c 99 9b 21 3d de 6d 8a bd 1d dc 0b bd
       0.023550622 0.03945503 -0.06759237 -0.034145463
000140 fc f1 7c 3d d5 73 08 bd c5 a2 7a bd d1 1d 9a 3c
       0.06175421 -0.03331359 -0.061190385 0.018813046
000150 f3 79 01 bd ae b9 00 bd e9 03 4e bc 9d cc c6 bc
       -0.03161044 -0.031427078 -0.012574174 -0.02426749
000160 5a 52 41 bd 2f fc c7 3d 41 55 83 3d 1d 64 8d bd
       -0.047197677 0.09764897 0.06412745 -0.06903861
000170 09 64 8c bd 84 e9 05 3d 31 11 2b 3d 75 a7 03 3d
       -0.06855018 0.0326934 0.041764442 0.03214212
000180 ca 53 d5 3c d4 71 3a bd 0e 1b a1 bc 6d 2d 91 bd
       0.02604093 -0.04551871 -0.019666221 -0.070887424
000190 dd 27 81 3d 35 af 2b bd 48 74 83 bb 1c 6a b4 bc
       0.063064314 -0.041915137 -0.0040116645 -0.022023253
0001a0 0b d3 a4 3d 01 8c 77 bd ae e7 a9 3c 02 1a b9 bd
       0.08048066 -0.060436253 0.020740356 -0.09038164
0001b0 cb 32 a6 3c c4 68 32 3c 6c 1d 5b bd 7a fc b9 bc
       0.020287892 0.010889236 -0.053494856 -0.022703398
0001c0 9a 7e 11 bd 12 7a 96 bb 5a 2f 58 bc e3 a2 4a 3c
       -0.035521127 -0.0045921886 -0.013194883 0.012367937
0001d0 9e ea 02 3d df 65 cd bb 39 ec 4e 3d 69 b3 66 bc
       0.03196203 -0.0062682475 0.05051825 -0.014080861
0001e0 38 30 e9 3b f5 01 02 3c e5 a2 9e bc bf 55 bd bc
       0.007116344 0.007935037 -0.019364784 -0.023112176
0001f0 82 f6 be bc 41 03 b3 bc 6c 58 40 3d 9e 84 64 3d
       -0.023310903 -0.021852138 0.046959326 0.055790536
000200 8f 45 87 3d 79 a3 6b 3d 9c 93 4e 3d 13 a0 01 3d
       0.06605064 0.057528947 0.05043374 0.0316468
000210 91 62 ae bd 91 57 e8 bb 0b 66 0a bc a4 49 9e bc
       -0.08514894 -0.007090517 -0.0084471805 -0.019322224
000220 20 c7 c7 3c 70 55 43 3d a2 bf fc 3c e1 59 54 bd
       0.024386942 0.0476889 0.030853096 -0.051843528
000230 da 8e a6 bc ac 06 e1 bb d0 0a 7d bc 94 f6 39 3c
       -0.020331789 -0.0068672504 -0.015444472 0.011350293
000240 d3 22 70 bc dd 04 4f bd 29 01 a4 bd 80 21 fc bc
       -0.01465674 -0.050541747 -0.08008034 -0.030777693
000250 c2 ff 82 3c 96 d3 8c 3c 65 13 c3 3c 94 1a 85 bc
       0.015991095 0.017190736 0.023812959 -0.016248025
000260 2a 6a 3d bd 78 4e 5b bd a4 5f 8e bd 84 89 90 bd
       -0.046243824 -0.05354163 -0.06951836 -0.07057479
000270 22 20 88 3d 27 03 59 3d 4a 5d de bc 70 16 24 bd
       0.06646754 0.052981522 -0.027144093 -0.04006046
000280 ac 44 a3 3c 90 df 1f 3d 53 c0 db 38 06 14 23 bd
       0.019930206 0.039031565 0.00010478557 -0.039814018
000290 80 2f c7 bc 8f fc f3 bc 07 b6 5e 3d a0 79 d3 ba
       -0.024314642 -0.029783515 0.054372814 -0.001613427
0002a0 7a 50 18 3d 1e 96 6a 3d fe d1 95 3d 9d 6e c3 3c
       0.037186123 0.05727207 0.073154435 0.023856455
0002b0 76 bf 77 bd c3 8c 18 bd d5 bc a5 3d ed a8 3c bd
       -0.060485326 -0.037243616 0.080926575 -0.046059538
0002c0 fd a5 48 bd f1 04 6b 3c 3d e3 35 bd 32 b6 fb bc
       -0.048986424 0.01434444 -0.044406164 -0.030726526
0002d0 ae 2a 2f bd 53 5e a1 bb 18 a8 33 bd e8 16 ca bc
       -0.042765312 -0.0049245744 -0.04386148 -0.024669126
0002e0 03 44 5a 3d 83 71 37 3d 92 97 04 bd 82 76 96 3d
       0.053287517 0.044785988 -0.03237111 0.07346822
0002f0 79 2a 85 3d b3 b2 49 3d a3 31 f0 bc 98 18 56 bd
       0.06502242 0.049242686 -0.029320544 -0.05226955
000300 20 e7 88 bc 35 40 40 bb 8b 1f 5b bc 36 eb 98 3c
       -0.016711771 -0.0029335145 -0.01337422 0.018666845
000310 f4 db 8c bd 8c 02 6f bc a7 d9 9d 3d 72 a2 48 3b
       -0.0687789 -0.01458801 0.077075295 0.0030614403
000320 ae fa c7 bc 6f 67 82 3d 15 85 3d bd 63 cc 0a bd
       -0.024411526 0.06367385 -0.046269495 -0.033886325
000330 51 24 b9 3b e0 f7 0f 3d de 89 0b bd 9b f3 1f 3d
       0.005650081 0.0351485 -0.034067027 0.03905068
000340 2f 2d 02 3d 0c 9a 00 3d e5 22 bb 3c 57 56 5e bc
       0.03178137 0.03139691 0.022843787 -0.01357039
000350 70 80 4f bc ff 11 c0 bc b1 e5 cc 39 56 06 83 3d
       -0.012664899 -0.023446081 0.00039081046 0.06397693
000360 ef 67 81 3c 8d 67 66 3d 62 db 84 3d 23 df d6 bc
       0.01579663 0.056251097 0.064871565 -0.026229447
000370 5b a4 d1 3a 91 e7 52 3c 65 1e 44 3d 10 c9 68 bd
       0.0015994416 0.012872593 0.04788055 -0.056832373
000380 64 d2 94 bc 2a 90 27 bc f2 da 4f bc 6a 37 4e 3b
       -0.018166728 -0.0102272425 -0.012686478 0.0031466135
000390 3c c0 3a 3d 19 73 36 3d a6 d1 8a 3c eb 2a 6d bc
       0.045593485 0.04454336 0.016945671 -0.0144755645
0003a0 ce d2 e4 3c c3 f2 24 bd 6c b1 49 3c 49 bc 90 bc
       0.02793255 -0.040270578 0.012310367 -0.017667906
0003b0 58 14 8a 3c bf ae b5 bc b9 99 96 3d a5 17 37 bc
       0.016855404 -0.022178052 0.07353539 -0.011175071
0003c0 ab 76 36 bd a0 ff ad ba 91 d5 a9 bc 2c 23 29 3d
       -0.044546764 -0.0013275035 -0.02073172 0.04129331
0003d0 76 f3 34 bc de 9e 29 bd 9e d4 09 bd 1b c8 b7 3d
       -0.011044374 -0.041411273 -0.033650033 0.08973714
0003e0 4b 6b 56 3d 9a a2 5e bd 86 59 54 bc d5 ad d1 bb
       0.052348416 -0.054354288 -0.012960797 -0.006398896
0003f0 d9 90 41 3d 64 78 39 bc 24 8f 5a 3d ca 97 31 3d
       0.047257278 -0.011320207 0.053359166 0.043357648

encoder.actor_encoder.net.mlp.2.bias f4 [256]
000000 fb 7c 3a 3d bb 7c 1f 3b ea de 84 3d a5 68 02 3d
       0.045529347 0.002433582 0.0648783 0.031838078
000010 7e d1 d3 bd a8 54 ad 3c ad ee 08 bd 32 ec 92 bd
       -0.10342692 0.021158531 -0.033430744 -0.07173957
000020 78 61 76 3d f2 b1 49 b9 8c 71 bb 3d a0 a2 4b bd
       0.060151547 -0.00019235144 0.09152517 -0.04971564
000030 01 81 81 3c 77 83 17 bd 65 94 2d 3d 1e dc bd 3c
       0.015808584 -0.03699061 0.04237785 0.02317625
000040 5a f5 99 3a 91 e0 4e 3d 6d ef 86 3d 63 b9 dc 3d
       0.0011746094 0.050507132 0.065886356 0.10777547
000050 3c a4 ff 3c 38 3f bc 3d cf 4a d3 3c 68 a8 ea 3c
       0.031206243 0.091917455 0.025792507 0.028644755
000060 fb 3d 7f 3b 5c f7 97 3d 6a c2 e6 bc 25 33 e8 bc
       0.0038946855 0.07420227 -0.028168876 -0.0283447
000070 68 9d 5b bc ff 7a 10 be 9e 1f af 3d 1c 6f 87 bc
       -0.013404228 -0.1410942 0.085509524 -0.016532473
000080 5f 59 31 3d 3a 17 9a bd 16 5d d6 bd 94 55 59 bd
       0.04329812 -0.07523961 -0.104669735 -0.05306013
000090 25 fa e1 bd 69 49 2f bd 62 73 59 bd c8 69 ca bd
       -0.110340394 -0.04279462 -0.053088553 -0.098834574
0000a0 f4 94 09 3d ae 00 9f ba 0c 85 b9 bc c4 d5 d9 bc
       0.03358932 -0.001213094 -0.02264645 -0.02659119
0000b0 5e fa 1b 3d 65 d2 1e bd 9d 07 2f 3d 7d 59 ff 3c
       0.038080566 -0.038774867 0.04273187 0.031170601
0000c0 ff 32 7c 3d b0 73 10 bd 01 cf 71 bc 6b 50 68 3c
       0.06157207 -0.03526658 -0.014758826 0.014179329
0000d0 9b 1c 14 bc f6 12 d7 3b 50 77 e1 3c 7d 1a ac bc
       -0.009040023 0.0065635396 0.027522713 -0.021008724
0000e0 9b 91 9d 3c 92 7e 21 bc 59 05 3a bc 86 da 2c 3e
       0.01923447 -0.009856837 -0.011353814 0.16880235
0000f0 d2 a3 0c bb 9f 06 4a bd 6e a7 d3 bc 6b ce 91 3c
       -0.002145995 -0.04932272 -0.025836673 0.017798623
000100 08 82 c5 bb ba d5 2c bd f4 9b c6 bd 00 7d 1d 3d
       -0.006027464 -0.042196013 -0.096977144 0.038449287
000110 2f b1 56 bd a7 78 82 3c 13 b1 0a bd d4 bf 23 bb
       -0.05241507 0.015926672 -0.033860277 -0.0024986165
000120 81 54 6e bc e8 65 b7 bc 62 ea da 3c 66 5f 7b 3c
       -0.0145465145 -0.02238746 0.02672309 0.015342569
000130 6e de a0 bd 3f 5a 5c 3d b3 b8 26 bd c8 72 38 3d
       -0.07854925 0.053797003 -0.040703487 0.04503134
000140 02 54 2d bd 17 d9 1f 3c b0 f0 54 3d 6e 43 da bd
       -0.042316444 0.009756348 0.05198735 -0.106573924
000150 76 27 b0 3d 29 59 32 bd 5e 88 17 bd f2 9d f4 3c
       0.086012766 -0.04354206 -0.036995284 0.02986047
000160 22 31 d1 bc 73 9c e7 bc 9d 5e c8 bd 64 b9 8d 3c
       -0.025536124 -0.028272843 -0.09783671 0.017300315
000170 ec 9a 31 3d 79 20 a3 3b 7f 29 cc 3c 90 9a 55 bd
       0.043360636 0.0049782363 0.02492213 -0.052149355
000180 2a 22 6c 3d d5 ee 1f be a1 c7 04 bd fe 7f 09 3d
       0.05764977 -0.15618451 -0.032416943 0.03356933
000190 64 59 6f 3d 31 c3 8c 3d a4 2b f2 3d 2c f6 53 bc
       0.05843486 0.06873167 0.1182473 -0.01293711
0001a0 3f 05 ca bd a7 3d 7b 3c b9 1a 34 bb bc 66 3f 3d
       -0.09864282 0.015334523 -0.0027481748 0.046728835
0001b0 d8 fc df bc fe fa 67 3c ac 3c d5 bd f9 56 1d 3c
       -0.027342245 0.014158962 -0.10411963 0.009603255
0001c0 a2 d4 11 be 94 fe ed b8 31 cf 67 bd dc 70 02 3c
       -0.14241269 -0.000113484595 -0.056594077 0.007961478
0001d0 92 b7 8b bd 41 b5 8f bc 8c ac af 3b 83 ef b7 bc
       -0.06822123 -0.017542483 0.0053611454 -0.022453075
0001e0 74 48 bc 3c 40 5b 3b 3d d8 9e a0 3d 13 cb 95 3d
       0.022983767 0.04574132 0.07842797 0.07314124
0001f0 43 bc bd bb 04 a9 71 bc 29 88 bf 3b 50 e5 20 bc
       -0.005790265 -0.014749769 0.005845089 -0.009820297
000200 bf 05 e3 bc 48 f3 ab bd b0 3e 95 3c f5 6a 80 3d
       -0.0277127 -0.083960116 0.018218368 0.062704004
000210 e3 ea 81 3b 00 c7 86 3b d8 85 67 bb 7c 33 c0 bb
       0.0039647683 0.004113078 -0.003532758 -0.0058655124
000220 e8 f5 2d bd d3 83 06 bd 7b 7e ce 3c 7c 89 d1 3c
       -0.042470843 -0.03284056 0.025206795 0.025578253
000230 10 c3 26 bc cc 25 a5 bb b6 85 f2 bb 3b 83 86 bd
       -0.010178342 -0.005039906 -0.0074011935 -0.06567999
000240 5a e4 a5 3d d6 01 88 3d 74 d1 65 bd 73 36 a5 3a
       0.08100195 0.06640975 -0.056107953 0.0012604728
000250 17 c5 25 bd a8 9b fb 3c 72 d6 0a bd 6d fe 53 3d
       -0.040471163 0.030713871 -0.033895917 0.05175631
000260 03 36 95 3d 55 5f 1b be c0 ed 5f 3d 77 d9 e5 3d
       0.072856925 -0.15173085 0.054670095 0.11223119
000270 70 d8 a0 3d 29 b7 ea 3d 83 c6 b3 3d 84 02 d3 3c
       0.07853782 0.11460716 0.087780975 0.025758035
000280 2e 12 c3 bb 11 dd d1 bc 9b 37 b2 3c ce 41 d4 3d
       -0.005953095 -0.025618108 0.02175503 0.10364114
000290 df cf 88 3c eb 66 3b bb 96 fb 92 3d d2 2a 7c bc
       0.016700683 -0.002859528 0.071768925 -0.0153910685
0002a0 58 83 1a bd db 35 9c bc 88 bf ca bc 42 e1 1f 3d
       -0.037722915 -0.019068649 -0.024749532 0.039033182
0002b0 d6 35 de 3d 39 77 b5 3c a8 78 25 bd 2e 92 30 3d
       0.10850112 0.022151576 -0.04039827 0.043108158
0002c0 4b f0 a2 bd c6 b1 b7 bd b7 f9 b5 3d 31 9d 38 3d
       -0.079559885 -0.089694545 0.0888552 0.045071784
0002d0 1d 11 85 3c 8e a7 54 3d 31 19 77 3d 88 ef 0e 3c
       0.016243512 0.051917605 0.06032676 0.008724101
0002e0 f5 6e 5d bd 0e aa 56 3d 5b 0d e2 bd 03 72 16 3d
       -0.054060895 0.05240827 -0.110377036 0.036729824
0002f0 50 d6 95 bb 65 7d 2e bd 4c 69 0f 3d 7c 11 e4 3d
       -0.004572667 -0.042600054 0.03501253 0.111361474
000300 14 ef 1e 3c 30 e4 e7 bd 61 e9 4b bd 09 f1 8e 3a
       0.009700555 -0.1132282 -0.049783114 0.0010905574
000310 77 a8 d7 bc b5 d9 87 bd a6 a3 56 bd a5 c1 1e bd
       -0.026325447 -0.06633321 -0.05240216 -0.038758893
000320 ef f7 ca bc 8b a8 03 3d f3 5d 4f bc 1e 5c fa 3c
       -0.024776427 0.032143157 -0.012656677 0.030561503
000330 7c d3 7c 3d a1 0f 00 3e 2c 8f 1e bd d5 06 67 bd
       0.061725125 0.12505962 -0.038710758 -0.056403
000340 09 8c 10 bc ed c7 58 bd 87 29 f3 bc 99 c7 ae 3d
       -0.0088224495 -0.05292504 -0.029682888 0.08534164
000350 ca 41 1b bd d5 78 ae bb 1d 5d ef 3c 7a 4d 27 3d
       -0.03790454 -0.005324463 0.029219205 0.04084537
000360 89 a9 95 3d 3e 12 92 bd 0c 99 02 bb ab ac 90 3d
       0.07307727 -0.07132386 -0.0019927649 0.07064184
000370 49 dd 91 3a 3a a9 e8 bd 10 73 8f bd a2 59 73 bc
       0.001112857 -0.113604024 -0.07004368 -0.014852913
000380 eb fb db bc d5 1b 8c 3c 1e 61 27 3d 0d 34 26 3c
       -0.026853522 0.017103115 0.040864103 0.010144246
000390 66 bf c1 3d b0 6f 50 bd c2 3b 9e bc 76 99 d7 3d
       0.094603345 -0.050887764 -0.019315604 0.10527317
0003a0 28 4e b9 3d 97 40 98 3d 03 8f a9 bc ae 8c 3b bd
       0.0904811 0.074341945 -0.020698076 -0.04578846
0003b0 a6 5d 08 3d 02 90 ad bc 8c 1a 8f 3c 76 ea b4 bc
       0.033292435 -0.021186832 0.017468713 -0.022084456
0003c0 26 c9 fd 3c 08 fb 8f 3c 1e ba bc 3c 60 54 9f bb
       0.030979704 0.017575756 0.023037966 -0.004862353
0003d0 8b 27 81 3d 0a 1f 60 3c 5e 13 61 bb 19 02 db bc
       0.0630637 0.013679275 -0.003434382 -0.026734399
0003e0 e5 d6 18 bd 0a bc 90 3d ca fb 1a bd b1 d1 7e 3c
       -0.037314314 0.070671156 -0.03783778 0.015552924
0003f0 c6 81 6b 3d 33 a6 99 bc aa 34 98 bb 37 96 eb bc
       0.05749681 -0.018756008 -0.00464495 -0.028758151

encoder.critic_encoder.net.mlp.0.weight f4 [256, 54]
000000 4d 76 6c bc 62 31 5f bd 99 d2 ea 3d 86 b9 ff bd
       -0.014432502 -0.054490454 0.114659496 -0.12486558
000010 c4 8c 96 bb 5a 58 08 3e a8 1e 87 bb 4c 9c 86 3d
       -0.0045944173 0.13314953 -0.0041235276 0.0657278
000020 19 cb 2e 3d 9f ab 89 bd d3 24 95 3d 99 43 3e be
       0.042674158 -0.06722187 0.07282414 -0.18580474
000030 3c d3 b4 bd ab da 03 bd 88 67 d6 bd 1d 3b 03 bd
       -0.08829352 -0.03219096 -0.10468966 -0.032038797
000040 99 c9 bd 3d 61 7a 9a 3d 67 ee 96 bd 6e 4b fe 3c
       0.09266967 0.07542873 -0.073696904 0.031041827
000050 99 69 1b bd 26 6f 69 bd 8d 89 c5 bc 0c 7b e7 3d
       -0.037942503 -0.056990765 -0.02411344 0.11302766
000060 1a 6a a4 3a 20 cf 67 bd 37 7f 63 3d e5 46 a7 3c
       0.0012543828 -0.056594014 0.055541243 0.020419547
000070 c3 13 f4 3d 6a 5c 5c be 57 df a6 3c 88 af fe bd
       0.11917832 -0.21519628 0.020370169 -0.12435824
000080 a9 96 98 bd 5c 65 b4 3d f3 38 2c 3c 28 03 37 bd
       -0.07450611 0.08808395 0.010511625 -0.044680744
000090 f2 eb e2 bd 71 dd 97 3d 00 c2 16 3d c7 04 bb bd
       -0.11080159 0.074152835 0.036806107 -0.091317706
0000a0 db 20 64 3d 4f d8 b6 3c 19 74 7b 3d 59 bd da 3d
       0.055695396 0.02231994 0.061390016 0.106806464
0000b0 18 eb d6 3c 22 ad 76 3c a0 09 05 3e 26 03 7d bd
       0.026235148 0.0150559265 0.12991953 -0.06177058
0000c0 33 4f 4b bd 08 63 e7 3d 95 83 c9 3d 7e e4 ad bd
       -0.049636077 0.112981856 0.098395504 -0.08490847
0000d0 f2 ff 38 bd 0f ac a5 3d b1 52 68 3d e3 28 f9 bc
       -0.045165963 0.08089458 0.056719486 -0.030415004
0000e0 9f 43 97 3d 2a 58 f4 bd ae ed 0d be b5 0a 04 be
       0.073859446 -0.119308785 -0.13860199 -0.1289471
0000f0 8f f4 9b 3d ef 0f 2b bd 5b 4f 14 3e 53 a5 d5 3d
       0.07615005 -0.041763242 0.14483397 0.10431924
000100 57 ba 40 bd a1 b8 4d bb 3f b8 fb bd 2a 42 0c 3d
       -0.047052708 -0.0031390565 -0.122910015 0.034242786
000110 b6 d0 14 3d 7b a9 08 be f2 5b 02 be e6 f0 0f bd
       0.036331855 -0.13345902 -0.12730387 -0.035141848
000120 93 4c c6 bb cc fe c7 3d cd 66 55 3d 1a d5 2e bd
       -0.006051609 0.097653955 0.05209999 -0.0426837
000130 8e 6c 2d 3d d8 af fa bd 7c e0 bf b9 d4 fe 35 bd
       0.042339854 -0.12240571 -0.00036597613 -0.044432476
000140 cc 73 89 bc bc 00 3c 3c aa 32 e6 bd 92 26 d7 bd
       -0.016778849 0.011474784 -0.11240132 -0.105054036
000150 e8 39 f7 3c c6 71 da 3d 2b ac be bc 4c 6e 5b 3c
       0.030178979 0.10666232 -0.023275455 0.013392996
000160 aa 5f 71 3b 7c f2 2d bd 87 9b fd bb 35 48 10 be
       0.0036830702 -0.04246758 -0.0077394876 -0.14090045
000170 ab 38 32 bd 66 4c f2 bb c4 ef 56 bd 16 ff 23 bd
       -0.043511074 -0.0073943613 -0.052474752 -0.04003819
000180 b5 2a 8b 3d e8 a4 93 3c 63 fd bd bd 33 46 47 3e
       0.06795255 0.01802297 -0.09276845 0.19460373
000190 e1 46 27 3d 2d 1c 48 3d 46 9e 1d bd 8a 8b 66 3d
       0.04083908 0.048854996 -0.03848102 0.05628542
0001a0 6f 9d c2 bd 93 32 3b 3d 24 c6 df bd 77 71 23 bd
       -0.09502684 0.04570253 -0.10926464 -0.03990313
0001b0 5c d2 4f bb 03 1b 69 bd 6a 0b 7e 3d 75 73 3b 3b
       -0.0031711077 -0.056910526 0.062022604 0.0028602753
0001c0 47 54 95 bc e9 24 d3 bc 80 79 fc 3d cd b2 d9 bd
       -0.018228663 -0.025774436 0.12327862 -0.10629807
0001d0 ed 80 f2 bc cf 03 0b 3d 69 1f 13 3d 1f af 99 3d
       -0.029602492 0.03393918 0.035918627 0.07504105
0001e0 07 80 9e 3b 8f 77 c9 3d d9 d3 ad bd 37 2b bd 3d
       0.0048370394 0.09837257 -0.08487672 0.09236758
0001f0 7f c5 a7 bd 43 36 7b bd 90 3c 27 3c 8f 97 bb bd
       -0.08191966 -0.061331045 0.01020731 -0.09159767
000200 e5 40 97 3c f8 37 6a 3d ad 2b b0 3d c8 12 9a 3d
       0.018463561 0.057182282 0.086020805 0.075231135
000210 3a 52 28 bd 66 b4 a1 3d 4c ae 87 bd d0 59 c0 bd
       -0.041094042 0.078957364 -0.06625041 -0.093921304
000220 29 71 6d bd 69 ba a1 bd 37 c5 3e 3d 4d e9 89 bd
       -0.057969246 -0.07896883 0.046574797 -0.06733952
000230 01 e4 b5 bd ed 1a bb 3d 40 1c 09 3e ab 9f 1d 3d
       -0.08881379 0.09135995 0.13389683 0.03848235
000240 e2 bf 44 3d 08 4c 3a 3d bb cc b3 bd b3 66 ad 3c
       0.048034556 0.045482665 -0.087792836 0.021167135
000250 f2 33 a3 bd 66 a5 1c 3c 67 b1 2f bd a9 f7 c0 3d
       -0.07968892 0.009560918 -0.042893793 0.094222374
000260 89 2c 26 3c 5b c6 bb bd 32 2e a8 3d a3 2d 0b bd
       0.010142454 -0.09168693 0.08211936 -0.03397907
000270 a6 ac a1 3d 6d 1e d6 bd 02 fa 8e bd 0d 48 08 be
       0.07894258 -0.10455022 -0.06981279 -0.13308735
000280 e4 17 c1 bc 72 bd 8f bb c6 13 15 be 9e 81 f8 3c
       -0.023570962 -0.0043865973 -0.14558324 0.030335244
000290 00 5c a8 3d c4 c2 07 bd 00 79 98 3d 40 3a 07 3e
       0.082206726 -0.033144727 0.07444954 0.13205814
0002a0 e0 d1 31 be 73 df ec 3d 2a 61 07 be 00 10 c2 3c
       -0.17365217 0.11566057 -0.13220659 0.02368927
0002b0 f1 f0 6b 3c e0 61 cb 3b 38 37 7b 3d f7 c1 53 3d
       0.014400707 0.006206736 0.061331958 0.05169865
0002c0 c1 e5 b6 bd e3 cf 65 3d 04 92 85 3d 44 3b f9 3b
       -0.08930541 0.05610646 0.06521991 0.007605942
0002d0 d5 2f 85 3c bc a8 26 3c 5f a3 0d be 87 44 40 3d
       0.01625816 0.010172065 -0.13831852 0.046940353
0002e0 6d 08 b1 bd d5 2a 20 3d 76 95 4c bd 90 77 4b bd
       -0.08644185 0.039103348 -0.049947225 -0.04967457
0002f0 59 d8 69 bd 6e c5 d1 bc f2 ee 48 3d 07 35 57 3d
       -0.05709109 -0.025606837 0.049056 0.052540805
000300 f8 d5 42 bc e2 19 2a be f3 92 da bd 07 79 db bb
       -0.011891834 -0.16611436 -0.106725596 -0.006697777
000310 3c 82 f1 3c bc 28 2a 3b 84 62 3a 3d 9a 54 8b ba
       0.029481046 0.002596422 0.045504108 -0.0010630072
000320 74 c1 d4 bc c5 53 ab 3d b3 fa 64 bc b7 43 0a bd
       -0.025971152 0.08365587 -0.013975787 -0.033755984
000330 26 5c df bc 32 25 96 bd 18 00 39 bd cf d8 6d 3c
       -0.02726562 -0.07331313 -0.045166105 0.014517023
000340 72 ae 00 3e e4 8d a6 3d c1 0b fb bd 35 e6 75 3d
       0.12566546 0.08132532 -0.12258101 0.060033996
000350 19 f3 58 bc 43 42 7e 3d 3b 66 78 bd fb 62 0c bd
       -0.013241553 0.06207491 -0.06064437 -0.034274083
000360 0a 59 e8 bc fb b5 00 3e 69 d7 1f 3e 0a 6b 28 3d
       -0.02836277 0.1256942 0.15609516 0.041117705
000370 7a f8 4e 3d de 9b 02 be cb 92 e0 3d 85 57 bd bc
       0.050529934 -0.12754771 0.109654985 -0.023113022
000380 f0 dd f2 bd 37 7c 54 3d a8 73 23 be e8 86 23 3e
       -0.118587375 0.051876273 -0.15962088 0.15969431
000390 94 15 f9 bd b6 48 27 3e 41 4b 32 3e a1 88 94 bd
       -0.12162319 0.16336331 0.1741152 -0.072526224
0003a0 b1 c0 1f 3d 50 18 15 bd 85 47 bf 3d 18 12 62 3d
       0.039002124 -0.03640014 0.09339813 0.055193037
0003b0 8e d1 ee 3d 26 cf 8e 3d c0 fd ec bc 0d 61 27 bc
       0.11661063 0.06973104 -0.028929591 -0.01021601
0003c0 07 19 07 3e 22 d3 68 bd 9f dc c3 3c f9 f4 0d 3d
       0.13193141 -0.056841977 0.023908911 0.034657452
0003d0 5e 20 8c bd 43 76 a8 3d c5 fa ff bd 9a 45 79 3d
       -0.06842111 0.08225682 -0.12499002 0.060857393
0003e0 70 2b cf 3d 97 a5 d7 3d fa c6 f2 bd 71 83 a5 3c
       0.10115707 0.10529631 -0.11854358 0.020204278
0003f0 58 69 19 3e 54 74 3e 3e d4 bf c2 3c 10 24 c9 bd
       0.14981592 0.18599063 0.023773111 -0.098213315

encoder.critic_encoder.net.mlp.0.bias f4 [256]
000000 5f 13 ca 3d 88 98 4a 3e 84 47 67 bd 36 0e 96 be
       0.09866976 0.19784749 -0.056464687 -0.29307717
000010 c1 70 36 3d 48 c2 11 3e 93 3c 7e be d0 81 20 3e
       0.044541124 0.14234269 -0.24827795 0.1567452
000020 88 e9 b6 bd e5 5b 23 be af 95 f3 3d 98 bb 5c 3e
       -0.08931261 -0.15953024 0.11893784 0.21555936
000030 35 53 4b 3e 17 ac 7b 3e e3 d8 6c 3e 3f f4 3a be
       0.1985596 0.24577366 0.2312961 -0.18257235
000040 7b ed 10 bc 96 bd 27 bc 6c 3f 74 3d ec 22 bf 3d
       -0.008845682 -0.010238072 0.059630796 0.09332833
000050 27 e6 82 be 6a 16 bd 3d d6 8a 94 3d 05 b5 90 3d
       -0.25566217 0.09232791 0.07253043 0.07065777
000060 94 0b 27 be 1c 8d 52 be 75 1a bf bc 55 d9 36 3e
       -0.1631301 -0.20561641 -0.023328045 0.17856343
000070 25 49 ad bd 95 97 f2 bd d7 84 7f be ae 30 b9 3e
       -0.08461217 -0.11845318 -0.24953018 0.36169952
000080 26 10 46 bc 0e 4d 62 3e eb 3a f4 3d 46 1b db 3d
       -0.012088811 0.22099707 0.119253 0.10698561
000090 42 ba cb 3d 4e b3 47 3e 55 4c a3 be 74 40 41 bd
       0.09947635 0.19501993 -0.31894174 -0.047180608
0000a0 e4 5f 36 3e 5b 07 66 be 11 3b 4c 3e c1 5e a9 be
       0.17810017 -0.22463743 0.19944407 -0.33080104
0000b0 5e ef 04 be 92 ac 97 3e a0 81 55 bb 5f 4f 8a bc
       -0.12981936 0.29623848 -0.0032578483 -0.01688355
0000c0 6b 4e b2 be 29 3f 45 3e 92 47 e3 3d 0d 3b 52 3d
       -0.34825453 0.19262375 0.11097635 0.051325846
0000d0 87 2e 8f bd b2 09 ea bc a1 f5 0b be fe 5b 9f be
       -0.06991296 -0.028569076 -0.13667919 -0.31124872
0000e0 af 44 0c be 19 28 b2 3e 18 4c d3 3d bd b7 47 3e
       -0.13698076 0.34796217 0.10317248 0.19503684
0000f0 5e 0c 26 3e 6c d3 64 be f8 fd 85 bd f6 73 88 3e
       0.16215655 -0.22346276 -0.06542581 0.2665097
000100 2c a0 17 3e 6d 0f b0 3d 6a 60 fd 3d b4 df 3d be
       0.14807194 0.08596692 0.12371905 -0.18542367
000110 fb b4 87 be 1a 30 27 be 58 01 19 3e 03 85 a3 3e
       -0.26505265 -0.16326943 0.14941919 0.31937417
000120 13 f9 c3 be 41 8e 4c be cc f6 0f 3e 35 99 29 3d
       -0.38275966 -0.1997614 0.1405899 0.041405875
000130 4a 05 bb be 0a b0 a3 bc 64 c7 5d 3e bc 97 89 be
       -0.36527473 -0.019981403 0.21658093 -0.26873577
000140 70 af 93 3d 3c 07 1b 3e 8e 57 73 3e 0a 1e e8 3d
       0.072111964 0.15139478 0.23763868 0.113338545
000150 a5 f9 1e 3e c6 d4 37 be ec 57 2c 3e e6 fe 00 3c
       0.1552492 -0.1795226 0.16830415 0.0078732725
000160 64 b8 7d bd 48 19 4d be 88 70 1a be 66 17 0f be
       -0.061943427 -0.20029175 -0.1508199 -0.1397377
000170 53 42 df 3d 6f 65 11 be 2d 0c 5a 3e 1f 27 1c 3c
       0.10901322 -0.1419885 0.21293707 0.009530812
000180 5a 11 d7 3d d2 cd f0 bc b4 21 a3 be 5d c2 86 be
       0.105013564 -0.029395018 -0.3186165 -0.26320162
000190 56 c0 6f be 89 89 25 bd 62 ad 39 3e af 1b 5f be
       -0.23413214 -0.040414367 0.18132547 -0.21787904
0001a0 f0 32 43 3e 61 d6 a3 3e 45 df c5 3d 86 ff 14 be
       0.190624 0.31999496 0.09661726 -0.145506
0001b0 49 93 eb bd 44 25 dd 3d fa c6 1f be 8c a0 ab 3d
       -0.11502702 0.107981235 -0.15603247 0.08380231
0001c0 d9 8e b8 3d a7 41 6e be b9 58 37 3e 99 5a 46 3d
       0.09011621 -0.23267232 0.17904939 0.048426244
0001d0 72 26 1a be d0 52 28 be 91 c9 7f bd 0e 2d eb 3d
       -0.15053728 -0.1643784 -0.062448088 0.11483203
0001e0 2c bd 08 be cb 5c 5c 3e e4 6e 5b bb 8b 06 05 be
       -0.13353413 0.21519773 -0.0033482844 -0.12990777
0001f0 11 5d 67 3e 54 61 d1 be d4 bd 8a be 90 46 79 be
       0.22594096 -0.40894568 -0.27097952 -0.24343324
000200 77 17 36 3e bb c2 92 39 b0 87 35 3d 43 02 3c 3e
       0.17782389 0.00027992376 0.044318855 0.18360238
000210 55 cd dc 3d 97 47 76 be 55 9f 91 be 95 23 64 be
       0.107813515 -0.24050747 -0.28441873 -0.22279198
000220 99 1c 68 3e 9e 31 02 3e 15 c5 50 be 5a 95 62 3e
       0.22667159 0.1271424 -0.20387681 0.22127286
000230 f1 9d 2d be dd d5 19 3e 6a f4 a2 bd 8b e6 ed 3d
       -0.16954781 0.15022989 -0.079567745 0.11616238
000240 44 1c b5 3d 55 ad c2 be a2 f0 2e 3e bd 21 30 3e
       0.08843282 -0.38022867 0.17083982 0.1720037
000250 41 e0 13 3e cb 25 cf bb ce 33 71 be 2f df 97 bd
       0.14441015 -0.006321644 -0.23554918 -0.07415616
000260 85 f3 4b 3e dc 9e 52 3e e4 68 5a 3d 5e 28 62 3e
       0.19917114 0.20568413 0.053322688 0.22085711
000270 37 cc c4 3e 55 9a 44 be d0 d8 3f be 0b 3e dd bd
       0.38437054 -0.19199498 -0.18735051 -0.108028494
000280 a9 0a d5 be b7 b2 87 be 52 e2 85 be 51 e3 91 bd
       -0.41609696 -0.26503536 -0.2614923 -0.07123435
000290 fe 62 02 3e 5e 2a 89 3d 58 7e b8 3d 1b 8c df 3d
       0.12733075 0.06697534 0.09008473 0.10915395
0002a0 62 72 22 be 06 8a 6d bc 13 d4 72 3e 04 3a 7c 3e
       -0.15863946 -0.014498239 0.23713712 0.24631506
0002b0 bc 0f 82 be 9a cd 06 3e 16 4a 79 3e 0c c1 26 be
       -0.2540263 0.13164368 0.24344668 -0.16284579
0002c0 22 03 19 3e 9e ee 0b 3e 87 36 21 3e 27 68 4c bc
       0.14942601 0.13665244 0.15743457 -0.012476004
0002d0 09 d3 24 be 97 3b a2 bd 47 fb 82 bd aa d4 2f be
       -0.16096129 -0.07921522 -0.063955836 -0.17170969
0002e0 86 ab 34 3e 69 82 19 3e c2 76 8c 3e c9 82 7b 3e
       0.17643556 0.14991154 0.27434355 0.2456161
0002f0 80 d3 97 bd ae ee a9 3e 79 93 53 3e 7f d9 20 3e
       -0.07413387 0.3318991 0.20661725 0.15707968
000300 26 43 1a bd 76 0e 2e be 87 c9 88 be 71 90 8e 3c
       -0.037661694 -0.16997704 -0.26716253 0.01740286
000310 0b e4 03 3d 82 2d a8 bd bf b3 65 bd a3 96 f0 3d
       0.0321999 -0.08211805 -0.056079622 0.11747482
000320 51 aa 46 be 3e 0d 69 3e 7f 31 5c be 13 fa fc 3d
       -0.19400908 0.22758958 -0.21503256 0.12352385
000330 59 82 09 3e c0 9b 90 bd fc ca 32 be 97 46 19 be
       0.1342863 -0.07060957 -0.17460245 -0.14968334
000340 8c ab 7b be 09 99 a7 be 4d 4c e0 bd 26 f7 81 bd
       -0.24577159 -0.32733944 -0.10952053 -0.06345968
000350 15 59 90 3e c8 fa 38 3e f4 2f 90 3e 7a 4a 1d 3e
       0.28192964 0.18064415 0.28161585 0.15360442
000360 d9 26 9c bd cc 8f 25 be 28 02 9b bd 8c fb a2 3e
       -0.07624597 -0.16168135 -0.07568771 0.3183254
000370 ca cd 19 be 26 c1 af bc ee f7 33 3d c6 bc fc 3d
       -0.15019909 -0.021454405 0.043937616 0.12340693
000380 ae a7 30 3d 00 7e 48 be 25 89 de 3e 16 86 83 be
       0.04312866 -0.19579315 0.43464008 -0.25688237
000390 7a 0d 6d 3e 62 15 2b be cd f7 53 be d1 f0 52 3c
       0.23149672 -0.16707376 -0.20699997 0.012874798
0003a0 49 4e 6e bc 81 4e aa bd f5 ca 0e bd 56 57 cb bd
       -0.014545032 -0.08315755 -0.034861524 -0.099287674
0003b0 a9 75 88 3e 6a eb 6e be bf 4b 3b 3e f7 bd 2f be
       0.26652268 -0.23331991 0.18290614 -0.1716231
0003c0 56 2e 8f be 89 61 99 be 28 f3 81 be 30 95 17 3e
       -0.2796504 -0.29957226 -0.25380826 0.14803004
0003d0 85 db 48 3e fd 63 57 be 70 8c 4d be 7c fa 62 3e
       0.1961499 -0.21034236 -0.20073104 0.22165865
0003e0 05 84 5b 3e 17 ad 70 be 78 7a 4f 3d 90 45 04 be
       0.2143708 -0.23503529 0.050653905 -0.12917161
0003f0 cc 3c 33 3e a6 f6 4a be 2d 33 34 be 7d 21 7d 3d
       0.17503661 -0.19820651 -0.17597647 0.061799515

encoder.critic_encoder.net.mlp.2.weight f4 [256, 256]
000000 5a 02 3e 3d bc ba 9e 3d 5d 12 ed 3c 7d bb 77 bd
       0.04638896 0.077504605 0.02893942 -0.060481537
000010 da 09 cf 3c 3e ec ca 3d 0c a1 ab bd 3b b3 79 3d
       0.025273252 0.09908341 -0.08380327 0.060961943
000020 1f 7a 93 bd 39 d1 47 3d b7 56 5c 3c 79 c9 6d 3d
       -0.07201027 0.048783515 0.013448409 0.058053467
000030 60 6d 83 bd d0 df eb 3d 5b f3 da 3c fa d4 49 bd
       -0.06417346 0.11517298 0.026727369 -0.049275376
000040 02 71 21 3d 84 f4 57 3d 50 8e a8 3d 28 d1 58 3c
       0.039414413 0.052723423 0.08230269 0.0132334605
000050 a0 fc 08 bd 80 ac fb bc a9 4a 75 bd b4 2b 0d 3d
       -0.033444047 -0.030721903 -0.059885655 0.034465507
000060 be 3b d9 bd d9 21 cc bd 2f 64 4c bd fa 5f 0e 3e
       -0.10607098 -0.099673934 -0.04990023 0.139038
000070 5e 8c 6d 3d c0 44 5f bd 05 8c ae 3c 8f 75 c4 3d
       0.057995193 -0.054508924 0.021307 0.09592735
000080 67 8a e4 3c e7 2e aa bb c0 9f c2 3d f1 87 4d 3d
       0.027898027 -0.0051935795 0.09503126 0.050178472
000090 61 c5 25 bd 7a be 49 3d a8 28 99 bd ed 14 57 bd
       -0.04047144 0.04925392 -0.07478458 -0.05251019
0000a0 42 0b 85 3c 8e 11 0d bd 06 cb 46 3c 18 e0 ba bd
       0.01624072 -0.03444057 0.0121333655 -0.09124774
0000b0 23 b3 0b be 8a 3e a6 3d 14 4a 37 bd 57 35 c1 bc
       -0.13642554 0.08117397 -0.04474838 -0.023585005
0000c0 c7 b6 93 bd 83 c8 71 3d 31 86 8f 3d 65 9f cc 3d
       -0.072125964 0.059029114 0.07008017 0.099913396
0000d0 17 b3 78 bc 9c dc 38 bd 67 1b e8 3c 0f 1a 49 3c
       -0.015179417 -0.045132264 0.028333379 0.012274279
0000e0 ab 9b 4f bd 33 0e 85 3d bf c1 e6 3c c8 7a c6 bc
       -0.050685566 0.06496849 0.028168557 -0.024228469
0000f0 07 a2 4e bd fa 5c fe bd 00 a7 70 bd 05 41 8f 3d
       -0.05044749 -0.124200776 -0.058753014 0.06994823
000100 9c 27 d1 3c e3 6f ed 3b 0c a2 e9 3c 47 8b 7d bc
       0.025531583 0.007246004 0.028519653 -0.015475101
000110 77 3c 8a bd 0b 16 ea bd 30 8b d2 3d 7f 3f 8b 3d
       -0.06749814 -0.114299856 0.10280454 0.0679922
000120 b9 3a b5 bd 43 55 4b bd 4e ec 93 3d 47 bf 6e 3d
       -0.08849091 -0.04964186 0.07222806 0.058287885
000130 97 79 17 be 5d f2 a8 bd 97 18 73 3d e4 5a 88 bd
       -0.14792477 -0.08249352 0.059349623 -0.06657961
000140 f4 32 ff 3c 0c a7 1d bd f2 6b 3c 3d 8a 4b 15 3d
       0.031152226 -0.038489386 0.046001382 0.036448993
000150 46 bb e3 bc 7e 79 40 bc 2d 6f bb 3c 9c 0c 7d 3b
       -0.02779926 -0.011747716 0.022880161 0.0038612252
000160 9f 03 3d 3c 42 52 16 bd 85 99 4f bd 1f 47 1a 38
       0.011536508 -0.03669954 -0.050683517 3.6782698e-05
000170 bf d5 8d bc c6 d6 8d 3d de 3d 89 3c 38 94 92 bd
       -0.017313836 0.069257304 0.016753133 -0.07157177
000180 fa 51 f2 bc c4 64 d0 bd 6a 3e 96 bc 35 c0 62 bd
       -0.029580105 -0.101754695 -0.018340308 -0.055359084
000190 0e 8b 17 be 67 fc 84 bd d7 1d 13 3d 20 1e 1a 3d
       -0.14799139 -0.064934544 0.03591713 0.037626386
0001a0 97 7e 8e 3d 27 4a dc bc 6a 46 04 bd 7e 2c e6 bc
       0.06957739 -0.026890827 -0.032293715 -0.028097387
0001b0 f3 27 1e bd 6d 02 24 3d 28 c2 ce bc e1 b7 ce 3d
       -0.038612317 0.040041376 -0.025239065 0.10093666
0001c0 30 74 2d 3d b9 d1 ad 3b 03 28 5f bd ce 03 fe bc
       0.042347133 0.005304542 -0.054481518 -0.031007674
0001d0 21 55 cc bc ba 40 42 bd c1 1d ca 3c 14 6c 36 3d
       -0.024942936 -0.04742501 0.02467239 0.044536665
0001e0 eb ac 09 3d d9 df 0d bd fa b5 14 bd 9e 0e 7f 3d
       0.033612173 -0.034637306 -0.03630636 0.0622698
0001f0 46 aa 73 bc ba f3 a8 bd 69 24 dd bd 93 1d ee bc
       -0.014872139 -0.08249612 -0.1079796 -0.029066836
000200 4e 81 1a 3d 85 07 41 bd 6c 30 37 3d e3 32 79 bc
       0.03772097 -0.04712631 0.044723913 -0.015209886
000210 f2 0e b9 3d 59 a6 db bd b7 28 4f bd c6 6e db bd
       0.09036054 -0.10725088 -0.050575938 -0.10714488
000220 bc 72 7d 3d 81 f0 da bc 1f 1e ae bd 35 d0 a6 3b
       0.061876997 -0.02672601 -0.08501839 0.005090738
000230 8f 4a 61 bd 33 e1 72 bd 61 4c 80 3d 0e 2e 82 3d
       -0.055002745 -0.059296798 0.06264568 0.063564405
000240 23 c8 f4 bc 63 d3 55 be e7 6c b9 3d df ce ee 3d
       -0.029880589 -0.20881419 0.090539746 0.11660551
000250 61 bd 56 3d 90 2a 7d bd 6d bb dc bd 7a 48 84 bd
       0.0524267 -0.06180817 -0.10777936 -0.06459136
000260 66 d2 4b 3d db d5 25 3d ae 17 05 3c 7e 5c 78 3d
       0.0497612 0.04048715 0.008123321 0.060635082
000270 b2 06 de 3d f9 61 65 bc b9 92 9a 3c dc f9 d3 bc
       0.10841121 -0.014000409 0.018868791 -0.025875978
000280 ee 72 3a bd fd ee 00 be 73 3f 9e 3c ff 1b 88 bd
       -0.04551976 -0.12591167 0.019317364 -0.06645965
000290 dc 19 87 3d ab 49 82 3d 51 ed 7c 3b 69 a9 da 3d
       0.06596729 0.06361707 0.00385936 0.10676844
0002a0 23 84 66 bd f0 58 85 3d 5b bb b7 3d cb 90 58 3d
       -0.05627836 0.06511104 0.08971282 0.05287246
0002b0 80 a5 95 bd 38 28 60 3c 50 d5 b8 bc a0 8e 7c bd
       -0.07306957 0.013681464 -0.022562653 -0.061659455
0002c0 c3 97 6d bd 3a 0e d1 3d 41 83 bd 3d 65 11 d9 bd
       -0.05800606 0.102077916 0.0925355 -0.10599021
0002d0 53 38 35 3d 55 3d b6 3c 97 55 78 3b f5 92 f8 3c
       0.044243168 0.022246042 0.0037892812 0.030343512
0002e0 9c 38 60 3d cf ce 58 3d b0 67 ea 3c 5a a3 1a 3d
       0.054741487 0.052931603 0.028613895 0.03775344
0002f0 f7 38 b2 bd 68 2e 0e 3e 67 30 7f bc 01 49 59 3d
       -0.087022714 0.1388489 -0.015575505 0.053048138
000300 90 3e 90 3c 59 32 90 bd 90 32 ab bd a2 44 f0 bd
       0.017607957 -0.07040853 -0.083592534 -0.11731841
000310 ea d7 0e 3e 02 1d a2 3c 24 77 38 bd c6 22 13 bc
       0.13949552 0.019789223 -0.045035496 -0.008980459
000320 21 b2 d4 bd 13 b3 d6 bb 5e 63 15 bc c1 69 94 3c
       -0.10385538 -0.006552109 -0.009117929 0.018116834
000330 33 15 23 bd 89 86 28 bd 0d e8 3c 3d f8 34 44 3d
       -0.03981514 -0.041143928 0.04611974 0.047902077
000340 d4 f6 b3 bd 8c 49 b0 bc 3a fd 73 bb 7b 55 1f bd
       -0.08787313 -0.021519445 -0.0037229792 -0.03889988
000350 82 82 1a bc ea f3 67 3d 1a 23 d9 3d 83 ff 12 bd
       -0.00943053 0.0566291 0.10602398 -0.035888206
000360 c1 a1 b5 bc 01 26 a2 bd e3 ac 9c 3c 33 61 2a 3c
       -0.022171857 -0.07917405 0.019125408 0.010399151
000370 3f c2 cd 3c 9e 11 80 3d 51 a8 78 bc 63 59 df 3d
       0.025117038 0.0625336 -0.0151768485 0.10905721
000380 41 14 e5 3d 7a db 02 be 7b e6 0f 3e 6a 54 0f 3d
       0.11185504 -0.12779036 0.14052765 0.034992613
000390 e3 3c 94 bc b9 bc 8b bc 18 fc 17 bd 23 41 eb bc
       -0.01809544 -0.017057763 -0.03710565 -0.028717583
0003a0 d3 86 64 bc 60 28 bb bd 06 90 b7 3d 64 a4 8a ba
       -0.01394816 -0.0913856 0.08963017 -0.0010577557
0003b0 94 7a c8 3d 94 50 1e bb 97 98 8d 3c 13 82 bd bd
       0.09789005 -0.0024156915 0.017284675 -0.09253325
0003c0 27 c8 33 be d7 0d 30 bd 91 ab 6a bc 73 9e fa 3b
       -0.17556821 -0.04298195 -0.014323131 0.007648283
0003d0 89 50 b3 bc 83 2d 03 3d fc e5 6d bc 0b ac dc 3c
       -0.021888988 0.032025825 -0.014520165 0.026937505
0003e0 b2 b2 46 bd 27 b5 5f bd 3d a4 71 bc 71 63 c3 bd
       -0.04851026 -0.05461612 -0.01474863 -0.09540451
0003f0 87 e4 97 3d 16 9e 48 3d 74 71 93 bd 79 40 6c bd
       0.07416635 0.048978887 -0.07199374 -0.057678673
