src/checkpoints/ppo_best_checkpoint/learner/module_state/agent_0/module_state_dir/module_state.pt (torch, 655490 bytes, 11 tensors)

encoder.actor_encoder.net.mlp.0.weight f4 [256, 54]
0	0x3d937000	0.07199097
1	0x3ebb3ead	0.36571255
2	0xbddec7d5	-0.10877959
3	0xbce7b0c4	-0.02828253
4	0xbdeaf4f3	-0.114725016
5	0x3d3d5736	0.04622575
6	0xbd7a75e8	-0.0611476
7	0xbc407249	-0.011745998
8	0xbe0e935a	-0.13923398
9	0xbdc9c3ea	-0.09851821
10	0xbe056b4b	-0.1302921
11	0xbe1244bd	-0.14284034
12	0x3e043aff	0.1291313
13	0xbb77227f	-0.003770977
14	0x3e8ba6ff	0.27275845
15	0x3d881bf0	0.06645954
16	0x3dab1f18	0.0835554
17	0xbd81930b	-0.06326874
18	0x3e31456b	0.17311637
19	0x3edff803	0.43743905
20	0xbcec1408	-0.028818145
21	0x3d1d88f7	0.038460698
22	0xbd88d1db	-0.06680652
23	0xbe0fc208	-0.14038861
24	0x3dde2d9f	0.10848545
25	0xbcb3b60e	-0.021937396
26	0xbc21a56b	-0.009866099
27	0x3c894a7e	0.016759153
28	0x3e122f82	0.14275935
29	0xbe1fd69d	-0.15609212
30	0x3e045276	0.12922081
31	0x3d40eec4	0.047102705
32	0xbd88e06c	-0.0668343
33	0xbcf34916	-0.029697936
34	0xbe08bb87	-0.13352786
35	0xbd73261d	-0.05936252
36	0x3e55cd40	0.20879078
37	0x3ea909e9	0.33015373
38	0x3dc0c110	0.09411824
39	0x3dc07556	0.0939738
40	0x3e0c02c0	0.13672924
41	0x3d60f9c1	0.054925684
42	0xbdaf7c24	-0.085686
43	0x3da32222	0.07965495
44	0x3d9785af	0.07398545
45	0x3dc87c45	0.097893275
46	0xbc527454	-0.012845118
47	0x3c9658f3	0.018352961
48	0xbca27b84	-0.019834287
49	0xbdb0852f	-0.08619153
50	0x3e8c719c	0.27430427
51	0x3ebffe9b	0.37498936
52	0x3c5a8f1c	0.013339784
53	0x3d390408	0.04516986
54	0xbd4a421f	-0.049379464
55	0xbd20dd30	-0.03927344
56	0x3e0a30c8	0.13495171
57	0xbe1c491a	-0.15262261
58	0xbd8d70b1	-0.0690626
59	0xbdcd3882	-0.10020544
60	0x3dffdada	0.124929145
61	0x3c6786a3	0.014131221
62	0x3dc87d29	0.097894974
63	0x3d09e29a	0.03366337
64	0xbde6ba40	-0.11265993
65	0x3d480374	0.04883142
66	0xbddeda6f	-0.10881507
67	0x3dedbdb7	0.11608451
68	0x3de03d7d	0.10949228
69	0xbdb3623b	-0.0875897
70	0xbdde3e8e	-0.10851775
71	0xbcfae174	-0.030625083
72	0xbe4c4a74	-0.19950277
73	0x3d4eb38d	0.0504642
74	0xbca78e32	-0.020453546
75	0x3d2e0daf	0.04249352
76	0xbd922e0f	-0.07137691
77	0x3ddbb80b	0.10728463
78	0x3d3a3359	0.045459125
79	0xbd7f97d0	-0.06240064
80	0xbdb239c2	-0.08702423
81	0xbcb771c7	-0.02239312
82	0x3dba5ff0	0.0910033
83	0xbc9f1fb7	-0.019424303
84	0xbcf28024	-0.029602118
85	0x3da9078a	0.08253391
86	0x3d98927d	0.074498154
87	0xbc84b1c0	-0.016198039
88	0x3e070a32	0.13187483
89	0x3d16df74	0.036834195
90	0xbd8d6a22	-0.06905009
91	0xbe6bd5c6	-0.23030767
92	0x3d90cf91	0.0707084
93	0xbe030d26	-0.12797984
94	0xbd3fcc41	-0.04682565
95	0x3d93710a	0.07199295
96	0xbdad28e2	-0.084550634
97	0x3dc16072	0.094422236
98	0x3e06535b	0.13117735
99	0x3b0441bd	0.0020180785
100	0x3e1d2ad9	0.15348376
101	0xbd9b76e7	-0.07591038
102	0xbcf1565a	-0.029460121
103	0x3d953d1c	0.07287046
104	0xbdb488d9	-0.08815164
105	0x3e55ec94	0.20891029
106	0x3deb8be2	0.1150129
107	0x3df53327	0.11972647
108	0x3b38833b	0.0028154391
109	0x3e6b00a3	0.22949462
110	0x3de24010	0.11047375
111	0x3d9cecfa	0.07662387
112	0xbcd9f326	-0.0266052
113	0x3da159cd	0.07878456
114	0xbd0445c2	-0.03229309
115	0x3ddd763e	0.108135685
116	0x3d51ba93	0.05120332
117	0xbd6184fb	-0.05505846
118	0x3ddbe67d	0.107373215
119	0x3d415506	0.047200225
120	0xbd8f1a24	-0.06987408
121	0xbdbbe04e	-0.09173642
122	0xbe545a63	-0.20737605
123	0xbc28881b	-0.010286356
124	0x3da96ee5	0.082731046
125	0x3dd4e6f8	0.10395616
126	0x3d573bfd	0.052547444
127	0x3f04c3f6	0.5186151
128	0xba73843e	-0.000928942
129	0x3e064582	0.13112453
130	0xbd015bd3	-0.03158171
131	0x3cda6eb8	0.026664123
132	0xbd8c9527	-0.06864386
133	0xbdf85fed	-0.121276714
134	0xbe0dec99	-0.13859786
135	0xbdd8e8b6	-0.10591261
136	0x3da45e13	0.08025756
137	0x3c9fde12	0.019515071
138	0x3d8ba972	0.068194285
139	0xbcf05f88	-0.029342428
140	0xbda4727a	-0.08029647
141	0x3d21a0ae	0.039459877
142	0xbc40dee9	-0.011771896
143	0x3e0adfda	0.13561955
144	0x3d9b0c6b	0.07570728
145	0x3e95f149	0.29285648
146	0xbcb4f452	-0.022089157
147	0x3c547a21	0.012968571
148	0x3e1282dc	0.14307731
149	0x3dd05777	0.101729326
150	0xbdcae258	-0.09906453
151	0xbd99cddf	-0.0750997
152	0x3c0e7955	0.00869592
153	0x3dbec4d9	0.093148895
154	0x3d8ee177	0.06976598
155	0x3d6c6913	0.057717394
156	0xbd05db66	-0.032679938
157	0xbd4f982c	-0.05068223
158	0x3d5a2b5d	0.05326401
159	0x3ddd4a11	0.10805143
160	0x3db6f9f1	0.08934391
161	0xbd4437cf	-0.047904786
162	0x3d391292	0.045183726
163	0x3e3e3439	0.18574609
164	0xbdb63222	-0.08896281
165	0x3de529e9	0.11189634
166	0xbdf90a0d	-0.1216012
167	0xbe0634ae	-0.13106033
168	0x3d9ffc1b	0.07811757
169	0x3ce73678	0.028224215
170	0xbbd17048	-0.006391559
171	0xbcea7a38	-0.028622732
172	0xbda5ff70	-0.081053615
173	0x3cf16a02	0.029469494
174	0x3e3c0509	0.18361296
175	0xbe05b295	-0.13056405
176	0xbe661ce4	-0.22471958
177	0x3d94f07d	0.07272432
178	0x3d1d8f46	0.038466714
179	0x3d445836	0.047935687
180	0xbe0684d9	-0.13136615
181	0x3d80c52c	0.062876076
182	0xbd7c504e	-0.061600022
183	0xbd60ab56	-0.0548509
184	0xbdc25bde	-0.094901785
185	0x3db057f3	0.08610525
186	0x3c730629	0.014833012
187	0xbda88bc7	-0.082297854
188	0x3db4de6b	0.08831485
189	0xbdeacfc8	-0.114654124
190	0x3e246854	0.16055423
191	0xbe053ac7	-0.13010703
192	0x3df4ec7c	0.11959168
193	0x3d82e4cc	0.06391296
194	0x3e31ce00	0.17363739
195	0x3db7d752	0.08976616
196	0xbd13c445	-0.03607585
197	0x3d15427e	0.036440365
198	0xbe1d664e	-0.15371057
199	0xbe169179	-0.14703931
200	0x3e16c04a	0.1472179
201	0x3e23562c	0.1595084
202	0x3bc4c445	0.0060048425
203	0xbd577a05	-0.0526066
204	0x3a03da8d	0.000502982
205	0xbd597b8e	-0.053096347
206	0xbda8f353	-0.082495354
207	0x3d8ccbaf	0.06874787
208	0x3dd67b17	0.10472696
209	0xbdd6d172	-0.10489167
210	0x3cfdf32c	0.030999742
211	0x3c8642c7	0.016389264
212	0x3e548220	0.20752764
213	0xbe371b4f	-0.17881511
214	0xb9f68a19	-0.00047023667
215	0x3e09ab37	0.1344422
216	0x3e8ab142	0.27088362
217	0xbdd13b94	-0.10216442
218	0xbd1ce6d6	-0.03830608
219	0xbe21ac25	-0.15788324
220	0xbd86608a	-0.06561382
221	0xbd85939a	-0.065222934
222	0xbc899464	-0.016794391
223	0x3b783c2b	0.003787766
224	0x3c83a56d	0.016070092
225	0xbe0f846e	-0.14015362
226	0xbdb8f208	-0.09030539
227	0xbe26e2ce	-0.16297457
228	0xbe018871	-0.12649705
229	0xbd3c8269	-0.046022806
230	0x3ab09cc1	0.0013474451
231	0xbdfdcabe	-0.12392186
232	0x3e04b196	0.12958369
233	0x3ca490a4	0.020088501
234	0xbc02b5ed	-0.007977945
235	0x3d5952b7	0.0530574
236	0xbbe3982b	-0.00694563
237	0xbe403d45	-0.18773372
238	0xbd15bd27	-0.036557343
239	0x3e1464c6	0.14491567
240	0x3d8acf19	0.06777782
241	0xbdf57469	-0.11985094
242	0xbdd5bded	-0.10436616
243	0x3d603e36	0.05474683
244	0xbd07bc5f	-0.03313863
245	0xbe0b1023	-0.13580374
246	0xbc8ff211	-0.017571481
247	0x3e22f2be	0.15912911
248	0xbe0875b9	-0.13326158
249	0xbdf42644	-0.11921361
250	0x3de75743	0.11295941
251	0xbde4c580	-0.11170483
252	0x3e1dbf1e	0.15404937
253	0xbe78b86b	-0.242891
254	0x3d7a4565	0.061101336
255	0xbd984705	-0.07435421

encoder.actor_encoder.net.mlp.0.bias f4 [256]
0	0xbbddba95	-0.006766627
1	0x3db2f25a	0.08737631
2	0xbe54833e	-0.2075319
3	0xbc93b71d	-0.018031651
4	0x3e2733d3	0.16328363
5	0x3c231253	0.009953099
6	0x3dd8ed45	0.105921306
7	0x3ccbdbb9	0.024885045
8	0xbe16cd11	-0.14726664
9	0x3e70e2fd	0.23524089
10	0xbd17bdd2	-0.03704626
11	0xbdbfb965	-0.09361533
12	0xbd55200c	-0.052032515
13	0x3bd9075b	0.0066231913
14	0x3d545cfe	0.051846497
15	0xbdf51d8d	-0.11968527
16	0x3c1be14c	0.009514164
17	0xbde2d3d3	-0.110755585
18	0x3d9bebba	0.07613321
19	0x3e26f2f1	0.16303612
20	0x3e2aa60e	0.16664907
21	0x3b844fa0	0.0040378124
22	0x3dd26718	0.1027357
23	0x3d3cf948	0.04613617
24	0xbc4c585c	-0.012472238
25	0xbc7b9d9d	-0.015357402
26	0x3e33e2a1	0.17566921
27	0xbe173594	-0.14766532
28	0x3d86ec64	0.06588057
29	0xbdd0cf0b	-0.1019574
30	0x3e1ffa25	0.15622766
31	0x3c4c8263	0.0124822585
32	0xbe2cef92	-0.16888264
33	0xbe00cd2b	-0.12578265
34	0xbc9e0353	-0.019288694
35	0x3e020283	0.1269627
36	0xbcd29554	-0.02570597
37	0x3e019c1e	0.1265721
38	0xbcd4a6a9	-0.025958376
39	0xbd4d88c8	-0.050179273
40	0xbdc7b1f2	-0.09750737
41	0xbe4c75d0	-0.19966817
42	0x3d129bff	0.0357933
43	0xbd189557	-0.037251797
44	0x3e2ca98e	0.16861555
45	0x3dc76b4b	0.097372614
46	0x3e6a8ff2	0.22906473
47	0x3d1c9be0	0.03823459
48	0xbe66e155	-0.22546895
49	0xbd933592	-0.07187952
50	0xbd3e2a68	-0.04642716
51	0x3dec5978	0.11540502
52	0x3e8d38ed	0.27582493
53	0x3d5f9335	0.054583747
54	0x3d8eaac0	0.06966162
55	0xbc3262bd	-0.010887799
56	0x3bb711fe	0.0055868616
57	0xbe41b370	-0.18916106
58	0xbe15bb8c	-0.14622325
59	0x3e4bf100	0.19916153
60	0xbdcf89b8	-0.1013369
61	0x3e0939ae	0.1340091
62	0xbb856ae2	-0.0040715793
63	0xbd79f92b	-0.06102864
64	0xbdfee651	-0.12446273
65	0xbe579024	-0.21051079
66	0xbd8aa190	-0.06769097
67	0xbe1c11e5	-0.15241201
68	0xbe17c85c	-0.14822525
69	0x3ccbcd65	0.024878213
70	0x3cd2a6f1	0.02571437
71	0x3dafe9de	0.085895285
72	0xbd3af37c	-0.04564236
73	0xbe89bfff	-0.26904294
74	0x3dd4802d	0.1037601
75	0xbd1a110f	-0.037613925
76	0x3d0325fc	0.032018647
77	0x3d298c81	0.04139376
78	0xbe87da0d	-0.26533547
79	0x3c15c138	0.009140305
80	0xbc594f5b	-0.013263549
81	0x3def6d58	0.116907775
82	0x3d9486b3	0.07252254
83	0xbd428b4e	-0.047496133
84	0xbcec16bf	-0.02881944
85	0x3e35f30b	0.17768495
86	0xbe05c082	-0.13061717
87	0xbd7fc26c	-0.062441275
88	0xbe43dc1f	-0.19126938
89	0xbe535d75	-0.2064112
90	0x3e1f8c40	0.15580845
91	0xbd8f99a9	-0.0701173
92	0x3d8b3dbf	0.067988865
93	0x3e288356	0.1645635
94	0xbdfd648a	-0.12372692
95	0xbdd8d7d6	-0.105880424
96	0xbe45cf69	-0.19317402
97	0x3e02a42c	0.12757939
98	0xbe059be2	-0.13047746
99	0x3bce19bc	0.006289689
100	0x3cee1f14	0.029067554
101	0xbb180b40	-0.0023200065
102	0xbdc471c4	-0.095920116
103	0xbdcb333e	-0.09921883
104	0x3e638b2b	0.22221057
105	0x3e3ac3f6	0.18238816
106	0x3d3e06e7	0.0463933
107	0x3e1ca1ea	0.1529614
108	0xbd06fc54	-0.032955483
109	0xbda11184	-0.07864669
110	0x3d2dfcbe	0.04247736
111	0xbd9d67ca	-0.07685812
112	0xbe02b834	-0.1276558
113	0xbdeb871a	-0.11500378
114	0x3dae4b01	0.085103996
115	0xbdd4462b	-0.10364946
116	0xbe888e5f	-0.2667112
117	0xbd702dd6	-0.058637463
118	0xbdc8e15a	-0.098086074
119	0xbda403d7	-0.08008545
120	0x3e42e56d	0.19032831
121	0xbdbd64e1	-0.09247757
122	0x3e42a9e8	0.19010127
123	0x3e11b9a3	0.14230971
124	0xbe1465fd	-0.1449203
125	0x3d87799c	0.06614992
126	0x3dccaed3	0.099942826
127	0x3d52b22e	0.051439457
128	0x3d962198	0.07330626
129	0xbe10d4bc	-0.14143652
130	0xbd0c654f	-0.034276303
131	0xbe513254	-0.20429355
132	0xbd887fcd	-0.06665001
133	0x3d4dc873	0.05023999
134	0x3e4ba623	0.19887595
135	0x3e446e83	0.19182782
136	0x3e60fdb4	0.2197178
137	0xbdcfc58f	-0.10145103
138	0xbde31459	-0.110878654
139	0xbe2663a1	-0.16248943
140	0x3e297d88	0.16551793
141	0xbd515a73	-0.05111165
142	0xbdd24e9e	-0.10268901
143	0xbdeaa5dc	-0.114574164
144	0x3d550ca4	0.05201401
145	0xbe7fa789	-0.24966253
146	0x3e466f6f	0.19378446
147	0xbe7a4938	-0.24441993
148	0x3e086851	0.13321044
149	0x3e876e03	0.2645112
150	0x3d460ffa	0.04835508
151	0x3cfb6bdd	0.030691082
152	0xbc4e8a81	-0.012606264
153	0x3d554e48	0.052076608
154	0x3d480118	0.048829168
155	0x3e431640	0.19051456
156	0xbd252fb1	-0.040328685
157	0xbdb2600b	-0.08709725
158	0x3dff6be8	0.12471753
159	0xbc0b5b08	-0.00850559
160	0x3e03af6b	0.12859885
161	0x3e05144c	0.12996024
162	0x3e129d92	0.14317921
163	0xbde6d9b9	-0.11271996
164	0x3e8c340d	0.27383462
165	0xbe1a37da	-0.15060368
166	0xbe83d084	-0.25745022
167	0xbe7540bc	-0.23950475
168	0xbe4b35ed	-0.1984479
169	0x3d0a3969	0.033746157
170	0x3e13cfc3	0.14434724
171	0x3d1897eb	0.037254255
172	0xbd2fd7dd	-0.042930473
173	0x3e0f9a49	0.14023699
174	0xbdebea39	-0.11519284
175	0xbe01dbf2	-0.12681559
176	0xbd82befb	-0.06384083
177	0xbd8efd4e	-0.06981908
178	0x3e027d0f	0.12743019
179	0x3e6b5cf6	0.2298468
180	0xbbc76eba	-0.0060861977
181	0x3dff9d04	0.1248112
182	0x3cc02e01	0.023459436
183	0x3e79de74	0.24401265
184	0x3c471c21	0.012152703
185	0x3e2dadb6	0.16960797
186	0x3c9035eb	0.017603835
187	0x3dd3687c	0.10322663
188	0xbe8abd11	-0.2709737
189	0x3d907512	0.070535794
190	0xbdcdaf91	-0.10043252
191	0x3a83498d	0.0010016427
192	0x3c1fee54	0.009761412
193	0x3d0f4ad7	0.034983482
194	0x3dd0cf8e	0.10195838
195	0x3d9bc9f8	0.07606882
196	0xbe4fe9e6	-0.20304069
197	0x3d68addb	0.056806426
198	0x3d95e40d	0.07318888
199	0xbe0adcbe	-0.13560769
200	0x3dea356e	0.11435972
201	0xbda46de8	-0.080287755
202	0x3de15826	0.11003141
203	0xbd82049f	-0.06348538
204	0xbde87cf7	-0.1135196
205	0xbe5b1a79	-0.21396817
206	0x3dbe39fb	0.09288403
207	0x3dbc6238	0.09198421
208	0x3e3a571b	0.1819729
209	0xbc802c3c	-0.015646093
210	0x3df303ae	0.11865936
211	0xbdc0e076	-0.094178125
212	0x3c4fad2f	0.0126755675
213	0x3e478e4b	0.19487874
214	0xbe0a3c57	-0.1349958
215	0xbdfb70d7	-0.12277382
216	0x3e636068	0.22204745
217	0xbdd564f1	-0.10419644
218	0x3d20e1ad	0.03927772
219	0x3e2f5d68	0.17125475
220	0x3db53754	0.088484436
221	0xbe5ddeea	-0.21667066
222	0xbcd02bfc	-0.025411598
223	0xbdd84807	-0.10560613
224	0xbc04f849	-0.008115836
225	0x3e34c6d2	0.17653969
226	0x3ca9734b	0.020684859
227	0xbe39e1cc	-0.18152541
228	0xbcdba6cd	-0.026812935
229	0xbca65682	-0.020304922
230	0x3d2fa10d	0.0428782
231	0x3e34ab1f	0.17643403
232	0xbe17adf7	-0.14812456
233	0x3db571ff	0.08859634
234	0x3c7ba06d	0.015358073
235	0xbd5a977e	-0.05336713
236	0x3e87c536	0.26517648
237	0xbda3ebf2	-0.08003987
238	0xbd217b9d	-0.039424527
239	0x3c15c298	0.009140633
240	0xbd5859eb	-0.052820127
241	0x3d4123cf	0.04715329
242	0xbdc70f7d	-0.09719751
243	0xbccec781	-0.025241615
244	0x3d433392	0.047656603
245	0xbd87a1e0	-0.06622672
246	0xbe342385	-0.17591675
247	0xbe4d65ab	-0.20058315
248	0xbe1e4c7a	-0.15458861
249	0x3e89117f	0.2677116
250	0x3d9fcc48	0.078026354
251	0xbe12aaed	-0.14323016
252	0x3cc885d2	0.024477873
253	0x3cb192bc	0.021676414
254	0x3e60b3b0	0.21943545
255	0x3c81b4bf	0.015833257

encoder.actor_encoder.net.mlp.2.weight f4 [256, 256]
0	0xbdb2aebb	-0.087247334
1	0x3d8f8038	0.07006878
2	0xbd3e0977	-0.046395745
3	0x3c1fd449	0.009755203
4	0x3c93e551	0.018053683
5	0x3d397bdb	0.045284133
6	0x3df9a3cf	0.12189447
7	0xbda03afb	-0.0782375
8	0xbb9623ef	-0.0045819203
9	0x3d07ffca	0.033202924
10	0xbc9dd8bc	-0.019268386
11	0x3cf736fc	0.030177586
12	0xbdcf1ee3	-0.10113313
13	0xbd8ad0c1	-0.06778098
14	0x3d3af063	0.045639407
15	0xbbe4d511	-0.0069834073
16	0x3d606594	0.054784372
17	0x3d2cd04c	0.042190835
18	0xbdbbce3e	-0.09170197
19	0x3da23014	0.079193264
20	0xbc09b2c3	-0.0084044365
21	0x3d807129	0.062715836
22	0x3da5bd90	0.08092797
23	0x3c3264b3	0.010888266
24	0xbe0ef559	-0.1396078
25	0xbd8ffacd	-0.07030258
26	0x3c96b476	0.018396597
27	0x3d880dd6	0.06643264
28	0xbdcc4d80	-0.099757195
29	0xbd8cb2ee	-0.06870066
30	0x3d8fe263	0.07025602
31	0xbd8f263c	-0.069897145
32	0xbcacf19a	-0.021111298
33	0xbd52b32b	-0.0514404
34	0x3cb7dcf0	0.022444218
35	0xbc9c91be	-0.019112464
36	0x3d2072a7	0.03917184
37	0xbd6a33d1	-0.057178322
38	0x3c94e1b4	0.01817403
39	0x3cccdd4c	0.025007866
40	0x3da94859	0.08265752
41	0x3cd34e19	0.025794076
42	0xbcf44069	-0.02981587
43	0x3cb79ee6	0.022414636
44	0xbd217bc4	-0.039424673
45	0xbe1fb14d	-0.15594979
46	0xbc0dffc0	-0.008666933
47	0x3d3dc343	0.046328794
48	0x3d7c3b28	0.061579853
49	0x3d933712	0.07188238
50	0xbda1a66f	-0.07893073
51	0x3d9bd83a	0.07609601
52	0xbd6be0ad	-0.057587314
53	0xbdbe9ddd	-0.09307454
54	0x3dbfeba3	0.09371116
55	0xbd04f32e	-0.032458477
56	0x3c1a60df	0.00942251
57	0x3c987d18	0.018614337
58	0x3ce09f23	0.027419632
59	0xbdc3e9d9	-0.09566087
60	0xbda4f29a	-0.08054085
61	0xbd89b921	-0.06724764
62	0xbe25309e	-0.16131827
63	0xbb5016ef	-0.003175195
64	0xbc91095c	-0.017704658
65	0xbd7f7adb	-0.062373023
66	0xbcb857fd	-0.022502894
67	0xbcc10a51	-0.02356449
68	0xbe51b3bc	-0.2047872
69	0xbd9324d6	-0.0718476
70	0x3d9c40b7	0.07629531
71	0xbd8d5187	-0.06900316
72	0x3e0f9ff4	0.14025861
73	0xbd817b8b	-0.06322392
74	0x3b56ba06	0.0032764687
75	0x3d9cd24d	0.07657299
76	0x3dba4acd	0.09096298
77	0xbdacc7a4	-0.08436516
78	0xbce75484	-0.028238542
79	0xbc2c01f2	-0.010498511
80	0x3de0afc2	0.10971023
81	0x3d31648b	0.043308776
82	0xbc1acb6e	-0.0094479155
83	0x3d0c29b0	0.034219444
84	0xbbaca8d8	-0.005269151
85	0xbc4e7b23	-0.0126026
86	0xbda8af69	-0.08236582
87	0x3d340a94	0.0439554
88	0xbd21a57f	-0.03946447
89	0xbd54594a	-0.051842965
90	0xbe047a8c	-0.12937373
91	0xbd37bc98	-0.04485759
92	0xbb384d4a	-0.002812224
93	0xbd5eb0d8	-0.05436787
94	0x3d8c8850	0.06861937
95	0xbd25c1e0	-0.040468097
96	0xbc5056db	-0.01271602
97	0x3ca99760	0.020702064
98	0x3dcaadc2	0.09896423
99	0xbd6a799d	-0.057244886
100	0xbd73b666	-0.05950012
101	0xbd054824	-0.0325395
102	0xbe1d3d29	-0.15355362
103	0x3d5a85e8	0.05335036
104	0x3a333c19	0.00068372634
105	0xbe1421ea	-0.14466062
106	0xbe0ee120	-0.13953066
107	0xbd4e6439	-0.05038855
108	0x3c4d4633	0.012528944
109	0x3dace85e	0.08442758
110	0x3d42d48d	0.047565985
111	0xbd25ce49	-0.040479932
112	0xbcc4be54	-0.024016537
113	0x3c60c66d	0.013719183
114	0xbd8b7ba4	-0.06810692
115	0x3ce422ef	0.027848689
116	0x3d02acf3	0.03190322
117	0xbbd3bcaa	-0.0064616995
118	0x3c607d64	0.01370177
119	0x3d91b0f3	0.071138285
120	0x3d2c0011	0.04199225
121	0xbc688c3e	-0.014193593
122	0xbbd1dafc	-0.006404279
123	0x3cdd29d8	0.026997492
124	0xbcb1e362	-0.02171487
125	0x3ca8ca8b	0.020604393
126	0xbc8789f6	-0.016545277
127	0xbd898a07	-0.0671578
128	0x3d33d3e3	0.043903243
129	0x3bc5f329	0.00604095
130	0xbcdfe5f5	-0.027331332
131	0x3d4d1813	0.050071787
132	0xbdd053c8	-0.1017223
133	0x3d3a0771	0.045417253
134	0xbd2cc956	-0.042184196
135	0x3c96ef64	0.018424697
136	0x3cced2b9	0.025246965
137	0x3a7709b6	0.0009423749
138	0xbd93c23b	-0.07214781
139	0xbcc30684	-0.023806818
140	0x3d4a8574	0.049443677
141	0xbd304ac9	-0.04304007
142	0x3dc41e42	0.09576084
143	0x3a013097	0.00049282
144	0x3d7c3ff6	0.061584435
145	0xbadf7fdd	-0.0017051656
146	0x3d9481c7	0.072513156
147	0xbbc33f49	-0.005958472
148	0x3cbad8d1	0.022808464
149	0xbdda9d1f	-0.106745
150	0xbe41c4d6	-0.18922743
151	0x3daa8ed5	0.08328024
152	0x3d0966e8	0.033545405
153	0xbd407aec	-0.046992227
154	0x3d10c275	0.0353417
155	0xbab3dc66	-0.00137223
156	0xbd0dd646	-0.034628175
157	0xbd2f9a7d	-0.04287194
158	0x3cbbec52	0.022939835
159	0xbe2b3884	-0.16720778
160	0x3dbb480d	0.09144602
161	0xbcf3ed92	-0.029776368
162	0x3c57c892	0.013170378
163	0xbc82f912	-0.015987907
164	0x3cc2f18c	0.02379682
165	0x3cdf6ed7	0.027274532
166	0xbca2e273	-0.01988337
167	0xbd6cdbb6	-0.05782672
168	0x3d85087a	0.064957574
169	0x3d45aa58	0.048258156
170	0x3ca5dd7a	0.02024721
171	0x3da20a27	0.07912093
172	0x3ca189e7	0.019719077
173	0x3cee61c1	0.029099347
174	0xbdea0679	-0.11427016
175	0x3d7088c4	0.05872418
176	0xbd0c3b36	-0.034236155
177	0x3ae11a2f	0.0017173941
178	0x3cc4c11e	0.024017867
179	0xbd94192b	-0.07231363
180	0xbbe66a51	-0.007031717
181	0xbd77cfe8	-0.06050101
182	0xbbf2c0fe	-0.0074082604
183	0x3d154ee1	0.036452178
184	0xbd26eaea	-0.040751375
185	0xb812ae09	-3.4971195e-05
186	0x3d4a679d	0.04941522
187	0xbcbdad1f	-0.02315384
188	0x3d58e844	0.05295588
189	0x3c0fd622	0.008779081
190	0x3d2be24c	0.04196386
191	0xbccfdf1b	-0.02537494
192	0xbccb3773	-0.024806714
193	0x3daf2cdb	0.085534774
194	0x3d7d951e	0.061909787
195	0x3d3839b7	0.044976916
196	0x3db9cd76	0.09072392
197	0x3ae98efa	0.00178191
198	0xbcee16b3	-0.029063558
199	0xbc6c54fa	-0.014424557
200	0xbc8dce10	-0.017310172
201	0xbd53dc16	-0.051723562
202	0xbdb08885	-0.08619789
203	0xbd172cd5	-0.03690799
204	0xbd1d228d	-0.03836303
205	0x3ca5572b	0.020183166
206	0xbd17c2c2	-0.03705097
207	0xbda20174	-0.079104334
208	0xbd9296fa	-0.07157703
209	0xbb33ccd1	-0.0027435313
210	0x3db8c50f	0.09021961
211	0xbd078370	-0.033084333
212	0xbc2cffe3	-0.010559055
213	0xbb9b7a01	-0.0047447686
214	0xbce8fc89	-0.02844073
215	0xbd61f81c	-0.055168256
216	0xbe00b5a1	-0.12569286
217	0x3ddc3588	0.10752398
218	0x3dc5a9a3	0.09651496
219	0xbc74e029	-0.014946022
220	0x3cbd1a4d	0.02308383
221	0xbd56a4db	-0.052403312
222	0x3dabb021	0.08383203
223	0x3c272fdd	0.010204283
224	0xbd592f31	-0.05302352
225	0x3c95f39d	0.01830464
226	0x3de24a34	0.110493094
227	0xbca3f09c	-0.020012192
228	0xbca8dcdc	-0.020613126
229	0xbac21ae6	-0.0014809042
230	0xbd50e05f	-0.050995227
231	0x3c41b735	0.011823465
232	0x3d943365	0.07236365
233	0xbd263612	-0.04057891
234	0x3d8f131e	0.06986068
235	0xbd3fdac4	-0.04683949
236	0xbd9e63b6	-0.07733862
237	0x3d82df7d	0.06390283
238	0x3cfd1e41	0.030898215
239	0xbdb10a96	-0.08644597
240	0x3cb99981	0.022656204
241	0xbd01d403	-0.03169633
242	0xbc524e7d	-0.012836096
243	0x3db87336	0.0900635
244	0x3cf77ef3	0.030211901
245	0x3da7243e	0.081612095
246	0x3b8ab736	0.004233266
247	0xbdec269b	-0.11530801
248	0xbe15b607	-0.14620219
249	0xbda7307c	-0.081635445
250	0xbd5d5a9b	-0.054041486
251	0xbd498ec8	-0.049208432
252	0x3ce1f882	0.027584318
253	0x3c462363	0.012093398
254	0x3c5badf8	0.013408177
255	0x3d120645	0.03565051

encoder.actor_encoder.net.mlp.2.bias f4 [256]
0	0x3d0c7404	0.03429033
1	0x3d480ce2	0.04884041
2	0x3dadf7bf	0.084945194
3	0x3d69b543	0.05705763
4	0x3d2518d2	0.040306874
5	0x3d4376e8	0.04772082
6	0xbc758bac	-0.014986914
7	0xb9a66fbf	-0.00031745245
8	0x3d56a138	0.052399844
9	0xbd7a3019	-0.061081026
10	0x3daa9dea	0.08330901
11	0x3c65bdd6	0.014022311
12	0x3cf1f559	0.029535936
13	0x3d287c95	0.041134436
14	0x3d62d6f3	0.055380773
15	0x3b6c960f	0.0036100184
16	0x3d06f805	0.032951374
17	0xbd53dcb6	-0.05172416
18	0xbd01f1b5	-0.03172465
19	0x3bf050db	0.0073338575
20	0x3d264e0d	0.04060178
21	0xbcf9e532	-0.030504797
22	0xbd00311e	-0.03129684
23	0xbdd621a5	-0.10455636
24	0xb9c3d3a8	-0.00037350995
25	0xbd392bd9	-0.045207832
26	0xbd50ca7f	-0.050974365
27	0x3c02f44d	0.007992816
28	0x3dc0c21f	0.09412026
29	0x3d8f9fab	0.07012876
30	0xbd727f6f	-0.05920356
31	0xbd10ea2a	-0.035379566
32	0xbd217ae2	-0.03942383
33	0x3d3ab1f0	0.04557985
34	0x3dead532	0.11466445
35	0xbe1b9ec2	-0.1519728
36	0x3d4b017b	0.04956196
37	0xbb4067d7	-0.0029358768
38	0xbceb73c9	-0.028741734
39	0x3cc81286	0.024422895
40	0x3d3f21b7	0.046663012
41	0xbcb7d992	-0.022442613
42	0x3dbc2b55	0.091879524
43	0x3da275d9	0.07932634
44	0xbd70efd9	-0.058822487
45	0xbcdbb4ea	-0.026819665
46	0x3cc53537	0.024073226
47	0xbd2ee63f	-0.04270005
48	0x3d666c80	0.056255817
49	0xbd473e15	-0.04864319
50	0x3c2a2cb7	0.010386637
51	0x3beb1716	0.007174383
52	0x3d8b2e6a	0.06795962
53	0xbda7c53d	-0.08191917
54	0x3dba00cb	0.090821825
55	0xbd8691de	-0.06570791
56	0x3ce5ce46	0.02805246
57	0x3de5d6b5	0.11222593
58	0x3e004ea9	0.12530006
59	0xbbc8c0d6	-0.0061265035
60	0x3da84859	0.08216924
61	0x3dcd2fb2	0.10018863
62	0xbccbf300	-0.024896145
63	0x3df3487b	0.11879059
64	0x3df3393c	0.11876151
65	0xbd960bfe	-0.07326506
66	0x3cd40151	0.025879534
67	0x3d8ab9f3	0.06773748
68	0x3d9d4f73	0.07681169
69	0xbba62554	-0.005070368
70	0x3c5de5e4	0.01354358
71	0xbde0e31c	-0.10980818
72	0x3b0ea133	0.0021763563
73	0xbd7c6dcd	-0.06162815
74	0x3d769c5f	0.06020772
75	0xbd733110	-0.05937296
76	0x3d2b75ba	0.04186032
77	0xbd5574a7	-0.0521132
78	0xbd923d69	-0.07140619
79	0x3cc81227	0.024422718
80	0x3d27b43b	0.040943366
81	0x3db120b1	0.086488135
82	0xbd6c09d2	-0.057626553
83	0xbd0e7d26	-0.03478732
84	0xbde8e59e	-0.11371921
85	0x392fcc88	0.00016765494
86	0x3cbc94ef	0.023020236
87	0x3e2b6bdd	0.16740365
88	0xbcc29b65	-0.023755739
89	0xbcfd6ab0	-0.030934662
90	0x3d3fa827	0.046791222
91	0xbd079fdd	-0.033111442
92	0xbcb7b304	-0.022424228
93	0xbcf9d382	-0.030496363
94	0x3e09b9a5	0.13449724
95	0xbda6a12e	-0.08136211
96	0x3d02445f	0.031803485
97	0x3d9a6158	0.07538098
98	0xbcd0611d	-0.025436932
99	0x3dd4485b	0.10365363
100	0xbc724bee	-0.014788611
101	0xbd9119ac	-0.07084975
102	0x3d21a305	0.03946211
103	0xbd8d3ba8	-0.06896144
104	0xbddfade1	-0.10921837
105	0x3ddd9421	0.10819269
106	0xbc536355	-0.012902101
107	0xbd491971	-0.04909653
108	0x3d0b6da5	0.034040112
109	0xbc3e5f9a	-0.011619473
110	0xbbc39f7d	-0.00596994
111	0x3d1cf4b3	0.0383193
112	0xbccd721e	-0.02507883
113	0xbd8f4c70	-0.06997001
114	0x3d6ae9bf	0.057351824
115	0x3d8fd44d	0.07022915
116	0x3d9f670a	0.07783325
117	0x3d9fdf4f	0.078062646
118	0x3d4e0cc5	0.050305147
119	0x3c822da7	0.01589091
120	0xbd3e160e	-0.04640775
121	0xbdd3acf1	-0.1033572
122	0xbd9921d3	-0.074771546
123	0x3db0dc9c	0.08635828
124	0x3cd80e10	0.026373893
125	0xbd769e99	-0.060209844
126	0xbdf1ff9a	-0.1181633
127	0x3d91e892	0.071244374
128	0x39d73da9	0.00041053936
129	0x3d242d2c	0.04008214
130	0x3cf2fb5e	0.029660877
131	0x3d18c80b	0.03730015
132	0xbd0559a9	-0.03255621
133	0x3e004121	0.12524845
134	0x3d090ba0	0.033458352
135	0x3dbb750d	0.09153185
136	0xbc83bc9d	-0.016081149
137	0xbd0c2432	-0.034214206
138	0x3da31e45	0.07964758
139	0x3d688310	0.056765616
140	0x3da8d391	0.08243478
141	0xbbef5edb	-0.007305009
142	0xbc64d7ee	-0.013967497
143	0xbd84a827	-0.06477385
144	0xbd572266	-0.05252304
145	0x3d79e224	0.06100668
146	0xbd98db56	-0.0746371
147	0xbda52877	-0.08064359
148	0x3d19733b	0.037463408
149	0x3d82758a	0.06370075
150	0x3cb42a26	0.021992754
151	0x3ce056a3	0.027385062
152	0xbc0712c8	-0.008244224
153	0xbd1f8d9e	-0.038953416
154	0xbd08bf05	-0.033385295
155	0xbd46c0bb	-0.048523646
156	0x3cfa4bec	0.03055378
157	0xbd7fe883	-0.0624776
158	0xbcf14544	-0.029451974
159	0x3d7afc86	0.06127598
160	0xbd2961fc	-0.04135321
161	0xbbdccc15	-0.0067381957
162	0x3dd8a663	0.10578611
163	0xbd914c50	-0.070946336
164	0xbdf18dac	-0.117946
165	0x3db8c7d2	0.09022488
166	0x3e027ebf	0.12743662
167	0xbde58d1c	-0.11208555
168	0x3d8563de	0.06513189
169	0xbd9a9288	-0.0754748
170	0xbcdfac04	-0.027303703
171	0x3e1689e9	0.14701046
172	0x3a0fd740	0.0005487092
173	0xbdb63895	-0.08897511
174	0x3ce3a7a7	0.027789904
175	0xbe0d0123	-0.13769965
176	0x3dd3dc34	0.10344735
177	0xbd173e77	-0.036924805
178	0x3c64b8bd	0.013960061
179	0x3c2b18bc	0.010442909
180	0xbd3d4aa9	-0.04621378
181	0xbb68e1f0	-0.003553506
182	0xbd8a87fc	-0.06764218
183	0xbd35dbe0	-0.044399142
184	0xbd6c70a7	-0.05772462
185	0x3bc5b200	0.006033182
186	0x3c1ccf29	0.009570875
187	0x3d2d9330	0.042376697
188	0x3bc01b2f	0.0058626155
189	0x3c27c64a	0.010240147
190	0xbd44642d	-0.047947098
191	0xbc8a575f	-0.016887365
192	0xbd6dc48e	-0.058048777
193	0xbd301c64	-0.042995825
194	0x3c9dd049	0.019264357
195	0x3bd6f9d8	0.0065605454
196	0xbda5d4df	-0.080972426
197	0x3c87b10c	0.016563915
198	0x3ce64095	0.028106967
199	0x3c81c0e1	0.015839042
200	0x3da964e2	0.08271195
201	0xbd6e55cf	-0.058187302
202	0x3c504ec4	0.012714092
203	0xbd687257	-0.056749668
204	0xbd7c80ff	-0.061646458
205	0x3d17bdc7	0.03704622
206	0xbd6abe72	-0.05731053
207	0xbd53e543	-0.051732313
208	0xbd5d405d	-0.05401646
209	0x3c6026b6	0.013681104
210	0x3c2829df	0.010263889
211	0xbd136ef8	-0.0359945
212	0x3dc8c454	0.098030716
213	0xbcd418ef	-0.025890796
214	0xbc99280e	-0.018695857
215	0x3ca0c7b4	0.019626476
216	0xbda1a90d	-0.07893572
217	0xbc1fe58c	-0.009759318
218	0xbae55aae	-0.0017498338
219	0x3d0ff505	0.03514578
220	0x3d965492	0.07340349
221	0x3d5b8387	0.05359223
222	0xbc0dadee	-0.008647425
223	0xbe35b339	-0.1774415
224	0x3d208bca	0.039195813
225	0x3db35c71	0.08757866
226	0xbd8dd0c6	-0.06924586
227	0x3d8a3fec	0.067504734
228	0x3c46f813	0.012144106
229	0xbbbcdc93	-0.005763599
230	0x3c9e45ef	0.019320456
231	0x3d48cb4e	0.04902201
232	0xbdae4baa	-0.085105255
233	0xbd8dfebc	-0.06933352
234	0xbd021dc7	-0.03176668
235	0xbc8d5fe2	-0.017257635
236	0x3cd680b2	0.026184414
237	0x3dbe2ff7	0.09286492
238	0x3d5873b7	0.05284473
239	0xbd010285	-0.031496543
240	0xbd2ee6bd	-0.042700518
241	0x3d82ed08	0.063928664
242	0xbc41e99b	-0.011835481
243	0xbd0b4d11	-0.034009043
244	0x3d591e49	0.053007398
245	0xbd463071	-0.04838604
246	0x3e2f64ba	0.17128268
247	0x3dec82b9	0.11548371
248	0x3cde0142	0.02710021
249	0x3d442dab	0.047895115
250	0xbcb5c6f7	-0.0221896
251	0x3d0dcfcf	0.03462201
252	0xbbb69b45	-0.005572709
253	0x3ba9db07	0.005183581
254	0x3c268136	0.010162642
255	0xbd474266	-0.048647307

encoder.critic_encoder.net.mlp.0.weight f4 [256, 54]
0	0x3d8c13bc	0.068397015
1	0x3e05ba4f	0.13059352
2	0x3de5fd03	0.11229899
3	0xbdcfa907	-0.10139661
4	0xbca4f9fa	-0.02013873
5	0x3cba3576	0.02273057
6	0xbdbee782	-0.093215
7	0x3ca8c3e1	0.020601215
8	0x3daf22fa	0.08551593
9	0xbb6cd01b	-0.0036134783
10	0xbe092ecf	-0.13396762
11	0x3df090f9	0.11746401
12	0xbd8698cc	-0.065721124
13	0x3c701351	0.014653043
14	0x3daae8bd	0.083451726
15	0x3d38b3bc	0.045093283
16	0x3c5908c2	0.013246717
17	0xbddb0a42	-0.10695316
18	0xbd8881ec	-0.06665406
19	0xbcf42d87	-0.029806865
20	0x3d4e65be	0.050389998
21	0x3dbacfea	0.09121688
22	0x3de1b247	0.11020332
23	0x3d67e715	0.05661686
24	0x3d1a789b	0.037712675
25	0x3d8e04f4	0.069345385
26	0xbcea5a48	-0.028607503
27	0x3c92bf40	0.01791346
28	0x3d45a575	0.048253495
29	0x3d61f017	0.05516061
30	0x3db45758	0.08805722
31	0x3bcaef38	0.006193068
32	0xbd79e2bb	-0.061007243
33	0xbbd69604	-0.006548645
34	0x3cee5362	0.029092494
35	0x3dbf23e7	0.0933302
36	0xbd94e055	-0.072693504
37	0xbdf535bf	-0.11973142
38	0xbcce5539	-0.025187122
39	0xbd5bc979	-0.053658936
40	0xbdb4a011	-0.08819593
41	0x3bfa88c3	0.007645698
42	0x3d273646	0.040823244
43	0x3c3753f9	0.011189454
44	0xbc17f44f	-0.009274556
45	0xbdff5d8b	-0.12469014
46	0x3de79617	0.11307924
47	0xbcc029fc	-0.02345752
48	0x3cefc7cd	0.029270077
49	0xbd670d4e	-0.056409173
50	0x3dc008f3	0.09376707
51	0xbcf4f9b2	-0.02990422
52	0x3aebaaef	0.0017980019
53	0x3c2fc7b7	0.010728768
54	0xbd84aae0	-0.06477904
55	0xbdbed95f	-0.09318804
56	0xbdd41593	-0.103556775
57	0x3d042254	0.0322593
58	0xbd75ebbc	-0.060039267
59	0xbd09c484	-0.033634678
60	0xba1631a0	-0.00057294406
61	0x3ce6bf77	0.02816747
62	0xbbb8b4eb	-0.0056368015
63	0x3d20ff72	0.03930611
64	0xba019e8c	-0.0004944585
65	0x3d6f4818	0.058418363
66	0xbe209629	-0.15682282
67	0xbd0854cc	-0.033283994
68	0x3df30629	0.11866409
69	0xbd79dde9	-0.061002646
70	0xbde26fcc	-0.1105648
71	0x3da428be	0.080155835
72	0xbdcb4d16	-0.09926812
73	0x3dcac5e2	0.099010244
74	0x3c84b86f	0.016201226
75	0xbdaf16d1	-0.08549274
76	0x3ce330ae	0.027733173
77	0x3aeafb6b	0.0017927712
78	0x3d168c43	0.036754858
79	0xbd0fb2b3	-0.03508253
80	0xbd259e0a	-0.04043392
81	0x3aa7a53d	0.0012790334
82	0x3d8786b7	0.06617492
83	0x3dab84d4	0.08374944
84	0xbe7a7845	-0.24459942
85	0x3bba0b4c	0.005677616
86	0xbd32ffa4	-0.04370083
87	0xbd547f87	-0.051879432
88	0xbd8c25c5	-0.068431415
89	0x3dd336ad	0.10313163
90	0x3dac1c87	0.08403879
91	0xbd31c457	-0.043400135
92	0xbddc3f19	-0.107542224
93	0x3d52f091	0.051498953
94	0xbd3f21bc	-0.04666303
95	0x3d99ae6e	0.07503973
96	0x3e069eda	0.13146535
97	0xbba642a7	-0.0050738635
98	0x3b648fa8	0.0034875665
99	0x3da92655	0.082592644
100	0x3c9bf52c	0.019037805
101	0xbda9e832	-0.08296241
102	0xbe459d32	-0.19298247
103	0x3d11d8bd	0.03560709
104	0x3d1bc941	0.038033728
105	0xbdad5445	-0.08463339
106	0xbd848043	-0.064697765
107	0xbd916db2	-0.07101001
108	0x3e0d34a0	0.13789606
109	0x3ddf76bd	0.109113194
110	0x3dd1b7a8	0.10240108
111	0xbd91ce2c	-0.07119402
112	0x3d697090	0.056992114
113	0x3d6ac064	0.057312384
114	0xbbe2d23e	-0.0069220355
115	0x3dd8badf	0.10582518
116	0x3c98a30a	0.01863243
117	0x3d5e526b	0.05427782
118	0xbc6dc916	-0.014513275
119	0x3e08bf50	0.1335423
120	0x3d2d4b68	0.04230824
121	0x3dbddf07	0.09271055
122	0x3cca10fc	0.024666302
123	0xbd8c6edd	-0.06857083
124	0xbdac2aba	-0.08406587
125	0x3dcd3824	0.100204736
126	0xbc9d8dbf	-0.019232629
127	0x3d072968	0.032998472
128	0x3da4aa1e	0.0804026
129	0x3dd463c1	0.10370589
130	0xbd944798	-0.07240218
131	0x3dc5ca70	0.096577525
132	0xbd9c457b	-0.0763044
133	0xbd9f9f63	-0.077940725
134	0xbd77fcdb	-0.060543876
135	0xbe1cd56c	-0.15315789
136	0x3dc365cf	0.09540903
137	0x3d96d84a	0.073654726
138	0x3d615023	0.055008065
139	0x3d24b1bd	0.040208567
140	0x3d1054f5	0.03523727
141	0x3d8e2d20	0.06942201
142	0x3d8265d1	0.06367076
143	0xbe090284	-0.13379866
144	0x3d8530d3	0.06503453
145	0xbcf3a8e2	-0.029743616
146	0x3e370e6f	0.178766
147	0x3dc3af3b	0.09554907
148	0x3dd36ff0	0.10324085
149	0x3da9b439	0.08286328
150	0xbd92d526	-0.07169561
151	0x3dbe77ca	0.09300192
152	0x3d179f81	0.03701735
153	0xbe16b452	-0.14717224
154	0xbb0d04e0	-0.0021517798
155	0x3d631941	0.055444006
156	0xbd1667f6	-0.03672024
157	0xbe2590ef	-0.16168569
158	0x3d76db3d	0.060267676
159	0xbc92f002	-0.01793671
160	0xbd21a9c8	-0.039468557
161	0x3e02fa57	0.1279081
162	0x3ddf38b3	0.108994864
163	0xbdc2fbff	-0.09520721
164	0x3dbd7e0a	0.09252556
165	0xbd4d9f31	-0.050200645
166	0xbd23f4be	-0.040028326
167	0xbd491bff	-0.049098965
168	0x3c656def	0.014003261
169	0xbe1588e9	-0.14603008
170	0xbcd12ec3	-0.025534993
171	0x3d8e5934	0.06950608
172	0x3d2a232a	0.04153744
173	0xbe145a17	-0.14487492
174	0xbcebec5b	-0.028799227
175	0x3e00e144	0.12585932
176	0xbc99b6b2	-0.018763874
177	0xbd65587e	-0.055992596
178	0x3c67e87d	0.014154551
179	0xbd28012a	-0.041016735
180	0xbd55dec7	-0.05221441
181	0xbe0c8bdf	-0.13725232
182	0xbde99e33	-0.11407127
183	0x3e083c0c	0.13304156
184	0x3a86e459	0.0010291442
185	0xbcbe9c39	-0.023267852
186	0xbd459788	-0.048240215
187	0x3d9c2a8e	0.07625304
188	0xbd8560eb	-0.06512626
189	0xbb878d76	-0.0041367365
190	0xbdb131de	-0.086520895
191	0x3db863a5	0.09003381
192	0xbc3b883a	-0.011446053
193	0x3d573142	0.05253721
194	0xbcee867f	-0.029116867
195	0xbcb52527	-0.022112442
196	0x3dfa0e2f	0.122097366
197	0x3c9b2faa	0.018943626
198	0x3d72f5d5	0.059316475
199	0x3d80d1d9	0.06290025
200	0x3d6ae4be	0.05734705
201	0x3c90778b	0.017635128
202	0xbcc6b29c	-0.02425509
203	0xbdf6e433	-0.12055244
204	0xbd6401e4	-0.055665866
205	0x3bf1618f	0.007366366
206	0x3bbdbdea	0.005790462
207	0x3d6bb6ec	0.057547495
208	0x3df6ee81	0.1205721
209	0xbd94f648	-0.07273537
210	0x3d3ce53b	0.04611705
211	0x3e0c8ece	0.1372635
212	0xbd41d89c	-0.047325715
213	0x3d737d62	0.059445746
214	0xbdde61bc	-0.10858485
215	0x3bbbb083	0.005727829
216	0x3dbc2999	0.091876216
217	0xbd65885b	-0.05603824
218	0x3d1ee0db	0.038788658
219	0x3cf9c55e	0.03048962
220	0x3da94ca1	0.08266569
221	0xbc31d30d	-0.010853541
222	0xbd6371b5	-0.05552836
223	0x3c49e5a6	0.012322819
224	0xbbde866e	-0.0067909276
225	0xbd83f364	-0.064429075
226	0x3dba37db	0.09092685
227	0xbdfb8ec7	-0.12283092
228	0xbcf66de7	-0.030081702
229	0x3da1ac33	0.078941725
230	0xbc6b0c75	-0.014346232
231	0x3de892bf	0.113561146
232	0xbb3fe328	-0.0029279683
233	0xbda9cf56	-0.08291499
234	0xbdb54ef5	-0.088529505
235	0x3c941a8a	0.018079061
236	0xbc32202b	-0.010871927
237	0xbd983543	-0.07432034
238	0x3b9fa9a3	0.004872517
239	0x3ccb2e0a	0.024802227
240	0xbd9a1247	-0.075230174
241	0xbdd39635	-0.10331384
242	0xbd83e12a	-0.06439431
243	0x3dd7d386	0.10538392
244	0x3d78160a	0.060567893
245	0x3d2e1348	0.042498857
246	0xbdbecdbf	-0.09316587
247	0x3dadc414	0.084846646
248	0x3e05a5e6	0.13051566
249	0x3e0242d8	0.12720811
250	0xbd0c71d5	-0.034288246
251	0x3d7234ec	0.0591325
252	0xbd2d7339	-0.042346213
253	0xbc254216	-0.010086557
254	0xbd88b670	-0.06675422
255	0xbdd39f9a	-0.10333176

encoder.critic_encoder.net.mlp.0.bias f4 [256]
0	0xbe47e555	-0.19521077
1	0x3ea6199c	0.32441413
2	0xbea5a2e7	-0.32350847
3	0x3e42c492	0.19020298
4	0xbd9ab62a	-0.07554276
5	0xbea001e5	-0.31251445
6	0xbe4295f9	-0.19002523
7	0xbe89553d	-0.26822844
8	0x3e93f8d0	0.28900766
9	0xbea562bb	-0.32301888
10	0x3e4d86b9	0.20070924
11	0x3e31ab61	0.17350532
12	0x3ebb6209	0.36598232
13	0x3e32e30b	0.17469423
14	0xbd3bbc67	-0.04583397
15	0x3e3cd6bd	0.18441291
16	0x3e4a97f8	0.19784534
17	0xbc23485a	-0.00996598
18	0xbd8ed05c	-0.06973335
19	0x3bd6635a	0.0065426053
20	0x3e81acdd	0.25327197
21	0x3e931574	0.28727305
22	0xbe703af0	-0.23459983
23	0xbe0da440	-0.13832188
24	0xbe3305a3	-0.17482619
25	0x3c5353dd	0.0128984125
26	0xbe6ebfb3	-0.23315315
27	0x3ef1aa77	0.47200367
28	0x3e31b76d	0.17355128
29	0x3e072edc	0.13201469
30	0xbd28c4d8	-0.04120335
31	0xbd274812	-0.040840216
32	0x3ddd3088	0.10800272
33	0x3e4b3d96	0.19847712
34	0x3e8ba5b6	0.27274865
35	0x3d29887e	0.041389935
36	0xbe2f5bc2	-0.17124847
37	0xbe9ea296	-0.30983418
38	0x3e812f6c	0.25231493
39	0x3d5ca26b	0.05386583
40	0xbe2ea82f	-0.17056344
41	0x3e3b3ca4	0.18284851
42	0x3e9c9877	0.3058507
43	0x3d8b2524	0.067941934
44	0xbe6a8688	-0.22902882
45	0x3de7b26b	0.113133274
46	0x3ec7a8df	0.38996026
47	0x3e453ceb	0.1926152
48	0xbde11ede	-0.109922156
49	0x3eba40b3	0.36377487
50	0x3dda297f	0.10652446
51	0x3e7daede	0.24773738
52	0x3e7edb9f	0.24888466
53	0xbe9de50d	-0.30838814
54	0x3dea7024	0.114471704
55	0xbd1d1a32	-0.03835506
56	0xbe36750b	-0.17818086
57	0xbe8791fb	-0.26478562
58	0xba54c053	-0.0008115817
59	0xbe7f11bd	-0.2490911
60	0xbe7b6068	-0.24548495
61	0xbdf4d366	-0.119543836
62	0xbd0a8cef	-0.03382581
63	0xbe5c875f	-0.21536015
64	0x3edf4797	0.43609306
65	0x3ecb31a8	0.39686322
66	0x3e8957f4	0.26824915
67	0xbe385a9f	-0.18003319
68	0x3de56bda	0.11202212
69	0x3d83e0c1	0.06439353
70	0xbe58b7f6	-0.21163926
71	0xbdc77091	-0.09738267
72	0xbddcb80d	-0.107772924
73	0xbe426185	-0.18982513
74	0x3e5f9f26	0.21838054
75	0x3e5329bd	0.2062139
76	0x3eb62e37	0.35582134
77	0xbe7eec93	-0.24894933
78	0xbdecc488	-0.11560923
79	0x3e4af9e4	0.19821888
80	0xbe964716	-0.2935111
81	0x3d898426	0.067146584
82	0x3e01e4f5	0.12684996
83	0xbe80a612	-0.25126702
84	0x3e19ed4b	0.15031926
85	0x3e73129c	0.23737568
86	0x3b8b7080	0.0042553544
87	0xbca3323c	-0.019921415
88	0x3c60ae89	0.013713487
89	0x3d1543a1	0.03644145
90	0xbda17662	-0.07883908
91	0xbe39e734	-0.18154603
92	0xbb35a567	-0.0027716996
93	0xbd4475e1	-0.04796398
94	0xbe466034	-0.19372636
95	0x3ea40607	0.32035848
96	0xbe846301	-0.25856784
97	0xbe7264b6	-0.2367123
98	0x3e69d066	0.22833404
99	0xbd1abec6	-0.037779592
100	0x3d6dabbd	0.05802511
101	0x3e2f4353	0.17115526
102	0x3ebbda95	0.36690202
103	0x3e8db286	0.27675265
104	0x3e9abe73	0.30223426
105	0x3e00c336	0.12574467
106	0xbea04440	-0.3130207
107	0x3e1c67dd	0.15273996
108	0x3e0dc761	0.13845588
109	0x3e0f4e7e	0.13994786
110	0x3ea4d6a9	0.32195023
111	0x3ea41b60	0.32052135
112	0xbe4b8694	-0.19875556
113	0xbe8573e7	-0.2606499
114	0x3d85b03d	0.065277554
115	0x3da2a61a	0.079418376
116	0x3dec596b	0.115404926
117	0xbe20c9f9	-0.15702046
118	0xbdc78f38	-0.09744114
119	0x3d0f5e54	0.035002068
120	0xbe04663d	-0.12929626
121	0xbe870dd1	-0.2637773
122	0x3e57a5fb	0.2105941
123	0xbd54f324	-0.05198969
124	0x3e164034	0.14672929
125	0xbe2e5ac1	-0.17026807
126	0xbebff92c	-0.3749479
127	0xbe62ab4a	-0.22135654
128	0xbdde1d4e	-0.10845433
129	0xbe322f4b	-0.17400853
130	0x3e68be32	0.22728804
131	0xbec6c247	-0.38820097
132	0x3df9af43	0.12191632
133	0xbd3887cd	-0.045051385
134	0xbdf526bc	-0.119702786
135	0x3c5df189	0.013546356
136	0xbe6ddb2c	-0.23228139
137	0x3c5976a6	0.013272917
138	0xbe25a379	-0.16175641
139	0x3b226d4e	0.002478439
140	0xbe856276	-0.26051682
141	0xbe30c25f	-0.17261647
142	0xbece374c	-0.40276563
143	0x3e75203a	0.23938075
144	0x3deb7db3	0.114985846
145	0xbe4ca832	-0.19986036
146	0x3b036b9b	0.0020053152
147	0x3dc9c87c	0.098526925
148	0xbe0c8de6	-0.13726005
149	0xbe7ffe34	-0.24999315
150	0x3e919275	0.2843205
151	0xbe6080ed	-0.21924181
152	0xbe49cf8b	-0.19708078
153	0x3e052046	0.13000593
154	0x3e70e9c2	0.23526672
155	0xbe70a5e5	-0.23500784
156	0x3e6bfc75	0.23045523
157	0xbd8cdc73	-0.06877985
158	0xbeaa3fab	-0.332517
159	0x3e3f18f1	0.18661858
160	0xbdcf9c9a	-0.10137291
161	0x3eae229a	0.34010774
162	0x3dbb387f	0.09141635
163	0xbeb23655	-0.34807077
164	0x3d8fb371	0.070166476
165	0x3ebd3ba3	0.36959562
166	0xbe76ca93	-0.24100713
167	0x3e9a0911	0.30085042
168	0x3e8c93c1	0.27456477
169	0xbd8522e0	-0.065007925
170	0x3c75637a	0.01497733
171	0xbe5d4b10	-0.21610665
172	0x3d86e9fd	0.065875985
173	0xbef131b9	-0.47108248
174	0x3e82e513	0.25565395
175	0x3e4260ee	0.18982288
176	0x3df1ad93	0.11800685
177	0xbe07c275	-0.13257773
178	0xbe289098	-0.16461408
179	0xbe057b44	-0.13035303
180	0x3e221b28	0.15830672
181	0x3e4bda7f	0.19907568
182	0x3da69c66	0.081352994
183	0x3e9fdd7f	0.31223676
184	0x3ce6742a	0.028131563
185	0x3d03925a	0.032121994
186	0x3d6b83fc	0.057498917
187	0xbe6a217b	-0.22864334
188	0x3e448b49	0.19193758
189	0xbdd25007	-0.1026917
190	0xbe55e5b7	-0.2088841
191	0x3ebb7acc	0.36617124
192	0x3d60cdef	0.054883894
193	0x3e1d579c	0.15365452
194	0x3e57eeb2	0.21087149
195	0xbe2eddcd	-0.17076798
196	0x3e9443f2	0.28958088
197	0x3e3736a5	0.17891939
198	0x3e924c32	0.28573757
199	0xbe1f65c9	-0.15566172
200	0xbeb255a2	-0.34830958
201	0xbe4f8e64	-0.20269161
202	0xbe7c60d8	-0.24646318
203	0xbd03aa88	-0.032145053
204	0xbd89d4a2	-0.067300096
205	0xbe5269b2	-0.20548132
206	0x3c0c31b7	0.008556775
207	0xbc94a0d0	-0.018143088
208	0x39c587e1	0.00037676006
209	0x3e7087fe	0.23489377
210	0xbe1e8956	-0.15482077
211	0x3e6c14fe	0.23054883
212	0x3eb4c479	0.35306147
213	0x3eafcafa	0.34334546
214	0xbe62c3b1	-0.22144963
215	0x3e9851c5	0.29749885
216	0xbea20b21	-0.31649116
217	0xbdfe62dc	-0.124212
218	0x3e9609b6	0.29304284
219	0x3e7c1f79	0.24621381
220	0xbe999ea7	-0.30003855
221	0x3ee38002	0.444336
222	0xbd5b3278	-0.053514928
223	0x3e3226da	0.17397633
224	0xbe3b53c3	-0.18293671
225	0x3e6dfcff	0.23241042
226	0x3e89b7c9	0.2689803
227	0x3b23621d	0.0024930306
228	0x3d17ecb5	0.037090976
229	0xb9097100	-0.00013107434
230	0x3ea4bab9	0.32173708
231	0xbe063784	-0.13107115
232	0x3e90b632	0.28264004
233	0xbd308f6c	-0.043105528
234	0x3ee6bfa3	0.45068082
235	0xbe8b1838	-0.27166915
236	0xbe327e62	-0.17431024
237	0xbdeef23c	-0.11667296
238	0xbdbb54bc	-0.09147021
239	0x3e64907f	0.22320746
240	0xbdb1be3b	-0.08678862
241	0xbdcafddb	-0.099117
242	0xbde0ce66	-0.109768674
243	0x3e2b39bb	0.16721241
244	0xbdb81517	-0.089883976
245	0x3e4ddc31	0.20103528
246	0x3c4f1e7e	0.012641547
247	0xbe4132a9	-0.18866982
248	0x3d062be7	0.032756712
249	0x3edc097d	0.4297599
250	0xbe63d04a	-0.22247425
251	0x3ea7529a	0.32680207
252	0x3e38c030	0.18042064
253	0x3e25b3a0	0.16181803
254	0xbe2300e5	-0.1591831
255	0x3e61bae3	0.22043948

encoder.critic_encoder.net.mlp.2.weight f4 [256, 256]
0	0x3d9b3986	0.07579331
1	0x3cd31447	0.025766505
2	0xbc1a5474	-0.009419549
3	0xbd55c08f	-0.05218559
4	0x3ceebe91	0.029143604
5	0x3ccda202	0.025101665
6	0xbcdcaf17	-0.026938958
7	0xbd3ed95f	-0.04659402
8	0x3d068aec	0.03284733
9	0xbdbdd990	-0.092700124
10	0x3c33599a	0.010946656
11	0x3d96ffd7	0.07373016
12	0x3cd8902a	0.02643593
13	0xbd80f7cc	-0.062972635
14	0xbd23ec32	-0.040020175
15	0xbca7fe6a	-0.020507056
16	0xbd5023e7	-0.05081549
17	0xbd3f55a4	-0.046712533
18	0x3d2b20a6	0.041779183
19	0x3da0f3cf	0.07859003
20	0x3d50e7e1	0.051002387
21	0x3de27687	0.110577635
22	0xbc526b24	-0.012842927
23	0xbc13c5e3	-0.009019348
24	0x3ce8fbd5	0.028440395
25	0xbd6d333f	-0.0579102
26	0x3cec23f2	0.028825734
27	0x3d37796c	0.04479353
28	0x3d108148	0.035279542
29	0xbd94c5cc	-0.07264289
30	0xbd5e21e8	-0.054231554
31	0x3d4f95b3	0.050679874
32	0x3cd1007e	0.02551293
33	0x384d1984	4.8899572e-05
34	0x3d7d87bb	0.06189702
35	0x3d743b6f	0.059626993
36	0x3d37cec0	0.044874907
37	0xbcecb5ff	-0.028895376
38	0xbd05c9b7	-0.032663073
39	0x3d9467dc	0.07246372
40	0xba098dd9	-0.0005247272
41	0xbc05dd84	-0.008170489
42	0xbd0a4a10	-0.033762038
43	0x3bbb1ec7	0.005710456
44	0xbcb16215	-0.021653214
45	0x3c7c9b94	0.015417952
46	0x3cfab4d7	0.03060381
47	0x3c29aae4	0.010355685
48	0xbd25938b	-0.04042391
49	0x3cfcfde4	0.030882783
50	0x3d29307b	0.041306
51	0x3d72ef4f	0.059310254
52	0x3d9441c3	0.072391056
53	0xbc894aed	-0.01675936
54	0xbca53a22	-0.020169321
55	0x3b1ac4e1	0.0023615884
56	0xbd24e30d	-0.040255595
57	0x3d2d3a66	0.04229202
58	0x3be953da	0.0071205916
59	0x3c3fccce	0.011706544
60	0xbd4a16a3	-0.049337994
61	0xbc8b071e	-0.016971167
62	0x3d956fae	0.07296692
63	0x3c9954de	0.018717226
64	0x3c6f5e55	0.014609893
65	0xbc0a3b9d	-0.0084370645
66	0xbd97ba78	-0.07408613
67	0xbda6ad07	-0.08138471
68	0xbd5322ae	-0.051546745
69	0x3d0b1a4a	0.033960618
70	0x3dba76b8	0.09104675
71	0x3ca57cfe	0.020201202
72	0x3c9355f7	0.017985327
73	0xbca65f26	-0.020309042
74	0xbb2026e9	-0.0024437255
75	0xbcd99de9	-0.026564555
76	0x3d0234e0	0.031788707
77	0x3ce6e99e	0.02818757
78	0x3ac800ea	0.0015259061
79	0xbd906e7d	-0.07052324
80	0x3d187bc8	0.037227422
81	0xbd95683a	-0.0729527
82	0x3d00d717	0.031455126
83	0x3c609373	0.01370703
84	0xbd017c9a	-0.03161297
85	0xbd026cb5	-0.031841952
86	0x3cb66603	0.02226544
87	0xbcc27744	-0.02373851
88	0x3d5a37fe	0.053276055
89	0x3cc3f1e5	0.023919055
90	0xbd3745b6	-0.044744216
91	0xbc8434ec	-0.016138516
92	0xba431f11	-0.0007443289
93	0x3d06dcf7	0.032925572
94	0xbd547d88	-0.05187753
95	0x3cbe1f40	0.02320826
96	0xbd4f09b2	-0.050546356
97	0x3c4a73f0	0.012356743
98	0x3d8b6011	0.068054326
99	0x3d8f0906	0.06984143
100	0x3d340714	0.043952063
101	0xbd0a9842	-0.03383661
102	0xbd3a1b19	-0.045436
103	0xbd089af5	-0.033350904
104	0x3d803851	0.062607415
105	0x3d2438a2	0.04009307
106	0x3d0d441b	0.03448878
107	0x3c8fbf02	0.017547134
108	0x3ac064e6	0.0014678508
109	0xbd31d3ca	-0.04341487
110	0xbc41556d	-0.011800152
111	0x3be32574	0.006931955
112	0x3ce06189	0.027390258
113	0x3cd27b90	0.025693685
114	0xbd27f1f4	-0.04100223
115	0xbd6e805e	-0.05822789
116	0xbc4c934c	-0.01248629
117	0xbd2706ea	-0.04077808
118	0x3da8ab24	0.082357675
119	0xbcfcb013	-0.030845677
120	0x3d59f11b	0.05320845
121	0xbd1a896b	-0.03772871
122	0xbd7bf064	-0.06150855
123	0xbd026bfb	-0.03184126
124	0x3c122a50	0.008921221
125	0x3d58f94d	0.052972127
126	0xbc52c54c	-0.012864422
127	0xbd3e4d19	-0.046460245
128	0x36d69f2c	6.396227e-06
129	0xbd4bd1d4	-0.049760655
130	0x3d32de94	0.0436693
131	0x3caf59ed	0.021405185
132	0x3c927de1	0.01788229
133	0xbced0020	-0.028930724
134	0xbd1261c5	-0.03573777
135	0xbcae58af	-0.021282522
136	0xbcf9bda4	-0.030485936
137	0xbb3ab1a7	-0.0028487237
138	0x3d552cd1	0.052044693
139	0x3be8f069	0.0071087372
140	0x3d3133ec	0.043262407
141	0xbcd3672e	-0.025806036
142	0x3d1f1568	0.038838774
143	0x3c0c252b	0.008553783
144	0x3d0d8971	0.034554902
145	0x3cee77b1	0.029109808
146	0xbc29dd93	-0.010367769
147	0xbd054baa	-0.032542862
148	0x3d337c96	0.043819986
149	0xbd405426	-0.04695525
150	0x3cb1efa9	0.021720724
151	0x3d6c06b8	0.057623595
152	0xbd38d3b7	-0.045123782
153	0xbd0fc918	-0.035103887
154	0xbccdd6c4	-0.025126822
155	0x3ce94baf	0.028478472
156	0xbd0ff7e0	-0.0351485
157	0x3d02f2d3	0.031969856
158	0xbc914aba	-0.017735828
159	0xbd492eee	-0.04911702
160	0x3d20f664	0.039297476
161	0x3dec35f1	0.11533726
162	0x3d2cb12f	0.042161163
163	0x3caa9c7a	0.020826567
164	0x3a3f7ca5	0.0007304645
165	0xbd3cf37f	-0.046130653
166	0x3d118247	0.035524633
167	0x3d080943	0.033211958
168	0xbce041e3	-0.027375167
169	0x3d7637d2	0.06011183
170	0x3d5eaecd	0.05436592
171	0x3d2c2f35	0.042037208
172	0x3d72bcb4	0.059261993
173	0xbd8cb487	-0.0687037
174	0xbd60cadc	-0.05488096
175	0xbd395956	-0.045251213
176	0x3d3bcafe	0.045847885
177	0x3d111e86	0.0354295
178	0x3cf8410f	0.03030446
179	0xbd9566a9	-0.072949715
180	0xbcc27cc2	-0.02374113
181	0x3d0072d6	0.031359516
182	0x3b8d4d21	0.004312173
183	0x3bfe4f12	0.0077608908
184	0x3b9e900f	0.0048389505
185	0xbbc58163	-0.006027387
186	0x3cde037f	0.027101276
187	0x3d94b747	0.0726152
188	0x3c4c0255	0.012451728
189	0x3c55b809	0.013044366
190	0xbd7b47b5	-0.061347682
191	0xbd103945	-0.035210866
192	0x3c9b504a	0.018959183
193	0x3c893617	0.016749425
194	0x3c91f7e7	0.017818404
195	0xb85440b0	-5.0604984e-05
196	0x3bc6c725	0.0060662203
197	0xbca222f3	-0.019792056
198	0x3cef385f	0.029201685
199	0x3cfb2211	0.030655893
200	0x3d40b8eb	0.04705135
201	0x3d460b49	0.048350606
202	0x3d6acbc5	0.057323236
203	0xbc5a180e	-0.013311399
204	0xbd351a11	-0.044214312
205	0xbd02b9bc	-0.03191541
206	0x3c956de1	0.01824087
207	0xbbaf949a	-0.005358291
208	0xbd28ac77	-0.0411801
209	0x3b276fb3	0.0025548756
210	0xbd6084eb	-0.05481426
211	0x3d6d57c4	0.057945028
212	0x3c9abb7a	0.018888224
213	0xbb05b4a0	-0.002040185
214	0xbd80b89d	-0.06285212
215	0x3c1a1d0f	0.009406342
216	0xbc9a9975	-0.018872002
217	0xbcd87b7f	-0.026426075
218	0x3c959dd4	0.018263735
219	0x3cb28a9e	0.021794613
220	0xbd84fd74	-0.06493655
221	0x3d58b4cc	0.052906796
222	0x3d64c5e9	0.055852804
223	0xba99bae2	-0.0011728669
224	0x3c2c02d2	0.010498719
225	0x3b1c5c24	0.002385863
226	0xbd0bfabc	-0.034174666
227	0x3c3a3fd6	0.011367759
228	0xbc93c7cd	-0.018039608
229	0xbd188cf3	-0.037243795
230	0x3d6bd01f	0.057571527
231	0xbc9d2376	-0.019181948
232	0xbcdb36fa	-0.026759613
233	0xbd7f869f	-0.062384244
234	0xbd12cba1	-0.035838727
235	0x3d818245	0.06323675
236	0xbd8183a7	-0.06323939
237	0xbd1765b0	-0.03696221
238	0xbd8364ee	-0.06415735
239	0x3ce91edf	0.028457103
240	0xbd3f0d01	-0.04664326
241	0x3d3f2e2a	0.046674885
242	0xbd8e3241	-0.06943179
243	0x3d3c2bf1	0.045940343
244	0x3d7d472a	0.061835445
245	0xbce34298	-0.027741715
246	0xbcb0f6f4	-0.021602131
247	0x3d2c9e15	0.042142946
248	0x3dd9de60	0.10638118
249	0x3c397fde	0.01132199
250	0xbd04ab70	-0.032390058
251	0x3c925976	0.017864924
252	0xbcc0a74b	-0.023517272
253	0xbd5ba2e0	-0.053622127
254	0xbce69553	-0.028147375
255	0xbd9c86f9	-0.076429315
