src/checkpoints/ppo_best_checkpoint/learner/module_state/default_policy/module_state_dir/module_state.pt (torch, 655490 bytes, 11 tensors)

encoder.actor_encoder.net.mlp.0.weight f4 [256, 54]
0.22238025 0.12484459 0.015811177 -0.11650668 0.29019552 0.299841 -0.10080183 -0.2286777
0.2038609 -0.17190431 0.20616458 -0.0569069 -0.2538477 0.018936677 0.21013747 -0.04618154
-0.268119 -0.21751502 0.19972183 0.16013616 0.037386812 0.048142307 0.03985225 -0.0035699254
-0.09102029 -0.07014505 0.1677885 -0.2982728 -0.003533791 -0.06933306 -0.035618 -0.18504752
-0.03291315 -0.1516531 -0.5106871 0.15222967 -0.054802258 -0.21421851 0.21236607 0.034826517
-0.24634738 -0.0513959 0.5100434 0.0006828806 -0.27365634 -0.05218829 0.1281001 0.40440428
-0.2719379 0.10985976 0.07626896 -0.16215046 0.09590352 0.05422313 0.24629506 0.21688792
-0.11993688 0.063322544 -0.12582995 -0.08525196 -0.028117267 -0.1471028 -0.083486676 -0.19127358
-0.42079133 0.09237128 -0.46540487 0.18550569 0.19397075 -0.26020157 -0.8121332 -0.0008878022
0.016257916 -0.08226847 0.10780394 0.13537444 0.0918468 0.025838355 0.18810177 0.21621987
-0.2303835 0.15001589 0.13213895 0.040810283 0.14433251 0.0681332 -0.09472796 -0.13952757
-0.41659486 -0.14490539 0.08999135 -0.03370701 -0.085826635 -0.13413535 0.0063315392 0.1297374
-0.32907596 0.24529916 0.087523624 0.45257533 -0.17819108 0.09595314 0.42793489 0.19220978
0.041551776 0.16913138 -0.07851448 0.019855266 -0.0236316 -0.040164135 0.025877409 0.018517507
-0.19629155 -0.11252296 0.0800815 0.1311036 -0.20692661 0.28721404 0.03925345 -0.16244714
0.07435434 -0.255337 0.010514663 0.11767053 0.015829632 0.6883981 -0.25767463 -0.35253
0.092718735 -0.052129436 -0.079132 -0.0680508 -0.13109666 -0.24521115 -0.10261923 -0.07420792
-0.24711391 0.07867435 0.03905575 0.114597514 0.2142314 0.051916003 -0.019304145 -0.32195416
-0.12515298 0.3546216 -0.07171086 -0.095863976 0.08495121 -0.29388967 -0.4754535 -0.34426937
0.11425283 -0.19947827 -0.2730696 -0.36241633 0.24561359 0.09597871 -0.08596766 -0.13787955
-0.1312069 0.17402256 0.10127163 -0.3254965 0.26337808 -0.1786274 -0.03015119 -0.15728718
0.054018237 -0.078065075 -0.08713992 0.025040755 0.022277553 -0.100054905 -0.52774954 0.26541388
-0.10965716 -0.13628148 -0.15085152 0.09063941 -0.115687855 0.032754358 0.2531058 -0.114451975
-0.30159768 -0.24488044 -0.10228641 -0.06241568 0.017292133 -0.09646073 -0.09793115 0.032710973
-0.16744529 0.035631333 0.12979878 0.13149172 -0.5780254 0.1543116 -0.14312646 -0.024247168
0.074969284 -0.22521234 -0.11483486 0.10693498 -0.03861257 -0.31496188 0.1014319 0.03167175
0.13815776 0.20154172 0.12001749 0.07276636 0.0727912 -0.047854494 0.20658866 -0.14116098
0.5863685 -0.26886111 -0.111193284 -0.2554897 0.20466658 0.325917 0.07689457 0.1255701
0.28579912 -0.21317023 0.0002843959 0.2528022 0.119462304 0.3932827 -0.11660304 0.048158698
0.1845011 -0.088722974 0.32157627 -0.092401326 -0.115403645 -0.21857332 0.117936514 0.3035986
0.042655043 -0.029469647 0.32060194 0.069227844 -0.34198096 -0.011838974 0.06255618 -0.030548267
-0.108289026 0.099498056 -0.09826559 0.363611 0.11401226 0.105485685 -0.2528496 -0.25323743
00000000: a6b7 633e 85ae ff3d 7186 813c 0e9b eebd
00000010: 8294 943e c284 993e 3171 cebd 7d2a 6abe
00000020: e9c0 503e af07 30be cf1c 533e 3617 69bd
00000030: 53f8 81be 1721 9b3c 472e 573e db28 3dbd
00000040: e546 89be 42bc 5ebe e183 4c3e bcfa 233e
00000050: ea22 193d de30 453d 1d3c 233d 69f5 69bb
00000060: d968 babd 35a8 8fbd c0d0 2b3e 36b7 98be
00000070: 2d97 67bb 7efe 8dbd 2ee4 11bd 197d 3dbe
00000080: f0cf 06bd f34a 1bbe 64bc 02bf 18e2 1b3e
00000090: 5578 60bd 195c 5bbe 7e76 593e 40a6 0e3d
000000a0: 7d42 7cbe 8284 52bd 3492 023f 5703 333a
000000b0: af1c 8cbe 63c3 55bd ac2c 033e 140e cf3e
000000c0: 723b 8bbe 27fe e03d e732 9c3d c50a 26be
000000d0: 1169 c43d 1319 5e3d c634 7c3e de17 5e3e
000000e0: 78a1 f5bd 40af 813d 91d9 00be 9498 aebd
000000f0: 2f56 e6bc 1ea2 16be 10fb aabd 39dd 43be
00000100: f671 d7be 272d bd3d 8c49 eebe 34f5 3d3e
00000110: 45a0 463e 2439 85be f6e7 4fbf 66bb 68ba
00000120: 522f 853c 5f7c a8bd 50c8 dc3d 999f 0a3e
00000130: 2d1a bc3d f5aa d33c c09d 403e be68 5d3e
00000140: a7e9 6bbe c49d 193e 6f4f 073e af28 273d
00000150: e7cb 133e 6b89 8b3d bc00 c2bd 51e0 0ebe
00000160: ec4b d5be 1462 14be 634d b83d 5d10 0abd
00000170: e0c5 afbd c75a 09be cd78 cf3b e2d9 043e
00000180: a57c a8be b42f 7b3e 963f b33d f4b7 e73e
00000190: b977 36be 1483 c43d 481a db3e a4d2 443e
000001a0: 3232 2a3d c730 2d3e 33cc a0bd 83a7 a23c
000001b0: 0f97 c1bc 2683 24bd dcfc d33c 07b2 973c
000001c0: a700 49be 7072 e6bd c501 a43d 0640 063e
000001d0: 92e4 53be b80d 933e 3ac8 203d 8b58 26be
000001e0: 1747 983d 88bb 82be b145 2c3c 3ffd f03d
000001f0: 25ad 813c dc3a 303f eeed 83be d07e b4be
00000200: 52e3 bd3d ad85 55bd f50f a2bd 385e 8bbd
00000210: 343e 06be a218 7bbe 082a d2bd 52fa 97bd
00000220: 6e0b 7dbe 0520 a13d ecf8 1f3d 1ab2 ea3d
00000230: 7a5f 5b3e e0a5 543d ba23 9ebc 2dd7 a4be
00000240: 1a28 00be f690 b53e 25dd 92bd 5554 c4bd
00000250: e6fa ad3d b578 96be a46e f3be 1344 b0be
00000260: 63fd e93d 0844 4cbe c7cf 8bbe a28e b9be
00000270: 2182 7b3e 7c90 c43d d00f b0bd 4c30 0dbe
00000280: 1a5b 06be f832 323e 8067 cf3d 7aa7 a6be
00000290: 7ed9 863e 1aea 36be a1ff f6bc e40f 21be
000002a0: 3a42 5d3d 95e0 9fbd 6a76 b2bd 4522 cd3c
000002b0: 6a7f b63c 96e9 ccbd 981a 07bf 54e4 873e
000002c0: ef93 e0bd 5f8d 0bbe d278 1abe 28a1 b93d
000002d0: c1ed ecbd 6f29 063d 1597 813e cc65 eabd
000002e0: 036b 9abe f0c1 7abe 8a7b d1bd 96a7 7fbd
000002f0: 3ba8 8d3c 348d c5bd 2090 c8bd f1fb 053d
00000300: c776 2bbe 29f2 113d f9e9 043e c4a5 063e
00000310: 79f9 13bf dc03 1e3e be8f 12be ffa1 c6bc
00000320: 7f89 993d 109e 66be 8a2e ebbd ba00 db3d
00000330: 3728 1ebd af42 a1be 87bb cf3d 3dba 013d
00000340: 3a79 0d3e f460 4e3e bbcb f53d 8806 953d
00000350: 8d13 953d 1303 44bd fa8b 533e 818c 10be
00000360: 3f1c 163f 2aa8 89be 4eb9 e3bd 8ccf 82be
00000370: 1e94 513e 98de a63e e67a 9d3d 7395 003e
00000380: 4354 923e 4c49 5abe f91a 9539 4a6f 813e
00000390: a7a8 f43d 5a5c c93e 93cd eebd 0e42 453d
000003a0: dbed 3c3e 64b4 b5bd a5a5 a43e e83c bdbd
000003b0: bf58 ecbd afd1 5fbe b388 f13d 4771 9b3e
000003c0: 0eb7 2e3d 546a f1bc f025 a43e 54c7 8d3d
000003d0: 2118 afbe 42f8 41bc 741d 803d 5c40 fabc
000003e0: a3c6 ddbd a3c5 cb3d 783f c9bd 392b ba3e
000003f0: 437f e93d e108 d83d 8175 81be 56a8 81be

encoder.actor_encoder.net.mlp.0.bias f4 [256]
-0.058617037 0.17902942 0.13239498 -0.07448665 0.4391042 0.010081783 -0.12930797 -0.09376464
0.005118531 0.018790677 -0.055061795 -0.06029138 -0.0906794 -0.16989836 0.041499738 -0.040890966
-0.05174915 0.044496 0.030544713 -0.011178967 -0.3986568 0.018821483 -0.008591074 -0.081909224
0.115304716 0.1904341 -0.074794635 -0.31207973 0.061071303 -0.32075912 -0.01254429 -0.06321431
-0.02842959 0.058560036 -0.046552982 -0.05845777 0.033976484 -0.043625634 -0.30005255 -0.0033178993
0.19640514 0.05544273 0.1477966 0.0011839771 -0.10351317 -0.06494317 -0.093923956 -0.011399143
0.12671933 -0.048127033 0.034504637 0.0219143 -0.041350946 0.13781464 0.12495147 0.041424353
-0.1285194 -0.17254806 -0.081077196 0.04708126 0.15193409 -0.14849487 0.0526757 0.020453831
0.04686632 0.00055231835 0.018358244 0.021071855 -0.062639534 0.13536717 -0.04982843 0.09460586
0.020668302 0.037085094 0.0062801107 -0.09415648 -0.007124771 0.051958617 -0.12838916 -0.055771533
0.11337002 0.055544637 0.007881305 -0.050667427 -0.1602392 -0.060227316 -0.34268564 -0.12762327
-0.4958164 -0.044806704 0.024017906 0.1057789 0.11521259 -0.028148543 -0.021868339 -0.1365095
-0.08153465 -0.02197666 -0.07770382 0.08519345 0.042382687 0.14536768 -0.009931378 -0.0016115755
-0.15148978 -0.13418981 -0.026067805 -0.019920131 0.04821008 -0.0938079 -0.18253514 -0.012454806
-0.038436897 -0.03624205 -0.050320834 0.111228675 -0.03377069 0.077073425 -0.061385337 -0.12884481
-0.1807351 0.09259102 -0.0920394 0.026914058 0.037441075 0.084198944 0.014584903 0.058466706
0.12847903 -0.03249792 0.045290522 0.10726925 0.049136832 0.2007723 0.046080302 -0.19502312
-0.11332729 -0.08712248 -0.12295459 -0.08672592 -0.06240469 -0.02811803 -0.060026433 0.11874668
-0.0084603755 -0.02877655 0.12726241 0.024304317 0.013753173 -0.047916725 -0.14567137 -0.091759756
0.012584544 0.03406886 -0.021496039 0.08801222 0.04283592 0.09220705 0.009786017 0.12330308
-0.42545938 0.004773083 0.008163422 0.036852125 -0.020255042 0.14169069 0.07762406 0.024005644
-0.17878507 -0.110515185 0.19408296 0.01956858 0.021652663 -0.055007637 -0.0051389593 -0.056220233
-0.13004169 0.06139072 -0.2101768 0.032246925 0.062216055 0.0390349 0.05275252 0.003891047
-0.057351753 0.035111714 0.13499095 0.054623332 -0.13136561 0.0005720304 -0.018062523 -0.092741676
0.012687363 -0.013328279 0.07242627 0.04392804 -0.049803767 0.15043804 0.0012271513 0.16216914
-0.092190064 -0.17064592 -0.029851934 0.15154618 -0.09779362 -0.05275445 -0.08540459 -0.018767605
-0.021931216 -0.051224813 0.08267673 0.034391146 -0.06903802 0.0005205429 -0.118904956 -0.08554762
0.03063873 0.1473615 0.012730131 0.030361952 0.011513157 -0.10112014 0.09054461 -0.050136637
0.041436374 0.021910647 -0.0075733494 -0.080588385 -0.07344477 -0.047343094 -0.08376981 -0.02463763
0.09088782 -0.010592611 -0.06511928 0.06109177 -0.19227773 0.0103247035 -0.13353354 -0.12254835
0.20779656 0.07627996 -0.124135666 0.02068599 -0.0022603108 -0.13563713 0.07937758 0.13821122
0.2108062 -0.07781789 0.046988253 -0.07832687 0.15936863 0.120550156 0.0038325428 -0.018336613
00000000: 6b18 70bd 7d53 373e 8d92 073e 758c 98bd
00000010: 44d2 e03e 102e 253c 4f69 04be ad07 c0bd
00000020: 5ab9 a73b e8ee 993c 7a88 61bd 18f4 76bd
00000030: 1fb6 b9bd d6f9 2dbe a1fb 293d 497d 27bd
00000040: ebf6 53bd 7041 363d e838 fa3c fc27 37bc
00000050: be1c ccbe 832f 9a3c 93c1 0cbc 06c0 a7bd
00000060: e124 ec3d 2801 433e ee2d 99bd eac8 9fbe
00000070: e725 7a3d 8a3a a4be 9186 4dbc 8176 81bd
00000080: 2ce5 e8bc a6dc 6f3d 57ae 3ebd 6a71 6fbd
00000090: ed2a 0b3d cbb0 32bd 7da0 99be 1d71 59bb
000000a0: 6e1e 493e eb17 633d fe57 173e ae2f 9b3a
000000b0: b6fe d3bd ed00 85bd 345b c0bd 79c3 3abc
000000c0: b6c2 013e da20 45bd bc54 0d3d 9e85 b33c
000000d0: 9c5f 29bd 481f 0d3e 8ee6 ff3d 95ac 293d
000000e0: 979a 03be 70b0 30be cd0b a6bd 47d8 403d
000000f0: 9c94 1b3e 0a0f 18be 7ac2 573d cb8e a73c
00000100: e6f6 3f3d 75c9 103a 0764 963c e29e ac3c
00000110: 2849 80bd b19d 0a3e e518 4cbd b8c0 c13d
00000120: 9250 a93c 8ae6 173d 63c9 cd3b 1dd5 c0bd
00000130: e976 e9bb 8fd2 543d 7378 03be b170 64bd
00000140: 8b2e e83d c682 633d 9720 013c a688 4fbd
00000150: bf15 24be ebb0 76bd 7e74 afbe adaf 02be
00000160: a6db fdbe 3c87 37bd 33c1 c43c 9ca2 d83d
00000170: 94f4 eb3d c697 e6bc 3b25 b3bc 25c9 0bbe
00000180: a3fb a6bd 6508 b4bc 2e23 9fbd e779 ae3d
00000190: 7899 2d3d 44db 143e 38b7 22bc 803b d3ba
000001a0: 2320 1bbe 0e69 09be 268c d5bc 8b2f a3bc
000001b0: ef77 453d 5b1e c0bd 7eea 3abe 3e0f 4cbc
000001c0: 0270 1dbd 8b72 14bd 381d 4ebd dccb e33d
000001d0: 2353 0abd acd8 9d3d 316f 7bbd e5ef 03be
000001e0: 9f12 39be 5ca0 bd3d 277f bcbd df7a dc3c
000001f0: d05b 193d 7f70 ac3d 84f5 6e3c c97a 6f3d
00000200: 0290 033e 8a1c 05bd 8e82 393d fbaf db3d
00000210: b443 493d 4197 4d3e b3be 3c3d 24b4 47be
00000220: 2318 e8bd 456d b2bd 9ecf fbbd 5c9d b1bd
00000230: 0f9c 7fbd c857 e6bc 47de 75bd 7631 f33d
00000240: 639d 0abc cdbc ebbc 1451 023e d919 c73c
00000250: fd54 613c 5444 44bd e02a 15be 8aec bbbd
00000260: 672f 4e3c ca8b 0b3d 7618 b0bc c03f b43d
00000270: b874 2f3d 0dd7 bc3d 8855 203c 5386 fc3d
00000280: d0d5 d9be 8667 9c3b e0bf 053c 41f2 163d
00000290: e7ed a5bc 5d17 113e 5df9 9e3d 7ca7 c43c
000002a0: 6f13 37be c955 e2bd afbd 463e 494e a03c
000002b0: ed60 b13c b04f 61bd b764 a8bb 3047 66bd
000002c0: a629 05be d674 7b3d 9638 57be 5a15 043d
000002d0: 43d6 7e3d 0fe3 1f3d 0713 583d f000 7f3b
000002e0: ace9 6abd 4dd1 0f3d 113b 0a3e b7bc 5f3d
000002f0: b584 06be 4ff4 153a dbf7 93bc 59ef bdbd
00000300: a8de 4f3c db5e 5abc 3954 943d e3ed 333d
00000310: 09ff 4bbd 6e0c 1a3e 5dd8 a03a ab0f 263e
00000320: 25ce bcbd cebd 2ebe 0b8c f4bc ec2e 1b3e
00000330: 0548 c8bd 0d15 58bd 9ae8 aebd 85be 99bc
00000340: 18a9 b3bc 1cd1 51bd 6b52 a93d bbdd 0c3d
00000350: ce63 8dbd 0b75 083a 7184 f3bd 9733 afbd
00000360: 13fe fa3c efe5 163e 0a92 503c a1b9 f83c
00000370: aea1 3c3c 1318 cfbd 746f b93d 135c 4dbd
00000380: 30b9 293d f57d b33c dc29 f8bb 860b a5bd
00000390: 366a 96bd d5ea 41bd 828f abbd dbd4 c9bc
000003a0: 6523 ba3d a18c 2dbc 425d 85bd 5d3b 7a3d
000003b0: 74e4 44be f228 293c 04bd 08be a1fa fabd
000003c0: 9fc8 543e ab38 9c3d d73a febd aa75 a93c
000003d0: b921 14bb 76e4 0abe b690 a23d 3e87 0d3e
000003e0: 95dd 573e fc5e 9fbd c176 403d d769 a0bd
000003f0: 8831 233e 00e3 f63d 662b 7b3b aa36 96bc

encoder.actor_encoder.net.mlp.2.weight f4 [256, 256]
0.02655062 -0.05513184 0.011380386 -0.0048979805 -0.07037385 0.03322018 0.05683633 -0.007935645
0.032295067 -0.013627351 -0.053935803 0.020112263 -0.011777343 0.061714903 -0.025764095 -0.020740414
-0.10079429 0.060355186 0.1263779 -0.011961754 0.05007452 0.02425226 -0.09286005 -0.009533192
-0.10766107 0.071490444 0.007066962 0.03550658 -0.026419466 -0.035515603 -0.007891239 0.07831687
0.0066804723 -0.041703906 0.043687325 -0.035281256 -0.021147046 0.049075633 0.07235681 -0.072667845
-0.036310464 -0.0057440773 -0.07481385 -0.0124388775 -0.0707281 0.06207022 -0.05919527 0.13044406
0.025922593 -0.020334395 -0.008060058 0.014914081 0.0034133696 -0.025935996 -0.0054979944 -0.037588473
-0.06573399 -0.10746321 -0.03362931 -0.066556275 0.031691797 -0.061075427 -0.03142453 0.031514306
0.014662367 -0.027408022 -0.08701353 -0.03771405 -0.011123609 -0.070285395 0.016428962 -0.01605951
0.07074703 0.023520544 0.01776743 0.1156442 -0.06487215 0.07037577 0.041351933 0.053003475
-0.02551566 -0.06643708 0.079662435 0.017703569 -0.015472175 0.07013249 0.0066175447 -0.001269732
0.038352158 0.044313584 0.06947948 0.024872849 -0.0348717 -0.008853999 -0.09994298 0.15411554
-0.07717904 0.06695859 -0.012906698 0.07177803 0.0044750515 0.0028724193 -0.03639671 -0.04842763
0.022098009 -0.12657443 -0.032605547 -0.04510041 -0.0652101 0.17587426 -0.03436936 0.018997503
-0.13088359 0.16508491 -0.059623733 -0.17602262 0.070038676 -0.015941931 -0.028959576 0.017598728
0.04968168 0.006742651 0.038121503 -0.027654948 -0.010224955 -0.054528195 -0.03550834 -0.016248373
-0.10757891 -0.10640954 -0.11570227 -0.03016864 0.14979513 0.006594299 0.038182348 0.045116138
0.15974773 -0.023686355 -0.03094071 0.00310339 -0.04053288 -0.060999144 0.022774361 0.057817556
-0.0066931583 -0.048756763 0.06566703 -0.012682509 0.09086038 0.092475444 -0.031622816 0.043773565
0.16302627 0.16391514 0.037236348 -0.045128945 0.011976282 0.025045881 -0.0012453608 0.04361086
0.065525174 4.420497e-05 -0.087665126 0.044884715 0.060635727 0.067094654 0.06822768 0.018182188
-0.10733734 0.019167343 -0.10148585 0.080303855 -0.062021863 0.091362074 0.015735472 -0.025535494
-0.005615797 -0.032437038 0.040192712 0.033089112 -0.0021321962 0.070274025 0.09803249 -0.16810039
-0.019984238 0.07035964 0.07628685 -0.059146192 0.030642897 -0.07199144 -0.032268442 -0.06816946
0.12058778 -0.04364011 -0.0052529112 -0.036335506 -0.03844615 -0.05373056 -0.0068909526 0.081693284
-0.1054905 -0.021961458 -0.026411187 0.07324735 0.032996163 0.01629377 -0.019885335 -0.07230838
0.096546285 0.0432396 -0.06268963 0.19761589 0.029895952 -0.048580408 -0.026820913 -0.10048934
-0.0153531255 -0.05770675 -0.013116199 0.083695516 -0.05401658 0.058107838 0.07986724 0.04544346
-0.040397096 0.0860023 0.033330612 0.024074234 -0.0048155314 -0.022590015 -0.03852801 -0.080635436
-0.087325 0.027238334 -0.0116989715 0.0023761753 -0.10193737 -0.055188417 -0.15429175 -0.005759529
-0.054826938 -0.06597085 -0.045403913 -0.0032629424 0.013347018 0.065537676 0.062026348 -0.113947436
0.067733414 -0.044142827 0.02073898 -0.07113153 -0.09544557 -0.06975926 -0.03200359 -0.008908075
00000000: b080 d93c edd1 61bd cc74 3a3c 3d7f a0bb
00000010: 2a20 90bd e211 083d 36cd 683d 8204 02bc
00000020: d547 043d 4145 5fbc caeb 5cbd 79c2 a43c
00000030: c2f5 40bc c4c8 7c3d 390f d3bc cde7 a9bc
00000040: 3d6d cebd 0037 773d 3569 013e 3cfb 43bc
00000050: f11a 4d3d adac c63c 692d bebd 1b31 1cbc
00000060: 687d dcbd 9569 923d f991 e73b 596f 113d
00000070: a36d d8bc cf78 11bd 414a 01bc 9864 a03d
00000080: dde7 da3b b7d1 2abd 7bf1 323d 1483 10bd
00000090: 923c adbc 8803 493d cf2f 943d e1d2 94bd
000000a0: 48ba 14bd d038 bcbb 0138 99bd 6fcc 4bbc
000000b0: e5d9 90bd 583d 7e3d bd76 72bd 2193 053e
000000c0: 9e5b d43c 5194 a6bc 550e 04bc 315a 743c
000000d0: d7b2 5f3b ba77 d4bc 8528 b4bb 5ff6 19bd
000000e0: 8b9f 86bd ac15 dcbd e3be 09bd a84e 88bd
000000f0: 42cf 013d 3a2a 7abd 02b7 00bd 2515 013d
00000100: 6d3a 703c ca86 e0bc 2634 b2bd 0c7a 1abd
00000110: cc3f 36bc caf1 8fbd 0896 863c 3c8f 83bc
00000120: d2e3 903d 28ae c03c 008d 913c ded6 ec3d
00000130: b1db 84bd 2c21 903d a560 293d 2c1a 593d
00000140: 3806 d1bc 2a10 88bd 0f26 a33d 1307 913c
00000150: 017f 7dbc 9fa1 8f3d fdd7 d83b 236d a6ba
00000160: 2717 1d3d 2982 353d 424b 8e3d 25c2 cb3c
00000170: a1d5 0ebd 5d10 11bc e8ae ccbd 77d0 1d3e
00000180: 0b10 9ebd 9621 893d 9d76 53bc 5c00 933d
00000190: 74a3 923b 333f 3c3b b714 15bd 0d5c 46bd
000001a0: e206 b53c ba9c 01be 658d 05bd 35bb 38bd
000001b0: df8c 85bd 6218 343e e3c6 0cbd a7a0 9b3c
000001c0: 5906 06be 050c 293e 0438 74bd 463f 34be
000001d0: 7070 8f3d a798 82bc a23c edbc 352b 903c
000001e0: 047f 4b3d 75f1 dc3b 4b25 1c3d a18c e2bc
000001f0: 9286 27bc f558 5fbd 3171 11bd 4f1b 85bc
00000200: 5552 dcbd 3fed d9bd 50f5 ecbd 3924 f7bc
00000210: e563 193e fd14 d83b 1865 1c3d b3cb 383d
00000220: e994 233e e309 c2bc 5f77 fdbc 3f62 4b3b
00000230: ce05 26bd 3dda 79bd 4c91 ba3c 1ad2 6c3d
00000240: 4852 dbbb 2cb5 47bd 707c 863d 4cca 4fbc
00000250: 0215 ba3d c463 bd3d ed86 01bd e94b 333d
00000260: 5cf0 263e 5fd9 273e 2485 183d 21d9 38bd
00000270: 2b38 443c 052d cd3c 603b a3ba 4da1 323d
00000280: 1032 863d ba68 3938 c689 b3bd 09d9 373d
00000290: 2b5d 783d ec68 893d f4ba 8b3d d0f2 943c
000002a0: aed3 dbbd d504 9d3c d0d7 cfbd 5976 a43d
000002b0: a30a 7ebd 0a1c bb3d ade7 803c d02f d1bc
000002c0: b804 b8bb b3dc 04bd 1da1 243d 7388 073d
000002d0: 51bc 0bbb d4eb 8f3d 42c5 c83d 8222 2cbe
000002e0: fcb5 a3bc b718 903d 483c 9c3d 4743 72bd
000002f0: d006 fb3c 4070 93bd ea2b 04bd 6e9c 8bbd
00000300: baf6 f63d f9bf 32bd 9d20 acbb 8ad4 14bd
00000310: b679 1dbd 9314 5cbd 80cd e1bb cf4e a73d
00000320: 670b d8bd 84e8 b3bc 465c d8bc b502 963d
00000330: fc26 073d 837a 853c 92e6 a2bc 6a16 94bd
00000340: 0fba c53d 021c 313d 6c63 80bd d25b 4a3e
00000350: 5be8 f43c 40fc 46bd 88b7 dbbc 5bcd cdbd
00000360: ad8b 7bbc ea5d 6cbd 53e5 56bc 8e68 ab3d
00000370: 7d40 5dbd 7c02 6e3d 6f91 a33d ec22 3a3d
00000380: 6d77 25bd f921 b03d ae85 083d 5437 c53c
00000390: 9bcb 9dbb b20e b9bc 8ccf 1dbd 3124 a5bd
000003a0: 73d7 b2bd ed22 df3c 0bad 3fbc 9bb9 1b3b
000003b0: 8ac4 d0bd 400d 62bd a8fe 1dbe 6eba bcbb
000003c0: 3692 60bd ba1b 87bd 74f9 39bd 17d7 55bb
000003d0: 73ad 5a3c 9e38 863d 570f 7e3d 465d e9bd
000003e0: d1b7 8a3d 1ccf 34bd cbe4 a93c 68ad 91bd
000003f0: f878 c3bd f1dd 8ebd 3216 03bd 2df3 11bc

encoder.actor_encoder.net.mlp.2.bias f4 [256]
0.10699839 -0.12395172 -0.33013982 0.051016945 -0.005410447 0.014564046 -0.00975581 0.022147402
0.04004707 -0.107414134 -0.011711803 0.019502234 -0.00491898 -0.32002217 0.06306349 0.03144286
0.068734095 0.04736497 0.08594059 0.060230922 0.05555607 0.19016631 0.07008441 -0.009308225
0.052347552 -0.07493828 -0.056241173 0.13415696 -0.3844567 -0.12083645 0.059319228 -0.04310649
0.07866693 0.12482592 -0.04034664 0.32401896 -0.09829676 -0.5181497 0.04223522 -0.0051384415
-0.012771978 -0.047732294 0.008045151 0.057088625 -0.017773585 -0.029426154 0.026715705 -0.008413887
-0.022043323 -0.18644236 0.098998 -0.14000538 0.01786379 0.00029578627 -0.040817536 -0.03226503
-0.18822281 -0.050190058 0.0884928 0.06935395 -0.019359067 0.030628001 -0.06304563 -0.1370924
-0.25777826 -0.0742558 0.17570853 0.079686075 0.018413195 0.10037653 -0.013880384 0.605523
-0.102881014 -0.0669667 -0.0067373174 0.0009937831 -0.34137598 -0.026615726 -0.014795035 0.0570559
-0.0666287 -0.3876893 -0.006829441 0.3437909 -0.10691421 0.21123567 0.0055492125 0.32071933
-0.06504335 -0.022644354 -0.05687719 0.019192144 0.22781797 0.00059222145 -0.009460657 0.18845856
0.01751017 0.073631085 0.1332894 0.2134323 0.35297507 -0.31783944 -0.050603487 -0.14528674
-0.011799003 -0.08789687 -0.037153043 0.25079808 0.06200813 0.012764637 -0.14082569 0.051923476
0.07900318 0.05587281 -0.031642042 -0.2643373 -0.026799826 0.054367334 0.047917776 0.016303267
0.12752602 0.26209638 0.15806873 0.24997286 -0.009237957 -0.18327118 0.05729837 -0.024436845
0.034632903 -0.056799944 -0.14096542 0.06730576 0.25154 0.024766644 -0.08853269 -0.36846742
-0.2856586 -0.35718852 -0.16256422 -0.06802242 -0.06258196 -0.04956748 -0.11636843 0.060842983
0.34122387 -0.0579076 0.07085681 -0.093110636 -0.024580946 0.15249182 0.025560217 -0.0024903186
-0.0545645 0.08978666 -0.14232042 -0.3479328 0.03271914 0.06625824 0.15408482 -0.3086924
0.16248603 -0.046823546 0.077693515 0.14980406 0.022069555 0.23649827 -0.30815363 -0.10441919
-0.0027752728 -0.06629361 -0.26327875 -0.36052194 0.35081863 -0.1933143 0.24359518 0.034545776
0.0171505 -0.06920138 0.0174756 -0.04729472 0.032932676 -0.02304107 0.053768206 0.048359223
0.18997188 -0.122336134 0.004625483 -0.05146009 0.0059582596 0.09618001 0.017598381 -0.019037059
-0.03832034 0.29853168 -0.16890207 -0.05547205 0.041100185 0.033926588 0.06975442 0.066239506
-0.019167498 0.03518274 -0.016760409 -0.09468564 -0.32440075 -0.03129117 -0.005685667 0.059293948
0.008722794 -0.095999934 -0.2188816 0.015167761 -0.03716969 -0.042660926 -0.052872214 0.07989194
-0.10059445 -0.017308166 -0.023517456 -0.11115607 0.012277728 0.17193998 0.017797528 0.05062159
0.054269526 -0.08171614 0.174283 0.063072704 0.096060194 -0.002371413 0.22204249 -0.08068689
0.33041266 -0.099534616 -0.09556633 -0.012106315 -0.123010345 -0.10437259 0.127615 0.093363516
0.031139873 0.069459185 -0.087750815 -0.035974696 -0.0044840514 -0.0428279 -0.18625292 0.0136374105
0.03838691 -0.030158862 0.0078109703 0.63502556 0.006726365 -0.028382068 0.0011096222 0.054588247
00000000: f921 db3d 66da fdbd 1608 a9be 25f7 503d
00000010: 1e4a b1bb 099e 6e3c d5d6 1fbc 786e b53c
00000020: 6508 243d f1fb dbbd dde2 3fbc 26c3 9f3c
00000030: 652f a1bb f2d9 a3be 6e27 813d 3aca 003d
00000040: 76c4 8c3d c501 423d 9f01 b03d b3b4 763d
00000050: c38e 633d f5ba 423e 6a88 8f3d 8681 18bc
00000060: 636a 563d 3e79 99bd 255d 66bd 7160 093e
00000070: 82d7 c4be 1a79 f7bd b8f8 723d 6e90 30bd
00000080: 211c a13d bba4 ff3d 8542 25bd d0e5 a53e
00000090: d04f c9bd 75a5 04bf d7fe 2c3d 5f60 a8bb
000000a0: 8f41 51bc f082 43bd cfcf 033c c3d5 693d
000000b0: e999 91bc 1e0f f1bc e5da da3c 66da 09bc
000000c0: 3394 b4bc bfea 3ebe 77bf ca3d 925d 0fbe
000000d0: 1557 923c c313 9b39 4a30 27bd 5628 04bd
000000e0: 7bbd 40be 1794 4dbd b73b b53d 7209 8e3d
000000f0: e896 9ebc 93e7 fa3c 111e 81bd f361 0cbe
00000100: 83fb 83be 6d13 98bd f0ec 333e 7432 a33d
00000110: 45d7 963c 3692 cd3d 8d6a 63bc 8e03 1b3f
00000120: 48b3 d2bd d625 89bd b7c4 dcbb d441 823a
00000130: d5c8 aebe 3909 dabc e066 72bc 73b3 693d
00000140: a174 88bd 367f c6be 81c9 dfbb 5c05 b03e
00000150: d6f5 dabd 2a4e 583e 2bd6 b53b 5335 a43e
00000160: 7335 85bd a780 b9bc 0ef8 68bd d838 9d3c
00000170: 1d49 693e 4f3f 1b3a df00 1bbc 48fb 403e
00000180: 7d71 8f3c e5cb 963d 047d 083e ff8d 5a3e
00000190: 26b9 b43e dabb a2be 9a45 4fbd 0cc6 14be
000001a0: 9b50 41bc 4603 b4bd ca2d 18bd 9b68 803e
000001b0: 3dfc 7d3d c522 513c 9c34 10be b6ad 543d
000001c0: 6bcc a13d e3da 643d 169b 01bd 3857 87be
000001d0: 4f8b dbbc 48b0 5e3d 6e45 443d 6e8e 853c
000001e0: 2e96 023e 7f31 863e c5dc 213e e3f8 7f3e
000001f0: cd5a 17bc 71ab 3bbe b2b1 6a3d c72f c8bc
00000200: 3bdb 0d3d 0fa7 68bd 3d59 10be 9ad7 893d
00000210: dac9 803e 6be3 ca3c a150 b5bd c3a7 bcbe
00000220: d841 92be 6ae1 b6be 3c77 26be 574f 8bbd
00000230: f82a 80bd 4507 4bbd 9252 eebd 7e36 793d
00000240: e5b4 ae3e 8530 6dbd 601d 913d cab0 bebd
00000250: fb5d c9bc d126 1c3e a963 d13c 9d34 23bb
00000260: 067f 5fbd 12e2 b73d 72bc 11be 3f24 b2be
00000270: 8104 063d 66b2 873d 69c8 1d3e ee0c 9ebe
00000280: bd62 263e 0cca 3fbd c71d 9f3d 3c66 193e
00000290: 36cb b43c 9a2c 723e 50c6 9dbe bad9 d5bd
000002a0: 5ae1 35bb f2c4 87bd 79cc 86be 5596 b8be
000002b0: 809e b33e 2ff4 45be 0471 793e df7f 0d3d
000002c0: 357f 8c3c 74b9 8dbd fd28 8f3c 1cb8 41bd
000002d0: 6ae4 063d a0c0 bcbc 0d3c 5c3d 5214 463d
000002e0: fd87 423e 5e8b fabd 5d91 973b d1c7 52bd
000002f0: 813d c33b 06fa c43d 7b2a 903c 9bf3 9bbc
00000300: caf5 1cbd 25d9 983e aaf4 2cbe a936 63bd
00000310: ab58 283d 9bf6 0a3d 68db 8e3d 94a8 873d
00000320: 2805 9dbc c71b 103d 204d 89bc 8bea c1bd
00000330: db17 a6be 2b2b 00bd d54e babb 36de 723d
00000340: 0dea 0e3c 9d9b c4bd 8022 60be 3382 783c
00000350: 3f3f 18bd 39bd 2ebd 8990 58bd 639e a33d
00000360: 7704 cebd dbc9 8dbc aea7 c0bc cba5 e3bd
00000370: 8628 493c 0911 303e 1fcc 913c 9658 4f3d
00000380: b949 5e3d cb5a a7bd 3e77 323e 432c 813d
00000390: 35bb c43d b569 1bbb 1b5f 633e 2b3f a5bd
000003a0: d92b a93e ced8 cbbd 48b8 c3bd 9159 46bc
000003b0: d9ec fbbd 4cc1 d5bd 82ad 023e 5f35 bf3d
000003c0: 0c19 ff3c 9e40 8e3d b3b6 b3bd 345a 13bd
000003d0: f3ee 92bb 4f6c 2fbd 16b9 3ebe 726f 5f3c
000003e0: 983b 1d3d b80f f7bc 2bf3 ff3b 0991 223f
000003f0: d768 dc3b 8381 e8bc be70 913a ed97 5f3d

encoder.critic_encoder.net.mlp.0.weight f4 [256, 54]
-0.2597902 0.17716084 0.21970528 0.5251892 0.0989011 0.022155106 0.19273318 0.20775683
0.50890553 0.3677816 0.99680775 0.16593955 0.33032992 -0.171171 0.18293864 0.9760979
0.14144252 0.22836718 0.46327502 -0.41790858 0.17113242 0.80278033 0.54792476 0.041975934
0.31994137 0.29279402 0.25869748 0.45224237 1.5034732 -0.12954073 0.42586657 -0.028940713
0.20844442 1.2764053 -0.3726177 0.6357607 0.33564842 -0.055285897 -0.10818647 0.7813369
0.37322518 -0.015749 -0.17464666 -0.09911778 0.36680594 0.24183251 1.6321625 -0.12847568
1.0342124 -0.07228138 0.18435442 0.76889 -0.84317136 0.608635 -0.6602834 0.40164337
-0.03503886 0.15173489 0.19370106 -0.5362632 -0.7102514 -0.45930913 0.071757115 0.43174765
0.5743097 0.7111382 -1.7562698 0.4525686 0.20496382 -0.054559465 0.322541 -0.09387595
-0.18364023 0.13966587 -0.2159259 0.38193476 0.09553727 -0.06609878 -0.50038284 -0.5926035
-0.30962205 0.19829857 0.8296486 0.60435474 -2.02592 0.477789 0.13009325 -0.19206919
0.40562692 0.061928906 -0.17456844 0.28846532 -0.45060417 0.2994008 0.26928213 -0.08343924
-0.750658 -0.60826844 -1.1590661 -0.2714776 1.2846049 0.7039363 -2.4703493 0.4467222
-0.06356976 -0.2802517 0.41968355 -0.26612195 0.46184263 0.3831629 0.14835875 -0.3910771
0.29927447 -1.1431535 -0.24467286 -0.5271942 0.20659234 0.2685236 -0.268354 0.12115868
0.39637107 0.2915927 0.8972707 0.89529526 -0.053642526 0.25316772 0.45392907 0.34571716
0.052810103 -0.4158073 -0.28539887 -1.4032601 0.23022172 -0.5867475 0.5156484 0.2996412
-0.23271404 0.31757146 0.48841596 0.35729313 0.49670967 0.35910714 -0.0058684777 0.6897822
0.37912923 0.8695549 0.28830546 -0.43397728 -0.38562042 -1.8526374 -0.08939253 -0.8799223
0.7122275 0.39548278 -0.98107994 0.17115434 -0.09179704 -0.22286367 0.5298153 0.374991
0.20298481 0.5791595 -0.1762879 0.41363063 -0.1766461 0.35031018 0.13481659 -0.17334075
-0.18028237 -0.25620526 0.48923525 0.53981376 0.13081358 -0.32519498 -0.16679923 0.50820726
-0.55941826 -0.09665893 0.5354319 0.13216256 0.54028994 0.19851363 -0.19629191 0.60776204
0.40102968 -0.3715027 0.062357515 0.21325296 0.2107622 0.8805358 0.3902369 -0.6070333
0.15684158 0.3300631 -0.8156037 -0.5385236 0.6966313 0.5332054 -0.44321868 -0.19483967
-0.51293254 0.60023785 0.42259526 -0.22336715 0.27978444 0.35686514 0.2627541 0.95760614
0.15005869 -0.69224423 0.37630686 0.45133916 -1.0345814 -0.57510895 0.5112015 0.70566964
-0.6295561 -0.10073157 -0.28571177 0.087117955 0.8844546 -1.0993487 1.371375 0.35682043
0.016141092 -0.383764 -0.38860455 -0.5342276 -0.5812554 0.34585825 -0.8684464 -0.7934019
0.2684938 -0.63700205 -0.29969886 0.76320827 -0.2922406 0.07326217 0.7499084 -0.77308184
1.8524263 0.38929442 0.024224492 -0.3520319 -0.351144 0.077593185 -1.0436516 0.12179315
-0.69562894 -0.27797443 -0.1855646 -0.5789918 -0.30505392 0.4827352 -0.4703289 0.14127567
00000000: 3903 85be a769 353e 6cfa 603e cd72 063f
00000010: a98c ca3d a07e b53c d95b 453e 35be 543e
00000020: a247 023f df4d bc3e cb2e 7f3f 0fec 293e
00000030: 0121 a93e 7347 2fbe 4454 3b3e 8de1 793f
00000040: 4fd6 103e 16d9 693e 6232 ed3e 1df8 d5be
00000050: 563d 2f3e 0383 4d3f cc44 0c3f f5ee 2b3d
00000060: 5bcf a33e 19e9 953e ff73 843e 508c e73e
00000070: cf71 c03f 53a6 04be 2f0b da3e 1315 edbc
00000080: 7472 553e 4061 a33f bfc7 bebe 37c1 223f
00000090: 1cda ab3e 7773 62bd de90 ddbd b205 483f
000000a0: 5f17 bf3e 0c04 81bc 93d6 32be 43fe cabd
000000b0: fdcd bb3e f1a2 773e b3ea d03f 218f 03be
000000c0: 1261 843f 4308 94bd 68c7 3c3e fad5 443f
000000d0: 14da 57bf 81cf 1b3f 5508 29bf 33a4 cd3e
000000e0: e884 0fbd 6460 1b3e 9259 463e 8c48 09bf
000000f0: 09d3 35bf 912a ebbe 65f5 923d 070e dd3e
00000100: f605 133f 270d 363f 73cd e0bf 12b7 e73e
00000110: 09e2 513e bf79 5fbd 1824 a53e 0942 c0bd
00000120: 2f0c 3cbe 9204 0f3e ae1b 5dbe f48c c33e
00000130: 0ba9 c33d cc5e 87bd 1719 00bf ddb4 17bf
00000140: c886 9ebe c80e 4b3e da63 543f feb6 1a3f
00000150: aca8 01c0 c3a0 f43e 2a37 053e c9ad 44be
00000160: 55ae cf3e 2aa9 7d3d 12c2 32be bab1 933e
00000170: 97b5 e6be 104b 993e 59df 893e 31e2 aabd
00000180: 1f2b 40bf 7bb7 1bbf 475c 94bf 1dff 8abe
00000190: ef6d a43f 2b35 343f 341a 1ec0 c6b8 e43e
000001a0: dd30 82bd 277d 8fbe c3e0 d63e 2341 88be
000001b0: a376 ec3e ed2d c43e 5beb 173e 423b c8be
000001c0: 813a 993e db52 92bf 868b 7abe 33f6 06bf
000001d0: f18c 533e ed7b 893e b265 89be 0b22 f83d
000001e0: 26f1 ca3e a34b 953e 88b3 653f 1232 653f
000001f0: 44b8 5bbd 339f 813e 6469 e83e d701 b13e
00000200: 684f 583d b2e4 d4be cd1f 92be 079e b3bf
00000210: 3ebf 6b3e 1635 16bf 8901 043f 926a 993e
00000220: 974c 6ebe ba98 a23e a811 fa3e 20ef b63e
00000230: bb50 fe3e e4dc b73e 5c4c c0bb 9195 303f
00000240: 3a1d c23e 269b 5e3f c69c 933e 4532 debe
00000250: 0a70 c5be 3923 edbf 6e13 b7bd 9642 61bf
00000260: 8b54 363f b87c ca3e 0e28 7bbf 1543 2f3e
00000270: 1600 bcbd 6036 64be faa1 073f d2fe bf3e
00000280: 40db 4f3e cc43 143f d184 34be 65c7 d33e
00000290: b7e2 34be db5b b33e 5c0d 0a3e 3d80 31be
000002a0: f19b 38be 562d 83be 0b7d fa3e 3c31 0a3f
000002b0: fff3 053e f57f a6be 6bcd 2abe df19 023f
000002c0: 0936 0fbf 1ef5 c5bd 1112 093f 9f55 073e
000002d0: 7150 0a3f 2847 4b3e bf00 49be 4b96 1b3f
000002e0: c353 cd3e 9a35 bebe 986a 7f3d fc5e 5a3e
000002f0: 0cd2 573e cb6a 613f 22cd c73e 8966 1bbf
00000300: 149b 203e 08fe a83e 67cb 50bf afdc 09bf
00000310: 6e56 323f 2680 083f 8fed e2be 0d84 47be
00000320: 8c4f 03bf 30a9 193f 685e d83e 5cba 64be
00000330: e83f 8f3e 07b7 b63e b587 863e ad25 753f
00000340: fca8 193e eb36 31bf 4bab c03e ed15 e73e
00000350: 2a6d 84bf 573a 13bf 1ade 023f c4a6 343f
00000360: 972a 21bf 5a4c cebd d048 92be e66a b23d
00000370: 9e6b 623f 75b7 8cbf 3789 af3f 2bb1 b63e
00000380: 533a 843c b77c c4be 2df7 c6be 24c3 08bf
00000390: 27cd 14bf 5514 b13e 8152 5ebf 631c 4bbf
000003a0: 0578 893e 9112 23bf 2172 99be 9e61 433f
000003b0: 8fa0 95be 7a0a 963d fff9 3f3f b1e8 45bf
000003c0: 4e1c ed3f 9951 c73e 7172 c63c 863d b4be
000003d0: 25c9 b3be 2de9 9e3d 6096 85bf b06e f93d
000003e0: bd14 32bf aa52 8ebe a604 3ebe ce38 14bf
000003f0: 0730 9cbe 1129 f73e f3ce f0be 92aa 103e

encoder.critic_encoder.net.mlp.0.bias f4 [256]
0.63539165 -0.50747716 0.8381519 -0.9541968 0.35510522 -1.1752709 0.0019304563 1.3478538
0.4755505 -0.15072934 1.226176 0.16054793 1.0458678 0.8255609 1.0863253 0.9087263
-0.8980293 0.6372541 0.87677735 0.8778001 0.20004569 0.014559982 0.04084263 -0.39281994
-0.49659395 0.7915284 0.96205485 -0.24193707 0.106132284 0.7223429 0.08119581 0.002574763
0.48847613 1.1831424 -1.1609564 0.2046352 1.1318144 0.47124282 -0.35722616 1.3238337
0.53297585 -1.03314 0.021239016 1.2340662 -0.1349245 0.4080122 -0.3661454 -1.1372094
-0.8308591 0.116437465 0.50542545 0.28063822 -0.38547727 0.43617496 0.8052946 -1.2290537
0.1293823 -0.34324297 0.7020633 1.1182883 -0.29242167 -0.2820069 0.47848192 0.94863033
1.2304908 -0.9375549 1.0498588 -0.95628816 0.25855297 -0.05213867 1.1781036 -0.49637935
-0.9347921 -0.037875302 0.73295134 -1.1038022 -0.030739682 -0.084211424 1.0771863 -0.24229868
-0.003233527 -0.8259782 -0.6511016 0.7981876 -0.7662995 -0.31635967 0.15765074 0.6465167
-0.5267562 1.163945 0.067850836 -0.0025522346 -0.56421405 0.64710337 0.14882974 0.6444813
0.111444496 -1.0555993 0.91393673 1.0160675 -0.3015811 0.09664332 1.2045707 -1.1432519
0.7714183 0.31668088 0.784301 0.110311404 0.13476916 0.60077333 1.0254531 -0.896941
-0.48230693 0.26410347 -0.7763037 0.674938 0.65592057 -0.42630285 0.8641083 -1.2363322
1.136204 -0.17657043 0.16267721 0.001700392 -0.4943572 0.37845984 0.41141897 0.75180393
-0.66279197 0.05135379 0.35773453 -0.5143122 -0.7128359 -1.1457077 0.6801215 -0.37422764
0.43290657 0.6974836 0.12047028 -0.6846505 -1.3502983 0.13234486 0.41407394 -0.36647654
0.8452727 -1.1994777 0.8250178 -0.9782736 0.6532884 -1.5804892 0.71734494 -0.38530007
-0.31019652 -0.74388266 0.51656324 -0.9500077 0.6497065 -0.95199186 -0.925904 0.88030756
-0.21805476 -0.54835725 -0.8072365 -0.45181346 -0.47094148 -0.928679 -0.6707004 0.4432802
-0.53899515 0.535082 -0.25228447 -1.1767405 0.6288921 -0.5564165 0.45644173 0.9126818
-0.54045665 0.54795796 0.96612835 0.33977887 1.2782794 1.2536799 -0.25843215 -0.40730423
0.12944403 -0.25344864 -0.5538277 -0.46683234 0.72789574 0.45745012 -0.69509304 0.9708583
-0.23473485 -0.031422436 0.40597004 -0.04368299 -0.6745746 -1.4278672 -1.0853962 -1.0987645
0.7401748 -0.5936989 -0.37463582 0.45775917 -1.1669363 -1.0392402 -0.549297 0.15968227
0.34801722 -0.71928084 -0.25885484 -0.19884858 -0.6553888 0.41937935 -0.3000994 -0.01552155
-0.71716547 -0.3824831 -1.2291299 -0.3406477 0.8697385 -0.8120706 -0.67759895 -0.49760085
1.0455662 0.8657924 -1.3724414 0.3453088 -0.0027665996 0.3169219 -0.47530276 -0.32309118
-0.7456007 -0.7655213 -0.09669208 0.010294367 -0.36986184 -1.1837786 0.61349905 -0.4357705
1.0499964 0.10005534 -0.83256054 -1.1365864 -0.24533609 -0.25623062 -0.4373197 1.3981899
-0.7761317 -0.15942502 0.76397 -0.110044375 -0.78587013 -1.0531348 0.20490955 -0.82164925
00000000: 07a9 223f 06ea 01bf 1f91 563f 3e46 74bf
00000010: 5ad0 b53e 476f 96bf 5d07 fd3a 7986 ac3f
00000020: 5b7b f33e cb58 1abe 56f3 9c3f ad66 243e
00000030: ffde 853f f657 533f b50c 8b3f 49a2 683f
00000040: 40e5 65bf 1623 233f 7b74 603f 82b7 603f
00000050: c7d8 4c3e fe8c 6e3c 9a4a 273d b21f c9be
00000060: 9041 febe 9ba1 4a3f 3a49 763f 5abe 77be
00000070: e25b d93d 77eb 383f fd49 a63d 5bbd 283b
00000080: 8b19 fa3e 3671 973f 389a 94bf e48b 513e
00000090: 4bdf 903f bd46 f13e 59e6 b6be 6273 a93f
000000a0: 1b71 083f ee3d 84bf 72fd ad3c e2f5 9d3f
000000b0: a629 0abe fae6 d03e 6977 bbbe 1490 91bf
000000c0: 2fb3 54bf c476 ee3d 9063 013f d0af 8f3e
000000d0: 475d c5be 5352 df3e c927 4e3f a251 9dbf
000000e0: cb7c 043e 8bbd afbe 6cba 333f 1224 8f3f
000000f0: 4bb8 95be 3563 90be 95fb f43e 70d9 723f
00000100: b980 9d3f 9903 70bf c661 863f 4dcf 74bf
00000110: 0e61 843e 5c8f 55bd 19cc 963f 6f25 febe
00000120: 894e 6fbf 2223 1bbd b3a2 3b3f 6449 8dbf
00000130: c9d1 fbbc 0a77 acbd 3ee1 893f 251d 78be
00000140: 95e9 53bb 4f73 53bf 98ae 26bf 0656 4c3f
00000150: 342c 44bf e5f9 a1be 326f 213e 1e82 253f
00000160: 7fd9 06bf 26fc 943f 61f5 8a3d 6443 27bb
00000170: 5570 10bf 91a8 253f d366 183e bafc 243f
00000180: 033d e43d e11d 87bf c2f7 693f 800e 823f
00000190: d768 9abe efec c53d 5f2f 9a3f 1456 92bf
000001a0: ab7b 453f ff23 a23e f3c7 483f f2ea e13d
000001b0: ed00 0a3e 48cc 193f 0c42 833f ed9d 65bf
000001c0: eff0 f6be 9238 873e d7bb 46bf bdc8 2c3f
000001d0: 69ea 273f 5e44 dabe 3436 5d3f 2240 9ebf
000001e0: 226f 913f e1ce 34be db94 263e b0df de3a
000001f0: 631c fdbe 7dc5 c13e 82a5 d23e 3976 403f
00000200: bcac 29bf 5a58 523d fb28 b73e f7a9 03bf
00000210: 6a7c 36bf 8da6 92bf 711c 2e3f c49a bfbe
00000220: eea5 dd3e 498e 323f 1fb9 f63d 4145 2fbf
00000230: 93d6 acbf 6985 073e 8001 d43e d0a2 bbbe
00000240: cb63 583f 7c88 99bf 5e34 533f 2370 7abf
00000250: e93d 273f 784d cabf eba3 373f 0d46 c5be
00000260: 14d2 9ebe 186f 3ebf 7d3d 043f b433 73bf
00000270: 2a53 263f bdb5 73bf 0b08 6dbf d65b 613f
00000280: bf49 5fbe 2461 0cbf 0da7 4ebf 1854 e7be
00000290: 3e1f f1be e8bd 6dbf 05b3 2bbf 9ff5 e23e
000002a0: 96fb 09bf 22fb 083f 6e2b 81be 6f9f 96bf
000002b0: 13ff 203f 5071 0ebf bbb2 e93e 84a5 693f
000002c0: 5e5b 0abf f946 0c3f 3054 773f 7ff7 ad3e
000002d0: a99e a33f 9578 a03f 3851 84be 2e8a d0be
000002e0: fa8c 043e 05c4 81be a7c7 0dbf a604 efbe
000002f0: 6057 3a3f e736 ea3e 9ef1 31bf 2b8a 783f
00000300: 555e 70be d0b4 00bd 4edb cf3e efec 32bd
00000310: ecb0 2cbf 5ac4 b6bf 43ee 8abf 51a4 8cbf
00000320: 187c 3d3f a7fc 17bf 44d0 bfbe 695f ea3e
00000330: 2b5e 95bf d305 85bf ba9e 0cbf c083 233e
00000340: 502f b23e ca22 38bf 9f88 84be f69e 4bbe
00000350: 8fc7 27bf e4b8 d63e a1a6 99be 194e 7ebc
00000360: 2898 37bf d3d4 c3be 2154 9dbf 6069 aebe
00000370: 2fa7 5e3f dce3 4fbf 2077 2dbf 8ac5 febe
00000380: 1dd5 853f 92a4 5d3f 29ac afbf 51cc b03e
00000390: d74f 35bb 9643 a23e e25a f3be 356c a5be
000003a0: b0df 3ebf 34f9 43bf 7f06 c6bd b4a9 283c
000003b0: 885e bdbe 0f86 97bf 460e 1d3f 501d dfbe
000003c0: 4866 863f d0e9 cc3d b022 55bf aa7b 91bf
000003d0: 6239 7bbe a930 83be 5ee8 dfbe e3f7 b23f
000003e0: 91b0 46bf 5040 23be 8a93 433f f25e e1bd
000003f0: c92e 49bf 1fcd 86bf cfd3 513e 9b57 52bf

encoder.critic_encoder.net.mlp.2.weight f4 [256, 256]
0.22423337 0.052735504 -0.061939884 0.7105856 -0.091329016 0.16164096 0.011153732 -0.38037658
0.14883378 0.014211233 -0.10433612 0.16833584 -0.2528316 -0.53233945 0.29010683 0.059965286
0.5153013 -0.107154675 0.1638038 -0.4266947 0.6837053 0.1934335 -0.19050874 0.026212843
-0.16665393 0.39900628 -0.21157937 0.03396962 0.08927085 -0.30890375 0.41950518 0.2738832
-0.8553819 -0.26991227 0.22506705 -0.42669645 0.6055907 0.3943186 -0.39233854 -0.3021002
-0.055769663 0.0010621606 -0.54784167 -0.4174235 -0.042400073 -0.49400792 -0.14979409 0.00048150792
0.07554149 -0.46803817 -0.14473893 -0.22442512 0.02939104 0.6531932 0.0790121 0.14684944
0.15101478 -0.21207775 -0.5881732 -0.1035647 -0.5796312 0.5738209 0.2929336 -0.102807336
-1.0594307 0.34198096 -0.77246433 0.27376392 -0.21454418 0.15436937 -0.81001 -0.113182545
0.518262 0.11619622 0.07950738 0.16586998 0.02722986 -0.27269676 -0.28983226 -0.08496588
0.68038934 0.34006494 -0.38185763 -1.0355868 0.27897197 -0.12987395 -0.52969307 -0.5011825
0.055011265 -1.0460503 0.33597857 -0.2231776 0.5163009 0.06495063 0.27762285 0.04252157
-0.528337 0.37601534 -0.027293278 -0.4232066 -0.44640088 0.06446949 -0.7487867 0.17764933
0.07435522 -0.16805388 0.43476447 -0.07691977 -0.3702861 -0.19744708 -0.030502835 -0.107938066
0.34455308 0.25743693 0.45874006 -0.016280364 -0.2826233 0.05405423 -0.71129304 1.316501
0.19017664 -0.25236443 -0.15874813 -0.13950431 -0.4234047 -0.32250842 -0.050387025 -0.7687114
-0.32175076 0.612625 -0.5590844 0.2040571 0.122037 -0.19790326 -0.5590684 0.6796188
-0.18352534 0.53507286 0.6168379 0.61795425 -0.08800725 0.0722386 -0.03380671 -0.06906416
-0.3967943 0.13938183 -0.06470217 0.5662207 -0.8125579 0.5386481 0.033756137 -0.30894768
0.17390785 -0.3749102 -0.16034815 0.85586774 0.2750999 -0.21862513 0.25509852 -0.1184362
0.07317319 0.13443758 -0.37067452 -0.24142985 -0.36885235 0.6084064 -0.06563418 -0.11568968
-0.5279937 0.21042891 0.045958895 -0.09116005 0.23454095 -0.19615628 0.43240488 -0.51989466
0.34821206 -0.23045088 0.31096205 0.049134508 -0.26656416 -0.23602472 -0.060098205 -0.039788112
-0.31005558 -0.21418555 0.3902086 0.3095195 -0.11402572 -0.025213024 -0.57040405 -0.0016597483
0.51830363 -0.04071157 -0.12678319 0.106633395 0.47581342 0.11136442 -0.10494766 0.85266465
0.5754099 -0.15336396 -0.25192085 -0.28434193 0.23657787 -0.017710498 0.17513488 0.5982966
-0.23451501 0.54456514 0.22945637 -0.43699753 -0.59631187 0.29477385 0.07656406 0.32081535
-0.29059348 0.33586118 -0.039387934 0.32918766 0.16076554 0.3666813 0.40061805 0.16333988
-0.18990149 -0.23097882 0.25631368 0.11624407 -0.046388358 -1.0374792 -0.31070432 0.15263546
0.34189987 0.5490418 -0.30134735 -0.31501594 -0.035871815 0.2616263 0.16584368 -0.0617407
0.14539628 -0.29297704 0.5798682 0.27526784 -0.13562106 -0.64150447 -0.16787952 -0.388891
0.02426912 -0.07079171 -0.4050629 -0.47578233 -0.23722129 0.12459304 -0.07655838 0.4109826
00000000: 6f9d 653e 2f01 583d adb4 7dbd f0e8 353f
00000010: b50a bbbd 3585 253e 25be 363c b8c0 c2be
00000020: e267 183e 3bd6 683c 2dae d5bd 3b60 2c3e
00000030: 2573 81be 6647 08bf e288 943e 299e 753d
00000040: c9ea 033f e973 dbbd 2fbc 273e ba77 dabe
00000050: 4f07 2f3f 6e13 463e b914 43be 51bc d63c
00000060: 54a7 2abe 8d4a cc3e 43a8 58be ba23 0b3d
00000070: a3d3 b63d a228 9ebe 62c9 d63e 6b3a 8c3e
00000080: 4ffa 5abf f131 8abe fa77 663e f577 dabe
00000090: fe07 1b3f 21e4 c93e 99e0 c8be e1ac 9abe
000000a0: bb6e 64bd 3238 8b3a 5a3f 0cbf 88b8 d5be
000000b0: b3ab 2dbd 9bee fcbe 9f63 19be e672 fc39
000000c0: 7fb5 9a3d b3a2 efbe 7136 14be b3cf 65be
000000d0: 7ac5 f03c ab37 273f 19d1 a13d b35f 163e
000000e0: 9ea3 1a3e e92a 59be 8592 16bf bb19 d4bd
000000f0: b662 14bf ede5 123f 65fb 953e a78c d2bd
00000100: 6d9b 87bf 2118 af3e 39c0 45bf c92a 8c3e
00000110: 78b1 5bbe 0113 1e3e d15c 4fbf 40cc e7bd
00000120: d2ac 043f 49f8 ed3d c4d4 a23d d2d9 293e
00000130: 2811 df3c e99e 8bbe e564 94be 9702 aebd
00000140: ff2d 2e3f fe1c ae3e d882 c3be 1c8e 84bf
00000150: 6ad5 8e3e adfd 04be f799 07bf 7f4d 00bf
00000160: 7e53 613d fae4 85bf 6205 ac3e ab88 64be
00000170: 4c2c 043f d604 853d 9524 8e3e 192b 2e3d
00000180: 1841 07bf 1585 c03e 2796 dfbc 89ae d8be
00000190: a88e e4be 9408 843d 7cb0 3fbf b5e9 353e
000001a0: 8d47 983d 5116 2cbe 7399 de3e 1d88 9dbd
000001b0: 2496 bdbe 912f 4abe 15e1 f9bc a20e ddbd
000001c0: 4369 b03e c6ce 833e fadf ea3e 665e 85bc
000001d0: 00b4 90be f867 5d3d 4d17 36bf 1b83 a83f
000001e0: aabd 423e e935 81be df8e 22be 38da 0ebe
000001f0: 80c8 d8be d31f a5be a062 4ebd 45ca 44bf
00000200: 84bc a4be fed4 1c3f 2820 0fbf 58f4 503e
00000210: 89ee f93d 27a7 4abe 1b1f 0fbf 7ffb 2d3f
00000220: 11ee 3bbe 89fa 083f 17e9 1d3f 4032 1e3f
00000230: 253d b4bd d5f1 933d e878 0abd 8371 8dbd
00000240: 9f28 cbbe 1cba 0e3e 9282 84bd d7f3 103f
00000250: cb03 50bf d8e4 093f e043 0a3d 642e 9ebe
00000260: e614 323e 3bf4 bfbe 4e32 24be 261a 5b3f
00000270: e5d9 8c3e 44df 5fbe 469c 823e ae8e f2bd
00000280: d3db 953d 01aa 093e 0dc9 bdbe 6339 77be
00000290: 37da bcbe 86c0 1b3f 376b 86bd b6ee ecbd
000002a0: 982a 07bf ad7a 573e 653f 3c3d 1fb2 babd
000002b0: 812b 703e 31dd 48be 2c64 dd3e d117 05bf
000002c0: da48 b23e 51fb 6bbe 6b36 9f3e 4441 493d
000002d0: 197b 88be 77b0 71be 8929 76bd dcf8 22bd
000002e0: 9bbf 9ebe 7553 5bbe 6cc9 c73e 5779 9e3e
000002f0: 5186 e9bd 8b8b cebc 0006 12bf e98b d9ba
00000300: 8caf 043f 2dc1 26bd 74d3 01be 9c62 da3d
00000310: d19d f33e 0713 e43d ccee d6bd 3b48 5a3f
00000320: 104e 133f 710b 1dbe c5fb 80be 4495 91be
00000330: 7841 723e 9b15 91bc 8f56 333e f729 193f
00000340: b424 70be 9f68 0b3f 9cf6 6a3e 24be dfbe
00000350: e5a7 18bf 99ec 963e 9ecd 9c3d e941 a43e
00000360: abc8 94be fff5 ab3e 3e55 21bd 498b a83e
00000370: b99f 243e a7bd bb3e cf1d cd3e 9242 273e
00000380: 8975 42be b685 6cbe 8c3b 833e 5f11 ee3d
00000390: b801 3ebd 1ecc 84bf a314 9fbe 784c 1c3e
000003a0: 800d af3e 018e 0c3f 334a 9abe c549 a1be
000003b0: 53ee 12bd e2f3 853e edd2 293e d1e3 7cbd
000003c0: c3e2 143e 1601 96be 3e72 143f e8ef 8c3e
000003d0: 3fe0 0abe a339 24bf 9ce8 2bbe b91c c7be
000003e0: 09d0 c63c 3efb 90bd 6864 cfbe be99 f3be
000003f0: 23ea 72be a32a ff3d a4ca 9cbd 506c d23e

encoder.critic_encoder.net.mlp.2.bias f4 [256]
-0.093235634 -0.15656547 -0.28323153 0.15873574 0.18606016 -0.1343493 0.21088338 -0.22576943
0.15176065 -0.027426656 -0.19790305 0.27416477 -0.17032082 -0.36704907 0.27953893 -0.42295983
-0.04797382 0.1521895 -0.45402393 -0.2616169 0.41851467 0.24799837 -0.13797939 0.2820188
-0.13610959 0.04839678 -0.061494607 -0.5216736 0.074080996 0.0264622 -0.033517852 0.3832604
-0.00030355796 0.128526 -0.29785138 0.17469901 -0.0008657679 -0.4982627 0.2834974 0.18087761
0.22167625 -0.105489984 -0.049024355 0.10692685 0.2170464 0.18170309 -0.06259077 0.041772656
-0.114462405 0.33921692 0.015137769 -0.0827978 -0.29773223 0.25643063 -0.24464051 -0.071828514
0.15243563 0.07342244 0.05451573 0.3308662 -0.010732909 -0.3630693 -0.32020935 0.111698665
0.014498945 -0.14727183 -0.054107353 0.22118726 0.11830685 -0.14353278 0.0832423 -0.007042721
-0.1026223 0.1936011 -0.31841573 0.061706703 0.014992675 0.12941827 0.13731988 0.066360734
0.08801778 0.32124862 0.23005122 -0.44749898 0.054424405 0.14026861 -0.36223608 0.13713802
0.5290828 0.014017033 -0.004860729 -0.104472674 -0.13071062 0.19104323 0.325666 -0.7295052
-0.75975275 -0.12718867 -0.19113559 0.22224021 0.15793401 -0.0026764267 0.010464268 -0.526687
-0.5377937 0.017481402 -0.021953495 -0.39761907 -0.13545516 0.12201149 -0.23001458 0.07178977
0.102553 -0.19723463 -0.039248828 -0.02917416 0.11506684 -0.103736416 0.6649009 -0.14788209
-0.48175415 0.16080299 -0.33658493 -0.25688362 0.3133808 -0.29542857 -0.09975437 0.16816807
0.06951064 0.00026450993 0.24733742 -0.04365619 -0.24283785 -0.015272545 -0.5317104 -0.06464841
-0.26175523 0.08175805 -0.015208815 -0.2010252 -0.27249017 0.32351533 0.5129665 -0.18757406
0.14343672 0.057054732 0.5540059 0.13251607 0.2624921 0.4683261 -0.045513257 -0.1369367
-0.43388265 -0.17468865 -0.112308875 -0.08388059 -0.16255552 0.052909616 0.13205647 -0.28936318
0.5532195 -0.20170045 0.16276826 0.002042148 0.014433746 0.12614289 0.48645768 -0.21029846
0.28804693 0.047861893 0.09045638 -0.16609405 0.14835912 -0.05417213 0.36734828 0.047505327
0.5602278 -0.043272223 0.3233477 0.19595936 -0.0022875394 -0.027952619 -0.20791432 0.2918791
-0.11953139 -0.33149636 0.35731217 -0.21668804 -0.2125429 0.22500318 -0.15294878 0.35942113
-0.018623348 -0.067418665 -0.08358709 0.17270447 -0.29935256 0.6546944 -0.073759 0.068115786
-0.35198745 0.5111428 0.26160327 -0.20159337 -0.40542516 -0.29549152 0.25550574 -0.03611391
-0.16969098 0.11190138 -0.6013597 0.11857259 0.47243276 -0.22922185 -0.17106812 -0.2746779
-0.20132731 0.035126135 0.0538586 -0.22943982 -0.49643397 0.440158 -0.057142682 -0.0031949212
-0.38691983 -0.32234898 0.45255345 -0.22542706 -0.13638352 0.32772848 0.27932706 0.2876773
0.34314007 0.28328693 0.4275732 -0.34914455 0.3234148 0.33959475 0.069689386 0.06918763
-0.07953502 0.6407096 0.13096493 -0.0852391 -0.4695769 0.21931338 -0.49648622 -0.056218397
0.24201784 -0.07649894 0.20657969 0.052616343 -0.44341356 -0.06165006 -0.27528116 0.19510584
00000000: 53f2 bebd b352 20be b903 91be 9f8b 223e
00000010: 8e86 3e3e dd92 09be d0f1 573e 1a30 67be
00000020: 2567 1b3e dead e0bc 19a7 4abe 535f 8c3e
00000030: 9568 2ebe dbed bbbe ba1f 8f3e 318e d8be
00000040: 3280 44bd 90d7 1b3e d375 e8be a6f2 85be
00000050: 8e47 d63e 49f3 7d3e 784a 0dbe c564 903e
00000060: 5060 0bbe b43b 463d c5e1 7bbd 678c 05bf
00000070: c7b7 973d 41c7 d83c 044a 09bd b53a c43e
00000080: dc26 9fb9 529c 033e fa7f 98be 4ce4 323e
00000090: b3f4 62ba 4a1c ffbe 9226 913e fb37 393e
000000a0: 19ff 623e 220b d8bd c3cd 48bd 77fc da3d
000000b0: 6941 5e3e 6010 3a3e 972f 80bd ce19 2b3d
000000c0: 446b eabd d7ad ad3e 6804 783c e591 a9bd
000000d0: 5c70 98be e04a 833e 0b83 7abe d41a 93bd
000000e0: 1618 1c3e 815e 963d e34b 5f3d 4b67 a93e
000000f0: 15d9 2fbc 38e4 b9be 7bf2 a3be 45c2 e43d
00000100: fc8c 6d3c 6dce 16be ac9f 5dbd ea7e 623e
00000110: dd4a f23d 42fa 12be f07a aa3d a0c6 e6bb
00000120: a42b d2bd 5e3f 463e 6307 a3be 2bc0 7c3d
00000130: d6a3 753c 3986 043e 959d 0c3e 23e8 873d
00000140: aa42 b43d b37a a43e 8c92 6b3e 961e e5be
00000150: 20ec 5e3d 93a2 0f3e 0277 b9be e96d 0c3e
00000160: f871 073f b3a7 653c c046 9fbb c5f5 d5bd
00000170: 01d9 05be d6a0 433e b2bd a63e dac0 3abf
00000180: 287f 42bf bf3d 02be 0cb9 43be f092 633e
00000190: 74b9 213e fd66 2fbb 5272 2b3c f6d4 06bf
000001a0: d9ac 09bf 2835 8f3c d1d7 b3bc ba94 cbbe
000001b0: c2b4 0abe 29e1 f93d f188 6bbe 8406 933d
000001c0: 4f07 d23d e0f7 49be 61c3 20bd a6fe eebc
000001d0: 2aa8 eb3d c273 d4bd f236 2a3f 676e 17be
000001e0: 7ba8 f6be 8aa9 243e dc54 acbe 4086 83be
000001f0: 7373 a03e 6a42 97be 054c ccbd 4034 2c3e
00000200: 985b 8e3d ecad 8a39 0546 7d3e d5d0 32bd
00000210: 7caa 78be b239 7abc 2c1e 08bf 6366 84bd
00000220: c804 86be c470 a73d 652e 79bc 8dd9 4dbe
00000230: d583 8bbe cda3 a53e c651 033f 6a13 40be
00000240: 13e1 123e 39b2 693d 55d3 0d3f 4bb2 073e
00000250: 5d65 863e 70c8 ef3e 1c6c 3abd 2239 0cbe
00000260: de25 debe 95e1 32be 3202 e6bd 96c9 abbd
00000270: f474 26be c1b7 583d d039 073e 6927 94be
00000280: cb9f 0d3f 908a 4ebe b9ac 263e 8fd5 053b
00000290: 857b 6c3c 9a2b 013e fb10 f93e 7b58 57be
000002a0: e37a 933e d50a 443d 3241 b93d 8f14 2abe
000002b0: 74eb 173e 98e3 5dbd 1315 bc3e f294 423d
000002c0: 176b 0f3f 373e 31bd d48d a53e 92a9 483e
000002d0: 8bea 15bb e4fc e4bc 7ee7 54be 2d71 953e
000002e0: e0cc f4bd e4b9 a9be 9ff1 b63e 78e3 5dbe
000002f0: d9a4 59be 3c67 663e 9b9e 1cbe 0c06 b83e
00000300: fe8f 98bc cc12 8abd b52f abbd 71d9 303e
00000310: bd44 99be 0d9a 273f f50e 97bd 4a80 8b3d
00000320: b337 b4be 41da 023f ddf0 853e 7e6e 4ebe
00000330: e393 cfbe aa4a 97be a6d1 823e 2eec 13bd
00000340: 79c3 2dbe 8d2c e53d b6f2 19bf 30d6 f23d
00000350: b5e2 f13e 22b9 6abe 7b2c 2fbe 95a2 8cbe
00000360: bf28 4ebe 6ce0 0f3d d69a 5c3d 46f2 6abe
00000370: 982c febe 645c e13e 720e 6abd e261 51bb
00000380: 5b1a c6be ed0a a5be 16b5 e73e 5ad6 66be
00000390: 1fa8 0bbe 07cc a73e f503 8f3e 704a 933e
000003a0: 0eb0 af3e fc0a 913e e0ea da3e 13c3 b2be
000003b0: a096 a53e 5ddf ad3e 4fb9 8e3d 3fb2 8d3d
000003c0: 42e3 a2bd 8b05 243f ac1b 063e d691 aebd
000003d0: 626c f0be b093 603e 7133 febe 4345 66bd
000003e0: 86d3 773e 7aab 9cbd a089 533e 3c84 573d
000003f0: 1a07 e3be c684 7cbd a7f1 8cbe d3c9 473e
