src/checkpoints/ppo_best_checkpoint/learner/module_state/adversary_2/module_state_dir/module_state.pt (torch, 655490 bytes, 11 tensors)

encoder.actor_encoder.net.mlp.0.weight f4 [256, 54]
00000000: ec55 323c f072 a8bd 7025 8ebd 6728 bbbd
00000010: a26a 153b b886 983c 67c9 99bd 3434 da3d
00000020: f010 db3d 1224 aabd 53c9 e13c b48f b5bd
00000030: 7671 473d 614a a23d 7533 debb c227 7fbd
00000040: b66e a8ba bc73 75bc 7de8 b3bc eb84 bf3c
00000050: de2c 2cbd e5d9 4a3c 6b73 5abd f8d8 bebc
00000060: cea6 e33c 3493 81bd f992 47bd f47d dcbb
00000070: d2dd 6d3c 7003 0ebe 7263 ca3d c339 ccbd
00000080: e21a 103e 0e00 39bd d73a 863e 6361 afbd
00000090: 5f20 563d 63ea 81be 2c6d 8d3d 0cdf d5bd
000000a0: 4e47 123c 2759 09be b5ea 873d 4453 d2bd
000000b0: 4f1f e2bd 0da1 363d ddc1 f6bd bbbf 863d
000000c0: 22ba 48bd b6b1 fd3b 68ed 423e eba4 29be
000000d0: f466 403e 3edf 33be a3b9 603e d8a1 e6bd
000000e0: 3e6a c0bd bd86 0dbe f383 963d 4e2b 053e
000000f0: d938 21bc fa62 523c 08ff 13be 2d2b 023e
00000100: 7442 d73c 5531 02be ddde f63d 8b80 903d
00000110: bef7 b73d 6173 70be 6733 433d ccd4 5bbb
00000120: 295e f8bc 3170 07be d802 643d cd54 303d
00000130: 1c67 06be 6de5 9ebd 5111 36bc 6343 dcb9
00000140: 1eee a6bd 4c0f f8bc aca5 f23d 5a18 d1bd
00000150: adf7 01bd 572d 0c3c f3a5 503e fa74 45bd
00000160: 1363 e23d 308f 283e 71f7 86bd ac9b d43d
00000170: 38cd e6bd d6bb 043d 3d71 f9bd ce70 93bd
00000180: 7006 2e3d d641 a23d 6049 d7bd 4fb6 8cbd
00000190: 0c01 083e 7bd2 15bd 8c19 9e3d ea68 48bd
000001a0: 22a8 c2bd 32de 97bd 7d5f 9bbe e087 82bd
000001b0: 3216 27bd faf4 c93d a319 b53d 19e0 bebc
000001c0: f20c 9f3d b670 c3bd 3d0f 933d 97e1 37bd
000001d0: bca8 183b d5fb 403d 692c 313a 98a8 cbbd
000001e0: 4e61 8abd f5ba a3bd 02a5 5a3d 749c 53bd
000001f0: 98a5 613d 66e4 1ebd dc19 f73d 5bc4 1ebd
00000200: abd4 113d 25bf a43d 69ba eabd 4ebf d83d
00000210: d3ae a4bb f716 583d 5682 913c 174f 773d
00000220: 8266 843d 6d6b 2f3d 6988 d9bd 64be e93d
00000230: 8c6c 4e3c dea4 eb3c 7a1c 9a3e 8238 8dbe
00000240: 3f6f 063e c0a4 a8bc 4e89 e6bd 1d6e 593d
00000250: b3a6 d3bc 5ab3 24bd c0f1 9fbd 9ec9 993b
00000260: 49ba ac3d be2a 79bc 48c8 d63d f6a7 fcbc
00000270: 3857 273d 47b1 2a3d 98c1 29be 166b c43d
00000280: d907 a2bc 0db8 d1bd 3e4f aa3c 9e74 bcbc
00000290: 2089 073d fd84 e9bd 937e f4bd ad75 403d
000002a0: 0ab6 0ebe 014b 063e f514 70bd 7977 96bd
000002b0: 574d 903c 578a cdbc 5f7d b63d 0bb3 c93d
000002c0: 0715 33be 5db2 d9bc e8d6 14be dd62 4abe
000002d0: 5deb 1b3e 8b06 ed3d 3efb d23d e154 aabc
000002e0: d438 b73d b6b2 983d d89a 983d d1db f2bc
000002f0: fca6 aabc e690 f53d 70b8 febd 7c18 e9bd
00000300: 59db d3bc 213c bfbd 04b7 55be 999b 873d
00000310: cf37 f43d ff30 2abd e197 763e d77b 383d
00000320: a7b0 43bd c196 f63d bc1e 4abd e268 c3bc
00000330: 967d e43d 9f19 b0bd 6d91 263d e938 ccbd
00000340: 10e2 653d 60e3 01be 516c 933d 6fa2 e33d
00000350: 8a5c 0d3d 8498 e8bb 4506 013e 6291 d03d
00000360: c431 853e 031e 0fbe 83a1 f43c b030 06be
00000370: 1b99 243d 265f fb3d 27fb 4f3d d34c 2d3d
00000380: 0b19 d13d 4153 e53d 6ea8 99bd 17f7 9fbd
00000390: 5cfc f7bd ed20 3cbd 0131 85be 2454 8cbd
000003a0: 67d1 0a3e 8990 493d 531f 693d 1c8a 31bd
000003b0: c7e0 5b3d 4246 0b3d 3a45 f23c 8463 303d
000003c0: 2c46 a73d b708 1bbd 61ad 13bd a8e6 e4bd
000003d0: b038 0e3c 5b1e a3bb 6bd9 cdbd 19a7 a9bd
000003e0: 8edc 2abe c875 a83d 8310 5d3e 85a2 a23d
000003f0: 662b af3d 1d33 84bd 0944 ed3d 03b2 cb3d
0.010884743 -0.082250476 -0.069407344 -0.091385655 0.0022799154 0.018618926 -0.075091176 0.10654488
0.1069659 -0.08307661 0.02756182 -0.088653 0.04869219 0.07924343 -0.0067810365 -0.062293775
-0.0012850377 -0.0149812065 -0.021961445 0.02337881 -0.042034976 0.012381052 -0.053332727 -0.023296818
0.0277895 -0.06326905 -0.04872415 -0.006728882 0.014518218 -0.13868499 0.09882249 -0.09971955
0.14072755 -0.045166068 0.26216766 -0.08563497 0.052276965 -0.25374135 0.069055885 -0.104429334
0.008928133 -0.13412915 0.06636564 -0.10269788 -0.11041128 0.044587184 -0.12048695 0.065795384
-0.049005635 0.007742132 0.19035876 -0.16566817 0.18789274 -0.17565629 0.21945815 -0.11261338
-0.09395264 -0.1382093 0.07349386 0.130048 -0.009840214 0.012840981 -0.14452755 0.12711783
0.026276805 -0.12714131 0.120542265 0.070557676 0.089828 -0.23481514 0.047656443 -0.0033543585
-0.030318337 -0.13226391 0.055666775 0.043049622 -0.1312527 -0.07758603 -0.011112527 -0.00042011877
-0.08150886 -0.030280732 0.11848006 -0.10209723 -0.031730343 0.008555732 0.20375805 -0.04820726
0.11054053 0.16460872 -0.065901645 0.103812546 -0.11269611 0.032405697 -0.121798016 -0.0719925
0.042486608 0.079227135 -0.10512042 -0.0687071 0.1328165 -0.036577683 0.077197164 -0.04892818
-0.09504725 -0.07415427 -0.3034629 -0.06373572 -0.04079265 0.09861179 0.088427804 -0.023300217
0.07766141 -0.09542982 0.07180641 -0.044892874 0.0023293933 0.047115166 0.0006758632 -0.09944266
-0.06756841 -0.079946436 0.05338002 -0.051662877 0.055089563 -0.038792036 0.12065479 -0.038761478
0.035603207 0.080442704 -0.11461336 0.105833635 -0.0050257235 0.052756276 0.017762344 0.06037816
0.06464864 0.04282706 -0.10621721 0.11413267 0.012599122 0.028765138 0.3009985 -0.27582175
0.13128375 -0.020586371 -0.112566575 0.053083528 -0.025836324 -0.040210105 -0.07809782 0.004693224
0.084339686 -0.015207944 0.10487419 -0.030841809 0.040854663 0.04167297 -0.16577756 0.095907375
-0.019779133 -0.10240183 0.020789739 -0.023004826 0.033089757 -0.114023186 -0.119382046 0.046987224
-0.1393663 0.13114549 -0.058613736 -0.07347006 0.017615004 -0.02509038 0.089106314 0.09848603
-0.1748849 -0.026574308 -0.14535105 -0.19764276 0.15226503 0.115735136 0.10301827 -0.020792427
0.08946386 0.074559614 0.07451409 -0.029645832 -0.020831577 0.11990528 -0.124375224 -0.11381623
-0.025861429 -0.093376406 -0.20870596 0.06621475 0.11924707 -0.041550633 0.24081375 0.045039978
-0.04777589 0.12040473 -0.049345717 -0.023853723 0.11156766 -0.08598637 0.040666033 -0.09971792
0.056123793 -0.12684393 0.07198394 0.11114966 0.03451208 -0.0070982594 0.12600048 0.101839796
0.2601453 -0.13976292 0.029862171 -0.1310451 0.040185075 0.122740075 0.050776627 0.042309593
0.10209855 0.1119752 -0.075028285 -0.078108005 -0.121086806 -0.045929838 -0.2601395 -0.06851986
0.13556443 0.049210105 0.05691464 -0.043344602 0.05368116 0.03400255 0.029574025 0.043063655
0.08167681 -0.037850108 -0.03605402 -0.11176807 0.008680508 -0.004977984 -0.10051235 -0.082838245
-0.16685697 0.0822559 0.2158833 0.079411544 0.085531995 -0.064550616 0.11585242 0.099460624

encoder.actor_encoder.net.mlp.0.bias f4 [256]
00000000: ca2a e8bd 1f57 a3bd b0f5 d8bd bf96 0dbe
00000010: 90c9 32bd 6c26 473e fb0f 35be ec36 073e
00000020: bf4f e8bd 7d37 87bb 98da 243e 9f94 4c3e
00000030: 2a03 20be f028 fd3c ab82 8a3d 3237 c5bd
00000040: f36d cdbd c28e 1e3b 6eb0 203e 23af a3bd
00000050: 2d01 e03d 7f1c 763c 9bb5 0abc 0f75 9abd
00000060: 2490 80bb 2301 0fbe 6f38 26be 2347 03be
00000070: fec3 3a3e 7dd1 a73c 00c3 df3d 633d 9abc
00000080: de2c 2abe 50dd 063d 646d c0bd 8ff3 813d
00000090: 620f 1bbe bb49 3a3e c34f 643d 1adb bbbd
000000a0: e1a7 8e3c 7758 453d af4d 913d 6c3e 13be
000000b0: 210c 5ebd 8dfd eb3c e727 c33d eafc c3bc
000000c0: 9e5c 21be bdbe bebb 3586 323d 585d 1f3d
000000d0: 4fb9 b4bd bdc3 1f3d 38e7 cbbd e185 bdbd
000000e0: fb38 74bd f771 4d3d 82f4 36be a46e d23d
000000f0: 2463 5a3d 3d5c 983d fadd cdbd 79d0 bdbd
00000100: 4fe3 46bd 5afe 0d3e 5a34 25bb 7634 1bbe
00000110: 4f96 423d d83e 3e3e 8d4e e93d 74d7 49be
00000120: 88d0 233c 6842 233d e1fd 07bd 1bf8 7bbd
00000130: 0ef4 0bbe 02ea 803c 8434 aa3b 74e5 1ebd
00000140: 18e6 65be 3ea3 6c3e 36c8 c93d 26a2 0ebe
00000150: dd22 2e3e c82c 133d 2541 f93d 0d91 96bd
00000160: cb5b c9bd b744 41be 9a3e 023e 9398 353e
00000170: 60b7 00be f23b 2abd c4df 0abe c967 143e
00000180: 1905 133e b4f9 d73d 4621 453e 2130 c63d
00000190: a419 123e e8a4 793b 03f1 fabd d95b d23c
000001a0: 1d0f fabc 15d6 ad3d 39f2 d4bb 70d0 103d
000001b0: 15c2 3d3e ff5f ebbd 3356 fcbd dc66 143e
000001c0: 4573 16be dc52 99bc 8b93 8d3c fc79 5f3e
000001d0: b86a e13d b501 4e3d df13 71be 7a18 07be
000001e0: b639 4fbd 4f18 163d f868 03be a5df 27be
000001f0: 48f4 20bd a47e 4a3c 4422 fabd c2cb b9bc
00000200: 9e6e 9dbd 22e3 ea3d 09fa 143e d3d7 9cbe
00000210: 2e55 bebd a0b8 023e f20f 17bd 9c99 333d
00000220: f14d dfbc fbf5 eabd 9e5a 8e3d 4780 0bbe
00000230: 4796 edbd c8bd 11bd 060d ebbd 11f7 51bd
00000240: 9f41 bf3d 463b f2bd c8fe 1abe a483 dfbd
00000250: 3ec7 173e 2d0c f33d 1830 1b3e a163 9abd
00000260: dc06 f2bd 4956 a63c 37b9 50be f931 063e
00000270: 1450 50bb 8904 363e e8eb 293c a61a 863e
00000280: e942 a93d 3577 37be 64fe 0a3d a505 b5bd
00000290: 2794 c43d 6011 733e 10e6 103e 3854 f4bd
000002a0: f48e ac3d 64d6 0e3e 6ce9 cfbd 6f45 5a3e
000002b0: 8499 7cbd fce6 49bd 046c 1d3e 92d0 1c3d
000002c0: 02e1 13be d9af aebc 2542 1cbe d906 b7bd
000002d0: 8fdd d9bd 62df 703e c778 303e 2032 d63d
000002e0: 34d4 4cbe c7ae 35bd 2266 17be c94c 953d
000002f0: d43b 823c b767 75bd 5ec1 cfbc c104 2abe
00000300: b155 e33d bf2c 16be be39 ae3d bd7a 44bd
00000310: b097 003e 6236 0fbe 0d3c 413e e82f 0f3e
00000320: 0eec a1bc 487a f93d 1465 87bb 682f 2b3e
00000330: d859 2bbe 9dd8 84bd 36d3 733a 9d68 10be
00000340: b8bc c03a 1603 463b 9f18 4ebe 8cd1 4dbc
00000350: b6e4 403c 81c0 2bbe 3c3e 89be e0b9 363d
00000360: 2617 c03b 6e7b 173d 98f9 da3c a388 373e
00000370: bac6 2d3e 44b4 4fbd 008d 953d 63e3 863d
00000380: 677e 3e3e 3357 87be 4051 8dbd 4fdb 893c
00000390: 98e1 173e a927 90bd ecb6 e1bd 4402 d0bc
000003a0: 8ce0 3b3e 707e 4abc 0edc 15be bb60 c13c
000003b0: 0c55 5b3d a031 a23e b9b1 a1bd 74a0 273e
000003c0: 0e2b 10be 6b6c e3bd 7a5c b2bd 13b7 01bd
000003d0: 4cd5 bd3d 34db d1bc b1c0 f23d c48c 913d
000003e0: 810d a7bc b156 c7bd bc9a 10be cac4 19bb
000003f0: 8c69 fcbd 3c13 66bd 4d7b 943c 7e43 983d
-0.11336286 -0.079756014 -0.10593736 -0.13827036 -0.043649256 0.1944825 -0.17681877 0.13204545
-0.11343335 -0.0041264878 0.16099012 0.1997857 -0.15626207 0.03090331 0.06763204 -0.09629668
-0.10030737 0.0024193977 0.15692303 -0.07992389 0.10937724 0.015021442 -0.00846615 -0.075418584
-0.003923433 -0.13965277 -0.16232465 -0.12820105 0.18238828 0.020485634 0.10925865 -0.0188281
-0.16618678 0.032925904 -0.093958646 0.06345283 -0.15142587 0.18192188 0.05574013 -0.0917265
0.017414035 0.04818007 0.07094895 -0.14379281 -0.054210786 0.028807426 0.09529095 -0.02392431
-0.15757987 -0.0058210776 0.04358502 0.03890738 -0.08824407 0.03900503 -0.09956211 -0.09254051
-0.059624653 0.050157513 -0.1786671 0.10275009 0.053317204 0.07439468 -0.10052104 -0.09268279
-0.048556622 0.13866559 -0.0025208206 -0.15156731 0.047506627 0.1857866 0.113919355 -0.19711095
0.009998448 0.03985825 -0.033201102 -0.06151591 -0.13667318 0.015736584 0.0051942486 -0.038793042
-0.22451055 0.23109147 0.0985264 -0.13929042 0.17005487 0.03593138 0.121706285 -0.07351885
-0.09831961 -0.18873869 0.12719193 0.17733984 -0.12569952 -0.041561075 -0.13561922 0.14492716
0.14357413 0.10545674 0.19250974 0.096771486 0.14267594 0.0038092677 -0.122530006 0.025678562
-0.030524785 0.084880985 -0.0064986018 0.03535503 0.18531068 -0.11492919 -0.12321129 0.14492363
-0.1469241 -0.018716268 0.017282268 0.21823877 0.11006683 0.050294597 -0.23542736 -0.13192931
-0.050592147 0.036644276 -0.12833011 -0.16393907 -0.039295465 0.012359295 -0.12213567 -0.022680167
-0.07687114 0.114691034 0.14548506 -0.3063341 -0.092935905 0.12765741 -0.03688044 0.043847665
-0.027258845 -0.11472698 0.069508776 -0.13623153 -0.11600929 -0.03558138 -0.114770934 -0.05126101
0.09338688 -0.11827712 -0.15136254 -0.1091378 0.14822099 0.11867557 0.15155065 -0.07538534
-0.118177146 0.020304816 -0.20383154 0.13105 -0.0031786012 0.17775168 0.010371186 0.26192206
0.08264715 -0.17916568 0.033934012 -0.08838967 0.0959857 0.23737097 0.14150262 -0.11930126
0.08425704 0.13948971 -0.101519436 0.2131555 -0.06166984 -0.04929255 0.15373236 0.038284846
-0.14441302 -0.021324085 -0.15259607 -0.08936853 -0.10637962 0.23522714 0.17233573 0.10458779
-0.20002824 -0.044356134 -0.14785054 0.07290036 0.015897669 -0.059913363 -0.02536076 -0.16603376
0.11100329 -0.14665507 0.08507107 -0.047968615 0.12557864 -0.13985589 0.18870564 0.13983119
-0.01976588 0.121815264 -0.0041319225 0.16717303 -0.16733491 -0.06486628 0.0009301187 -0.14102407
0.001470468 0.0030214242 -0.2012658 -0.012562167 0.011773279 -0.16772653 -0.26805294 0.044610858
0.0058621345 0.036982946 0.026730344 0.17923217 0.1697034 -0.050709024 0.07302284 0.06586339
0.18602906 -0.26433715 -0.06900263 0.016828207 0.14832151 -0.070388146 -0.11021218 -0.025391705
0.18347377 -0.012359247 -0.14634725 0.023605695 0.053547904 0.31678486 -0.07895226 0.16369802
-0.14078924 -0.111046635 -0.08709045 -0.031668734 0.09269199 -0.02561722 0.11853159 0.07106927
-0.020392181 -0.09733332 -0.14121526 -0.0023463243 -0.12324819 -0.056170687 0.0181252 0.07434748

encoder.actor_encoder.net.mlp.2.weight f4 [256, 256]
00000000: 03a5 6ebd 0403 51bc 5d31 02bd 684f 5abd
00000010: e9d1 37bd 72b5 913d 24ba d23c f122 3f3d
00000020: f1f1 a6bd 7509 8a3d d5d0 5f3c a22e ab3c
00000030: a663 7d3c 4b92 cf3c 5a28 ebbd 23a9 363d
00000040: 0de6 efbc c9b1 6a3d 4ef8 33bd 1c96 b1bd
00000050: e0d1 8b3d 310e 483d dd64 65bd 8184 44bd
00000060: ec69 da3b d944 a53a 9220 2bbd 84c9 b0ba
00000070: 18b4 7a3d f325 863b 16b4 7e3d ade7 27bd
00000080: 7e21 1f3d 66cf 4cbd 1189 2b3d 75f5 a53d
00000090: 661e 363c 53cf 983d f893 c03c 2603 8ebc
000000a0: 74bc a6bc d175 7c3b bb4d 443d 9799 47bd
000000b0: ae55 733d 887e 9cbd 3c04 b5bc b408 4ebc
000000c0: 9be0 89bc 89c2 78bd 28b2 213d 26a8 38bd
000000d0: 36de b93c 73cf 503d 39ca 863a b64e 163d
000000e0: f7fd 643d ee4d cfbd 9149 5dbd c3b9 26bd
000000f0: 07d7 82bd 677e 163b 2a2a 0bbc dc85 47bd
00000100: 35fd e93d 1f5c 443d 5326 5aba b28e c3bd
00000110: 10b8 bc3c 9bc4 4dbd c7ec 16bd c584 f23b
00000120: 452f ca3d 52b8 f43c 01e8 fb3c e5c0 943b
00000130: 1386 ffbc 0d01 3e3a 8b6a 9c3d f2e8 d13b
00000140: 90f6 0e3d 211e bebc 8822 54bd 64af 00bd
00000150: 9492 6d3d 5486 773b 0a11 743d 8879 bb3d
00000160: 1d34 d83d 0861 24bd d58b 4b3d 3307 cb3c
00000170: 7790 0f3d a0eb b7bd 4809 e43c 0dd4 28bd
00000180: b561 033c ec3a b3bc a43d 98bb 7709 4dbd
00000190: 1724 a1bd ae6d bbbc 646c a6bc 79d5 a53c
000001a0: 7e6b fd3c 1fe5 433d 20a9 c8bc 5cec e03c
000001b0: 262c f43c 1d67 303d 669e 3a3c b375 903c
000001c0: 06a2 4abd 93bd d5bb b988 6fbc 3d65 a3bc
000001d0: b478 4a3d eab8 863d 0a30 0a3d 9356 cabd
000001e0: ed64 703d f477 753c 58d6 143c 9c42 b73c
000001f0: 3091 35bc 9eed 4c3d 9719 bebc e943 17bd
00000200: 18ac debc f21b 03bd aa93 a2bd 05eb 88bc
00000210: d4eb 80bc fd90 d13c 627b 02bc 8545 97bd
00000220: 316c 9abd 25d9 fd3c de8c 48bd 4441 293b
00000230: 0cf7 283c 718d 393c 95c2 503d a6d7 b13c
00000240: 9a37 32bc 9849 c3bc 4f7c 773d 191f 01bd
00000250: 2d52 84bc cb06 4bbd 2fda dd3b 1d80 ac3d
00000260: 9bed 7bbd 35d9 5c3d 0407 003d 6f83 733c
00000270: 92dd 073d fec2 803c 9b4a a7bb 0b69 263d
00000280: 2ef2 a7bc 1daf 19bd 909e 9ebc 91fc 86bd
00000290: 0cdf 9b3d 6c52 b53c e39a babc 55ab 82bd
000002a0: 6b2b f73c 70b7 26bb e3ab 463d 163a 82bd
000002b0: 7eb0 8cbd fbcd c9bc f752 883b a71a 8dbd
000002c0: d6c4 763d 0e7c 7abd ca86 b3bc 7817 8abc
000002d0: 7c31 773d 23d4 2fbc ce63 843d ddbe f73c
000002e0: da9b 5fbd 8bf7 503c 544e c2bd 4d9f acbd
000002f0: f4e4 16bd 6f15 a73d 1971 9cbd 7883 94bd
00000300: 6721 43bd 28e6 92bc 0921 2b3c e4e6 f83c
00000310: 8e35 19bd 71f7 32bd c63a 103c 3d68 1d3b
00000320: bc2f 3cbc e4e0 c8bd d8bd 463d 702e b7bc
00000330: c1e8 aabd 0a71 febc 7a3b bd3c df29 e5bc
00000340: 2e34 983d b652 57bd d834 073c b128 8bbc
00000350: c464 0cbd 7914 4abc 2170 ba3b 0977 d5bc
00000360: 1664 7eba 425e 3a3d 690e aabc 8c8b 453c
00000370: 422d a13d 62e7 7a3d 11c9 69bd bfc6 2f3a
00000380: 163b df3c 5983 123d 54ad a8bd 4219 253c
00000390: faf6 e8bc b73e a5bb 1c12 4fbd 7504 62bd
000003a0: d8d6 703d 239b 64bd 6432 e13c 63a4 a0bc
000003b0: 84db 253d 9775 823d 2b1a 1ebd e3ff 9ebc
000003c0: f3f5 8f3d 4449 8e3d 38d3 18bd e3a5 60bc
000003d0: 8605 60bd f3ff 033d c6a6 a63d a0ea 9ebc
000003e0: bf0a 62bd a8cf 0ebd ee05 93bd 570d 1ebc
000003f0: cf10 e6bb 3cf1 153d 73e7 653c 157c 5f3d
-0.058262836 -0.012757067 -0.031785358 -0.053298384 -0.04487792 0.07114686 0.025723524 0.046664182
-0.081516154 0.06740085 0.013660629 0.02089626 0.015465653 0.025338313 -0.11482306 0.044594895
-0.029284501 0.057298455 -0.043937974 -0.08671209 0.0682714 0.04884166 -0.056004394 -0.047977928
0.006665459 0.0012609019 -0.04177911 -0.0013487791 0.061206907 0.0040938794 0.062183462 -0.040992428
0.0388503 -0.050002478 0.041878764 0.08103458 0.011115646 0.07461419 0.023508057 -0.017335486
-0.020353533 0.0038522372 0.047925692 -0.04873046 0.059407882 -0.076413214 -0.022096746 -0.012575317
-0.016830733 -0.0607324 0.039476544 -0.045082234 0.022688966 0.05097909 0.0010283656 0.03669616
0.055906262 -0.10122286 -0.054025237 -0.0407045 -0.063886695 0.0022963525 -0.008493939 -0.048711643
0.114252485 0.047939416 -0.0008321751 -0.09548701 0.023036987 -0.050236326 -0.036846902 0.0074010813
0.09872297 0.029873047 0.030750277 0.0045395964 -0.031191861 0.00072480814 0.07637509 0.006405943
0.03490311 -0.023207726 -0.051790744 -0.031417266 0.058001116 0.0037769275 0.059586562 0.091540396
0.10556815 -0.0401316 0.0496939 0.024783706 0.03504988 -0.08980489 0.027836457 -0.041217852
0.008018901 -0.021878682 -0.00464602 -0.050057855 -0.07868212 -0.022879448 -0.020315357 0.020243393
0.030935045 0.04782593 -0.024494708 0.027456455 0.029806208 0.043067086 0.011390304 0.017634248
-0.049470924 -0.006522843 -0.01462 -0.019945735 0.049431518 0.06578238 0.03373722 -0.09879794
0.05869 0.014982212 0.009084307 0.022370629 -0.011081979 0.050031297 -0.023205562 -0.03693
-0.02718167 -0.032009073 -0.07938321 -0.016713629 -0.015737452 0.025581831 -0.007963987 -0.07386307
-0.07540167 0.030987332 -0.048962466 0.0025826255 0.010312807 0.011325226 0.050966818 0.021709275
-0.010877514 -0.023838803 0.060421284 -0.031523798 -0.016152466 -0.049567025 0.0067703943 0.08422873
-0.061505895 0.053918082 0.03125669 0.014862879 0.03317029 0.01571798 -0.005105329 0.04062752
-0.020501222 -0.037520517 -0.019362718 -0.06591142 0.07610902 0.022134028 -0.022778934 -0.06380335
0.03017207 -0.0025438927 0.048503768 -0.06358735 -0.06869601 -0.024634352 0.004160281 -0.06889849
0.06024631 -0.061153464 -0.021914858 -0.016856894 0.060349926 -0.01073173 0.06464349 0.030242378
-0.05459199 0.012754331 -0.09487596 -0.08428822 -0.03683944 0.08158385 -0.07638759 -0.07251638
-0.047639277 -0.017932013 0.010444888 0.030383535 -0.03740459 -0.04369301 0.008803075 0.002401843
-0.01148599 -0.098085195 0.048520893 -0.02236101 -0.083451755 -0.03105976 0.02309965 -0.027974067
0.074318275 -0.052569114 0.008252345 -0.016987177 -0.034275785 -0.012333983 0.0056896363 -0.026057737
-0.0009704245 0.045500048 -0.020758824 0.012057196 0.0786996 0.06125582 -0.057076517 0.00067053357
0.027249854 0.035769794 -0.08236185 0.010076823 -0.02843808 -0.0050428766 -0.05055438 -0.05518003
0.05879864 -0.055812012 0.027489848 -0.019609636 0.04049255 0.06370085 -0.038599174 -0.019409126
0.07029333 0.06947568 -0.03731081 -0.0137114255 -0.054692768 0.032226514 0.08137278 -0.019398987
-0.05518603 -0.034866005 -0.071788654 -0.009646735 -0.0070210467 0.036607012 0.014032233 0.054561693

encoder.actor_encoder.net.mlp.2.bias f4 [256]
00000000: 47b4 2f3d fba3 9dbd aca1 82bd 8f29 68bd
00000010: c2f5 833d 0577 6cbd 9de1 cb3d a386 abbd
00000020: f56c 813d eaa3 5cbd 4444 5cbd bd43 8f3d
00000030: 3114 02bd cfe1 0abd 7dbe df3c 5535 493c
00000040: 1f37 92bd 551f 173d 1a74 903c 8c0a d53c
00000050: 59b9 0a3d 586d acbd ffb9 c6bd dd30 56bd
00000060: 986b 293c 163f 333d 6b96 31bd 1483 643c
00000070: 9e45 5dbd ad44 83bc ba2f 0bbd 4e82 83bc
00000080: 5dc3 223d 86d4 043c ed0e dd3c 55ec 8f3d
00000090: 26e3 31bd 9b7d 6e3d 69f3 ca3d 8f8f 20bd
000000a0: 708d 803d e47f 97bb 3745 293c 6e91 353d
000000b0: b567 493d 3817 1ebd 1eb0 883c bc0e 27bc
000000c0: 348a 6cbd e1be 0a3a 4cfa e1bc fd5b 1f3d
000000d0: 3dcc 88bc 9681 113e 9abe 4d3d 4a64 6d3c
000000e0: 79c4 713d a54c abbd b465 24bd 5225 39bd
000000f0: 7b67 1ebc a477 c83c 084d e9bc 7969 723c
00000100: 8665 45bd 8852 95bd bdb9 3139 a6a7 fc3c
00000110: 63a1 b83c 5489 24bd af0b 00bd d276 c03c
00000120: 8c4d 053d 5771 ffbc 5169 113d 5525 983a
00000130: 8b04 813d 210a f9bc 92d1 87ba 2fad 37bd
00000140: a4a0 64bd 7daf fc3d c69d 9e3d 683c 483d
00000150: 66a3 813d 5911 26bd c9f0 1bbd 8a9e f73b
00000160: 1add b03c b8ff 263d f63a 3bbd 73a4 0bbd
00000170: 711d c53d c943 2d3d 5392 2c3d 7d38 f63d
00000180: cb39 a6bd 3445 893d 59f1 0dbd b82b be3c
00000190: 058a 283c 97fa ffbb 6032 26bc 605d 16bd
000001a0: f718 80bc 5760 c53d 1057 3cbc 62b0 123e
000001b0: 6467 fdbc 3458 923c 6506 6fbc 6e07 c5bc
000001c0: d4c8 67bd 90bf 1cbd e226 65bc e95b 973b
000001d0: 1821 32bc 80d1 5f3a 773b 4abb 7beb 373c
000001e0: e856 b03d a622 903c 8a7a 413d 8e1a 15bc
000001f0: f938 113d 1dfc 803d d3b5 283d 85c9 59bd
00000200: 9dc7 a9bb 004b f73d c014 c23b 4e45 9cbb
00000210: 2e97 ccbd d06a 4f3d 5de3 71bd 7cd2 bfbb
00000220: 30ac aabc c7a6 d93c b29b 813c 47fd 76bd
00000230: 669d 36bd 2baf 4f3d dea3 6ebc 5853 273d
00000240: 85de a9bd 2aa8 bfbd ed16 553d 53e6 4f3d
00000250: 35ab ce3b 1c3f 98bc d8b8 383d 4708 8f3d
00000260: 894a 903c efd9 34bd e653 65bd 313e 563c
00000270: f4f1 56bd b9ba dd3d 53bc df3c ec96 09bd
00000280: b4a5 76bd ce41 c53d 1062 e8bc 629c b8bc
00000290: a8d8 a4bb 09da 18bd 8919 a93c dfe5 ebbd
000002a0: 9ab6 30bd 36bd dbbd b595 893d 7efd 43bd
000002b0: dde4 503d c6ca 02be 1c2e 273d 0248 6cbd
000002c0: 1701 8a3c 161b 73bc 44da 84bc 19c9 4fbd
000002d0: a948 443d 44c3 20bd 22b1 0abd 13b8 62bd
000002e0: 0f4c 4fbd fe89 6c3d 59fc 86bd d056 08bc
000002f0: 697e 54bd 30e5 88bd a238 22bc 2cfc 3a3d
00000300: 6b3b 043d 13da 8fbd 47c3 8e3c 7259 5fbd
00000310: 4ee5 00bd 578c 52bd f68b a7bc d140 e1bc
00000320: f51e 0ebd bd04 c33c 27c6 1abc 1a23 3d3d
00000330: 5e89 5fbd 2570 923c 24c5 06bd a3d2 873d
00000340: cd30 6cbd 0cc1 a7bd 0136 1dbc fec8 123c
00000350: ff58 d2bd ac85 fc3b bfa4 a63d 769e edbc
00000360: 14e5 eabc d0eb d53d 8572 50bd 5261 313d
00000370: e0f5 a0bd 4eb4 9cbc 5e1a f13d e1fb c73b
00000380: c478 20bd b6a7 cd3d 67a7 bc3d 79a8 bfbd
00000390: 226c cbbd 029d 87bb 2746 9d3c e7fa f5bc
000003a0: e58d d93d 2612 8bb9 e613 aa3c b4df f8bd
000003b0: 166b a4bb 8b49 7a3d 4d95 cc3d 7851 65bd
000003c0: cffa 55bd 556f a7bc f405 a6bd 81c8 023c
000003d0: bf21 36bd 25ef 943c 2103 0c3d 587c 993d
000003e0: 8bde e4bd ae68 9fbc 4819 16be f88e 853d
000003f0: d529 6c3d 8a6d f7ba 5be9 56bd fa4c 07bc
0.042896535 -0.076972924 -0.06378493 -0.05668026 0.06443359 -0.057730693 0.09955142 -0.08375289
0.0631961 -0.053867258 -0.05377604 0.06995342 -0.031757537 -0.033906754 0.027312512 0.012280782
-0.0713942 0.036895115 0.017633487 0.026006006 0.033868168 -0.08419293 -0.09703445 -0.052292693
0.010340594 0.043761335 -0.04335634 0.013947267 -0.05402147 -0.016023958 -0.033981062 -0.016053345
0.039737094 0.00810731 0.026984656 0.07027499 -0.043429516 0.058225255 0.09909708 -0.03919941
0.06276977 -0.0046234 0.0103314435 0.044328146 0.04917117 -0.038596362 0.016685542 -0.010196384
-0.05774899 0.00052927254 -0.027585171 0.038906086 -0.01669895 0.1420959 0.0502306 0.014489243
0.05902526 -0.08364228 -0.040136054 -0.045201607 -0.009668226 0.024471112 -0.028479114 0.014795654
-0.048192523 -0.07291132 0.00016949228 0.03084166 0.022537893 -0.04017003 -0.031261142 0.023494158
0.032544658 -0.031181974 0.03550083 0.0011607805 0.06299695 -0.030400338 -0.001036214 -0.044842895
-0.05581726 0.12338159 0.07744937 0.048885733 0.06329994 -0.040543888 -0.038071427 0.007556741
0.021589804 0.040771216 -0.045710526 -0.034092378 0.09624756 0.042300973 0.042131733 0.12022493
-0.08116492 0.067026526 -0.034653995 0.023214206 0.010286813 -0.007811855 -0.010143846 -0.036710143
-0.015636904 0.09637516 -0.011495367 0.14325097 -0.03093309 0.017864324 -0.014588927 -0.024051394
-0.05658801 -0.038268626 -0.013986321 0.004619111 -0.010872148 0.0008537993 -0.0030858198 0.0112255765
0.08610326 0.017594647 0.047236003 -0.009100569 0.035454724 0.06298087 0.041189026 -0.0531707
-0.0051812665 0.12074852 0.0059228837 -0.004769004 -0.09989773 0.050638974 -0.05905472 -0.005853949
-0.020834059 0.026568783 0.015821312 -0.060300138 -0.0445837 0.050704163 -0.014565436 0.040850967
-0.08294395 -0.093582466 0.052023817 0.050756764 0.0063070306 -0.01858478 0.045098156 0.06984001
0.017613666 -0.04415315 -0.055988215 0.013076351 -0.05247684 0.1082663 0.02731148 -0.033591196
-0.06021662 0.09631692 -0.028367072 -0.022535507 -0.0050307103 -0.03731731 0.020642059 -0.11518454
-0.043142892 -0.107294485 0.067180075 -0.04784917 0.05099951 -0.12772664 0.040815458 -0.05768586
0.016846223 -0.014838001 -0.016217358 -0.05072889 0.047920857 -0.03924872 -0.033860333 -0.055351328
-0.050609645 0.057748787 -0.065911 -0.008321479 -0.051878367 -0.06684339 -0.009901198 0.045650646
0.032283228 -0.07024016 0.0174271 -0.05452866 -0.031468682 -0.05140337 -0.02045248 -0.027496727
-0.03469749 0.02380597 -0.009446657 0.046176054 -0.054574363 0.01787574 -0.03290285 0.06631973
-0.057663728 -0.08191118 -0.009595395 0.008959053 -0.10270881 0.0077063646 0.081368916 -0.029006224
-0.028673686 0.10445368 -0.050890464 0.043305703 -0.07859397 -0.019128945 0.11772607 0.0061030244
-0.03917767 0.10041754 0.09211617 -0.093583055 -0.09932734 -0.00413859 0.01919849 -0.030026866
0.10622767 -0.00026525668 0.020761441 -0.12152043 -0.0050176485 0.061105292 0.09989414 -0.055985898
-0.052241143 -0.02043883 -0.08106604 0.007982374 -0.044465777 0.01818044 0.03418267 0.0749442
-0.11175259 -0.019459095 -0.14658082 0.0652141 0.05765708 -0.001887725 -0.05246864 -0.008258099

encoder.critic_encoder.net.mlp.0.weight f4 [256, 54]
00000000: cb2a 1b3d 8134 9cbc 7433 61bc 13cd b4bd
00000010: 366b b53d fc6f f63c 71be e0bd 2f05 d3bd
00000020: 75ea e43c b0c4 09be 42fb eabd 070d 33bd
00000030: 40de d4bd 0594 04be 044a dc3d 76b8 933d
00000040: 270a 74bc af25 f03d dc3a b5bc 3aa2 f6bd
00000050: f101 17bd 13cd 5b3d 06d8 04be 0012 a33c
00000060: cbff 63bd 9999 833d fb1b 973c 3adb cd3d
00000070: 701b dabd 9a6c d63d c5fe 6e3d cee3 1ebd
00000080: e96c 223e bb96 1ebd dbac 893d 7790 99bd
00000090: 3d7e 583c 4681 05be c2ea 08bd d131 1b3e
000000a0: cff5 9d3d 095f 8bbc 85ce 0e3e 687b ff3d
000000b0: 2a7e 933d f0d1 793c a073 d9bd d2fa 27bd
000000c0: 93cd eebd 82bc 763c e042 643d eaa2 ab3d
000000d0: c5b0 b5bd 6df0 f9bd e1b1 3cbc cd84 09be
000000e0: 46c0 8b3d 4c75 093d d742 d1bd 623f 08bd
000000f0: b7c1 883c a2fd 6ebc 64d3 3f3d 4a31 f8bd
00000100: ff10 083e 87b9 ecbc db89 c4bd 04d6 0f3e
00000110: 4bca d7bd 7a15 c6bc 308d 7a3d 3051 cc3d
00000120: d4eb af3d 9fca 493d 2c82 53bd ec23 443c
00000130: 9b92 243d 8706 473c 5e2a 1e3d ebf6 a03d
00000140: 155b d83d e90d bdbd 20f6 bdbc 36f4 863c
00000150: e0f6 4cbd 96ad cabd 1dcb 5ebd fa00 60bd
00000160: a74f 8bbc 2141 babd 916b 553d b51a 01bc
00000170: 57b4 ea3d 38d4 b4bd e09c 50bd 1499 26be
00000180: 4f58 ec3d 4878 19bc 37bf e0bd c9ab 6ebd
00000190: 18b9 2239 4b4b f93c cdc0 99bd 7c25 9fbc
000001a0: cea1 bb3d 75f8 39bd 5dee 9539 f3bd 0bbc
000001b0: 3e74 bb3d c6b4 6e3d 097d 0d3d 3b0d 273e
000001c0: b54f 5b3e af16 0fba 5099 bd3d a648 8abd
000001d0: c3aa c1bc 4026 8abd eab0 053e 7908 02be
000001e0: 789d 19bd 80e5 21be 7ad4 8a3d 3e50 13be
000001f0: b0c2 463c d578 053e caa0 eebd d8fa e33c
00000200: 87dc e4bd 3865 1f3e 3007 523e cc2e 033d
00000210: 9099 be3b ed0f b43c c1f6 f8bc 68c6 08bd
00000220: e818 253d e6ce dcbd 38a9 a33d cb96 62be
00000230: f7eb 983d 77ee b4bd 0dc9 bf3c 5dde f5bc
00000240: 7215 fbbc 0041 853d 6455 9cbd 4b4c 1e3d
00000250: 3854 1d3e 0b90 78bc 5b71 d7bd 4ac4 c4bd
00000260: 1aca 47bd 9ac1 3dbd 813b 043d 600c 19be
00000270: 706b 123e 715b 55be ef83 933d de06 a5bd
00000280: 1faf 2a3d 886f 97bd 7a46 e73d 0f55 c93c
00000290: 1d8e dcbd 25af 67bd 58f8 c1bd 9bbd 29bd
000002a0: dda3 0abd 674f 6cbc 8e09 d0bd 485e 98bb
000002b0: 6daf 55bd c5c4 c6bd a680 ae3d 786c cebd
000002c0: 72b2 ef3c 6b61 963d 5da0 2fbe cf9d 8e3d
000002d0: 10a8 f5bd 2e62 af3b ea4f 3d3d 4c46 7f3d
000002e0: 5bc3 003b 586b b1bd fc6e c53d 64de b1bd
000002f0: 21c9 84bd 2940 20bd 87ec 6fbd 1394 e03d
00000300: b1fd 503d 872d 9bbc eb37 72bd 1e55 39bc
00000310: f28c b73d 40cb d63d 97a9 d43d 2668 53bd
00000320: 8cb8 16bc 6e24 d9bd 5da4 353d 595f 113d
00000330: e4ad 1c3c 76bc b23d 10ec c83d 6eba adbd
00000340: 99f7 0cbe a2a2 fa3c 20ff d13d 4063 993d
00000350: 068a 533d f066 9abc 2f2c 84bc 3e7e b1bd
00000360: 17e7 01be cb31 dcbd 1985 fabc 6309 19bd
00000370: 49b9 bf3d a33e 3c3e 2aa6 0b3d 9257 adbd
00000380: 3ba0 ddbd 0693 d83b 4a4e c73c 1e67 9e3b
00000390: bca0 ff3d 59ef 32bd 3890 c23b 8a92 3fbe
000003a0: e4c9 113e d2b5 9abd e957 08ba 44f7 a63c
000003b0: 2c4b 44be 9f72 25be a20c 45bc b5f7 3b3d
000003c0: a796 dc3d 02b2 81bd e428 62bd 6698 503d
000003d0: 952f 023e 74f2 303d 3f19 803e 5143 933d
000003e0: 2cd1 1bbd b043 be3b 7640 2f3e 3d7e 3abe
000003f0: 26ab dd3c 08c1 66be 42f9 5cbd d4d4 033d
0.037882607 -0.019068005 -0.013745178 -0.08828177 0.088583395 0.030082695 -0.10973824 -0.10303723
0.02794383 -0.13453937 -0.11473705 -0.043713596 -0.10393953 -0.1294709 0.10756305 0.072129175
-0.014894999 0.117259376 -0.022122793 -0.12042661 -0.036867086 0.05366237 -0.12973031 0.019906044
-0.055663865 0.06425781 0.01844596 0.1005158 -0.106497645 0.10469933 0.058348436 -0.03879147
0.15861858 -0.038717967 0.06722423 -0.074982576 0.013213691 -0.13037595 -0.033427007 0.15155722
0.077129 -0.01701309 0.13945968 0.1247471 0.07201798 0.015247807 -0.10617757 -0.041010685
-0.11660304 0.015059592 0.05572784 0.08380683 -0.08871607 -0.12204061 -0.011517019 -0.13429566
0.068237826 0.03355913 -0.10217827 -0.03326357 0.016693933 -0.014586838 0.046832457 -0.12118776
0.13287733 -0.02889706 -0.09596606 0.14046484 -0.10536631 -0.024180163 0.061169803 0.09976423
0.085899025 0.0492655 -0.051637813 0.011971455 0.040178876 0.012147552 0.038614623 0.07859596
0.105642475 -0.09231169 -0.02318865 0.01647387 -0.050040126 -0.0989639 -0.054392923 -0.05468843
-0.017005755 -0.090944536 0.052104536 -0.007879903 0.11460178 -0.0882954 -0.050930858 -0.16269332
0.11540281 -0.009367056 -0.10973971 -0.058269296 0.00015518477 0.03043141 -0.07507477 -0.019427054
0.09161721 -0.045402963 0.0002859709 -0.008529174 0.09153031 0.058277868 0.03454307 0.16313641
0.21417125 -0.0005458397 0.09257758 -0.06752138 -0.023640996 -0.06745577 0.13055769 -0.12698545
-0.03750369 -0.15810204 0.06778808 -0.14386079 0.012131378 0.13034375 -0.11651762 0.027829573
-0.11174875 0.15565956 0.20510554 0.03202705 0.005816646 0.02198025 -0.030391099 -0.03339234
0.040306956 -0.1078165 0.0799126 -0.22127835 0.07466882 -0.08834546 0.023411298 -0.030013258
-0.030649874 0.065065384 -0.076334745 0.038646977 0.15364158 -0.015171061 -0.10519668 -0.09607752
-0.048776723 -0.04632721 0.03228331 -0.14946127 0.14298797 -0.20835663 0.07202899 -0.080579504
0.041670915 -0.0739432 0.11292739 0.024576692 -0.107692935 -0.056563515 -0.09471196 -0.041440587
-0.03384768 -0.014423228 -0.101580724 -0.004649911 -0.052169252 -0.097054996 0.085206315 -0.100792825
0.029259894 0.073428 -0.17151017 0.06963693 -0.11994946 0.00535228 0.04621879 0.0623229
0.001964769 -0.08663052 0.09640309 -0.08684996 -0.06483675 -0.039123688 -0.05857518 0.10965743
0.05102319 -0.018942608 -0.05913536 -0.011311797 0.0896243 0.104879856 0.10383909 -0.051612996
-0.009199273 -0.106026515 0.044346202 0.03549132 0.009562943 0.08727352 0.0981065 -0.08482824
-0.13766326 0.030595127 0.10253739 0.074896336 0.0516453 -0.018847913 -0.01613435 -0.08666657
-0.1268581 -0.10751685 -0.030581044 -0.037362467 0.09361512 0.18383269 0.034094013 -0.08463968
-0.10821577 0.0066093234 0.024329323 0.00483407 0.124818295 -0.04368529 0.0059376024 -0.18708244
0.14237171 -0.07554211 -0.0005201088 0.020381577 -0.19169301 -0.16157006 -0.012026938 0.04589053
0.10770922 -0.063327804 -0.055214778 0.05092659 0.12713464 0.04319997 0.2501926 0.07190574
-0.03804128 0.005806409 0.17114434 -0.18212219 0.027059149 -0.22534573 -0.05394865 0.03218539

encoder.critic_encoder.net.mlp.0.bias f4 [256]
00000000: 2740 123e 07f0 773e a6d2 a4bc 5ea7 793d
00000010: f465 50be 786b 42be 442d d63d 6887 563e
00000020: 1aa3 123e 1b27 6abd 87f7 40be e302 96be
00000030: 7bd6 723d a11e 5dbd 3bc4 78be 137e a93d
00000040: 00b6 353e 91ea 023e a87b 80bd 7f26 1f3e
00000050: f19d 653e 1f5e c23c b340 883e f2d9 a0be
00000060: 172c 27be 125f 72bb 3357 043e 3df6 ad3e
00000070: 0eb7 0d3c b1c4 e53d f6c0 06bd 58b7 41be
00000080: f79e b1be 620f 47be dac2 a9bd a525 bcbd
00000090: 2f53 e2bd d745 da3d 414a 753e ea3e 8e3e
000000a0: 07ec 7ebd 6e00 93be bc42 d93c 400d e8bc
000000b0: 9669 913c 9620 ac3d 53aa 6cbe 5d08 393e
000000c0: 5cfd 08be 7c27 883e 0f07 c4bd d511 8cbe
000000d0: 2073 a0be dc33 203e b28a 55be 9869 543e
000000e0: c11d 99be d5b0 9d3e 1678 1d3d fd88 163e
000000f0: 5561 9abd f849 aa3e ff7f 00be 8dfe 9fbd
00000100: 7b3f 3fbe 83d7 a83e b14a 333e 509c 52be
00000110: 3fd1 6fbc ecb7 85be 4efe 603e 8709 debd
00000120: bc76 38be 1834 76bd 4311 dfbd 8d36 ea3d
00000130: d467 8dbb f427 283e 8797 a0be bfd4 033f
00000140: 099a 893d 5d54 84bd 28de 42bd b155 423d
00000150: 5d03 99be 8a98 693e 81f2 30be 6d15 903e
00000160: a445 36be 9d89 673e 5562 5abd 5625 0e3e
00000170: eed6 9e3d 842b 213d 88b5 8e3c f610 223e
00000180: 5057 28bc 39fb 26be 3808 3f3e 785c 76bd
00000190: 29eb 6fbe 62e6 b6bc c86c fdbd 90b7 16bd
000001a0: a8c2 7c3e 999a 863a eaac 673e 7865 563e
000001b0: bda0 383e b6b8 253e 7aff a33e 87c5 b8be
000001c0: 47f1 b63d 441f df3c d5a0 35be cf8f 133e
000001d0: 4f55 ca3d d851 9ebb 85e5 783d d439 1c3e
000001e0: 57b6 373e 4adc 6ebe ea61 bbbd f7b5 4b3e
000001f0: cfc8 593e 51a8 fcbd a354 bfbd b1a8 6a3d
00000200: c209 413e 7cbb 543e d26a e43c cb07 1a3d
00000210: f37d ddbc 1fb2 5d3e ac57 bcbe c8e0 38be
00000220: 7eca 52be f5c2 6dbe 7a36 4d3e 95ff 723e
00000230: 710f 3cbe cebb c33e a5b1 e6bd 72c2 683e
00000240: 9a71 0a3e a5d3 74bd d2f0 8abd 6aa8 313e
00000250: ee6a 9bbd 4a3a 863e f156 2dbe f9df 5dbe
00000260: 6ad8 13be de2f 2ebe 5eb1 7bbe 7770 50bc
00000270: f372 a43e 2ba2 913e 9cc1 363e 4aaa 26be
00000280: 5a49 5ebe e692 21be ef77 473e b9a8 de3e
00000290: 96aa 48be 3f42 d73e d085 aa3d 3560 8cbd
000002a0: 872d 84bb 9f69 38be dd88 9e3e d79a 51be
000002b0: 49b7 46be bd4e 023d 3f0c 853e f1a2 333e
000002c0: 97a0 acbd 36e0 7b3e c19f f73d 95b0 9b3e
000002d0: 1487 963e 1740 b5be cc16 fabd ec57 aebe
000002e0: 5492 97bd 691d 433e efc4 7e3e 016c 6fbe
000002f0: 38bf a6bd 6d07 243e 7ca4 48be 6f47 e53d
00000300: f02b d5bd 7a0a 923d 5323 943d 9285 a7bc
00000310: d0eb ca3d 4a31 66bd 630c 57bd 2bc2 993d
00000320: 835e dfbb b2c6 ca3c 5144 4b3d fd44 a4be
00000330: e637 94bd 556b 3f3e bb5f 9cbd f57e e6bd
00000340: 6dc1 91bd 7ba0 ba3e 50c2 b3bd 4b10 0e3e
00000350: c932 423d c746 b0bd f549 93be 22c5 4fbe
00000360: 5f0e 7bbe 10d0 da3e c28b 46be 45d7 80bd
00000370: 64c5 c83d b181 c53e a125 8f3d 9177 39be
00000380: 1bd0 a83e fd60 43be 3bc8 0a3e db99 c93d
00000390: 3e7e 03be 0756 91bd ff2c 2cbe e3dc ce3d
000003a0: 427f 28be 2dfb 3bbd acb5 643e 6d26 873e
000003b0: 09e8 923e f66f 963e 7041 4bbe b2ae a83e
000003c0: 4bef 12be 143d 693e ae42 bcbe d672 453e
000003d0: 4b93 a2be 7c16 25be 8464 2ebe f01e 803e
000003e0: 6a44 003e de53 07bd b2a3 76be 5b9c 163e
000003f0: 4f97 263e 6f2c 9dbd 7398 8a3c c318 63be
0.14282285 0.24212657 -0.020119976 0.06095063 -0.20351392 -0.18986309 0.104578525 0.20950091
0.14320031 -0.0571662 -0.18844424 -0.29299077 0.059286576 -0.053984288 -0.24293606 0.08276
0.17745209 0.12784792 -0.062735856 0.15542029 0.22423531 0.023726521 0.26611862 -0.3141628
-0.16325413 -0.0036982936 0.12923889 0.33976927 0.008649601 0.112191565 -0.032898866 -0.18917596
-0.34691593 -0.19439462 -0.08289118 -0.091868676 -0.11051022 0.10657852 0.23954107 0.27782375
-0.062236812 -0.28711265 0.02652108 -0.02832663 0.017750543 0.08404653 -0.23111849 0.18069597
-0.13377899 0.26592624 -0.09571659 -0.27357355 -0.31337833 0.15644783 -0.2085369 0.20743406
-0.29905513 0.30798975 0.0384446 0.14700694 -0.07538096 0.3325956 -0.12548827 -0.078122236
-0.1867656 0.32976922 0.17508961 -0.20567441 -0.0146372905 -0.26116884 0.2197201 -0.10841661
-0.18014044 -0.060108274 -0.10891964 0.11436186 -0.004315356 0.16421491 -0.31365606 0.514965
0.06718833 -0.064614035 -0.047575146 0.047445003 -0.29885378 0.22812095 -0.17280008 0.28141347
-0.17800003 0.22611089 -0.053316433 0.1388143 0.07755838 0.03934814 0.017420545 0.15826783
-0.010274723 -0.16306771 0.18655479 -0.06014678 -0.2342955 -0.022326652 -0.12374264 -0.036796153
0.2468363 0.0010269462 0.22624555 0.20937145 0.18030067 0.16183743 0.3203085 -0.360882
0.08932739 0.027236588 -0.17737134 0.14410327 0.098795526 -0.004831534 0.060765762 0.15256435
0.17940651 -0.23326221 -0.09149535 0.19893633 0.21268009 -0.12336791 -0.09342315 0.057289783
0.18851379 0.20774645 0.027882967 0.03760509 -0.027037596 0.21649979 -0.36785638 -0.18054497
-0.20585057 -0.23218901 0.20040312 0.2373031 -0.18365265 0.3822922 -0.11264352 0.22730425
0.13519898 -0.059772152 -0.06784214 0.17349401 -0.075887546 0.26216346 -0.16927697 -0.2166747
-0.14438024 -0.17010447 -0.24579379 -0.012722126 0.3211895 0.28444037 0.17847294 -0.16275898
-0.21707669 -0.15778694 0.19479345 0.434881 -0.19596323 0.4204273 0.08326304 -0.068542875
-0.0040337476 -0.18009041 0.30963793 -0.20469223 -0.19405855 0.031813372 0.25985906 0.17542626
-0.084290676 0.24597248 0.120910175 0.3040816 0.2939993 -0.3540046 -0.122113794 -0.34051454
-0.07400957 0.19054188 0.24879812 -0.23381044 -0.08141941 0.16018458 -0.19593996 0.111952655
-0.10408771 0.071309045 0.072333 -0.020449433 0.09908259 -0.05619935 -0.052502047 0.07507738
-0.0068166866 0.024752948 0.0496257 -0.32083884 -0.07237224 0.18693288 -0.07635447 -0.11254684
-0.07116971 0.36450562 -0.087772965 0.13873403 0.047411714 -0.0860725 -0.28767362 -0.20290044
-0.24517201 0.42736864 -0.19389251 -0.062910594 0.09803274 0.3857551 0.06989599 -0.18112017
0.32971272 -0.19079967 0.13552944 0.09843799 -0.12841126 -0.070964865 -0.1681404 0.101007245
-0.16454795 -0.045893837 0.22334927 0.26396504 0.28692654 0.29382294 -0.19849181 0.32945782
-0.14349096 0.22777206 -0.36769623 0.19282088 -0.31753 -0.16121858 -0.17030531 0.25023603
0.12526098 -0.033038966 -0.24085882 0.14708082 0.16268657 -0.07674491 0.016918397 -0.22177415

encoder.critic_encoder.net.mlp.2.weight f4 [256, 256]
00000000: 005b aebc ccf5 68bc 46c7 12bd 232e 2abc
00000010: 91d6 813b 28e6 653d 9021 db3b f263 20bd
00000020: 3b7b c9bb 7dc8 323c 91f0 5e3d 04b9 123d
00000030: 007e 8f38 e00f 90bd 205e 823d ded8 603d
00000040: 228c 88bc 6138 e5bd 892c 023c cd7c f4bc
00000050: 17ff 3d3d 944f 85bd bf40 bebd d79a 7e3c
00000060: 4d8b 2dbd d1c8 053d 92c2 74bd a257 cabd
00000070: bb3e 853c 16b9 c33c 01c0 2dbc 65da 28bd
00000080: 51f0 ba3d 4b2f 6abc 4d5f 0d3d cb3f 2e3d
00000090: 1c02 fa3b 97a5 843c 0694 c3bd 4dab b8bd
000000a0: 49f3 1ebb 177f 123d 1c23 f4bb d83e b43d
000000b0: c859 453d 0e90 10bd cd85 b7bc 3dbc 7f3c
000000c0: 0d79 273d 5430 27bd f23b ff3c 605c c13c
000000d0: 32a7 403c 1537 bb3c 97f0 f2bc 1d91 52bd
000000e0: 62f3 933d 2958 de3c 53fe 133c 7c0f 253d
000000f0: e538 2ebd 1fdc 35bd b512 613b 797b 92bd
00000100: e995 af3c 240a 9fbc 8855 123c b491 313d
00000110: 5774 d0bc 547f a13c 5a84 43bd d4d3 353d
00000120: 3859 383d 9533 87bd 8c84 95ba 207f 083d
00000130: 83a2 e9bb 53a9 a1b8 a8fa 48bc 999b 1c3d
00000140: 9b90 9cbd 6581 813b 9740 523d f43e 8f3d
00000150: 0e07 493b 7ba9 5b3d 88d3 73ba 0341 f8bc
00000160: f18e fabc 66f0 afbd 23a3 d7bd 50ce 00bd
00000170: d492 033c 4607 4e3d 564c f5bc 98b9 01bc
00000180: 76f4 c8bc 7180 22bd c7c1 70bb dffa 1fbd
00000190: a39a d83c bca7 053c c520 74bd a943 d93c
000001a0: 517d acbd 1d9c 853d 7a55 afbd be87 d4bc
000001b0: 965b 1e3d cde2 223d 06b8 12bd 9e5d 42bd
000001c0: 4c1a 483d 1bd1 84bc ab95 32bc 38da 173d
000001d0: 377f f33c 11d0 a33d a3ea a83d e235 6d3d
000001e0: 3afa bf3d 408f 28bb 99fa 123c 58e0 ae3c
000001f0: 73ce 39bd bdc7 a43c 8e59 09bc b52d 083d
00000200: ba3a 87bd d8a7 3bbc d502 b4bc 826f 61bd
00000210: 65ac 203b e322 6a3c 8aed d63d c6ae 773d
00000220: 4073 8cbc a843 cb3d 5b49 ce38 db58 8fbd
00000230: 8753 803d 2790 07bd 90db 3ebc 0d79 c73c
00000240: 80f8 85bd 4ba8 b1bd 2aac e83c 7759 d1bd
00000250: 1681 763d 392f 17bd 6438 2c3d 25b6 52bd
00000260: 0f04 383d c2ed 843d 8046 a7bc 4be5 eabb
00000270: 1d8d 213c 8c17 163c 1651 0cbd a92d 983d
00000280: 5de7 713d fbc2 9c3c 5298 613c 0ea3 09bd
00000290: df08 39bd c88f 7ebd eaf5 c63b 3ac8 883d
000002a0: 4d03 97bd 0827 cd3c 5f4b bcbd 9db3 e9bc
000002b0: f8ce da3c 5497 e2bc 722f ebbc c3d1 cbbd
000002c0: ef03 253d 518b 9dbd 0777 be3c 5c51 6bbc
000002d0: 9431 f3bc 00a0 f43c b283 913d 4240 fc3d
000002e0: 7b8e 42bc ddad 0fbc 5516 263d 4433 d03c
000002f0: e78b 013d 34e5 973c d685 8e3d c0f1 89b8
00000300: a890 d63d fedc 34bd b2d9 86bb e7af 58bd
00000310: aad8 e63b a0b8 f1bc 65f9 e63c 9481 a4bd
00000320: 0b30 dcbc cfb2 28bd 8449 28bd 1d58 c7bc
00000330: 3c70 553d 3b8a eabc bf0c 58bd f2cc 8d3d
00000340: 24c3 69bc 736f 683d cda6 4fbc 66d3 81bd
00000350: e0f5 923d c66a 80bd c977 ffbc bf40 7c3c
00000360: 1d7c f83d 075a 4dbd 1747 2f3d 7e36 5dbc
00000370: a774 273d dfc2 5cbd 58b3 62bd cc72 5d3d
00000380: 3835 04bd ccae b73d c0f1 563c d67d eb3b
00000390: 5683 59bd ee11 84bd 0625 a33c 5929 02be
000003a0: a6eb 88bd 70da 093e 39b7 ba3c 6922 113d
000003b0: 9484 81bd 81a2 a3bd 40ed 64bd d8a4 50bd
000003c0: f847 063d 0b21 b9bc 54cf 863d 1f64 47bd
000003d0: 2d93 1f3d a8b6 2d3d 6560 64bb 8cc5 eabc
000003e0: 6a74 8d3c 7d73 50bb 0c78 fbbb 871b 08bd
000003f0: 8854 0d3d df04 293d 9779 dabc 4823 a23b
-0.021283627 -0.014218759 -0.035834573 -0.010386976 0.003962346 0.056127697 0.0066873506 -0.039157815
-0.0061487234 0.010912058 0.05442864 0.035820976 6.842241e-05 -0.07034278 0.06365609 0.05489432
-0.016668383 -0.11192394 0.007945188 -0.029844666 0.04638585 -0.06509319 -0.09289693 0.015539846
-0.042369176 0.032662217 -0.05975587 -0.09879996 0.016265264 0.023891967 -0.010604859 -0.041223902
0.09127868 -0.014293502 0.034514714 0.042541306 0.007629646 0.01619224 -0.095497176 -0.09017048
-0.0024253896 0.035765734 -0.0074504744 0.08801049 0.048181325 -0.03529363 -0.022402668 0.015608844
0.040886927 -0.040817574 0.031156514 0.023603618 0.0117586125 0.022853414 -0.029655738 -0.051407922
0.07224156 0.027141647 0.009032804 0.04029797 -0.042534728 -0.044399377 0.0034343426 -0.07152457
0.021433787 -0.019414015 0.008931525 0.043351844 -0.0254461 0.019714035 -0.047733642 0.04439147
0.04500696 -0.06601635 -0.00114073 0.03332436 -0.0071299686 -7.708617e-05 -0.012266792 0.038234327
-0.07644769 0.0039521926 0.05133113 0.06994429 0.003067437 0.053628426 -0.0009301235 -0.030304438
-0.030585738 -0.08590774 -0.10529163 -0.031446755 0.008030612 0.050299905 -0.029943626 -0.007917784
-0.02453063 -0.039673273 -0.0036736594 -0.03905761 0.026440924 0.008157667 -0.059601564 0.02652152
-0.0842234 0.06523917 -0.08561225 -0.025943633 0.038661562 0.039767075 -0.03582003 -0.04745256
0.048853204 -0.01621299 -0.010899941 0.037073344 0.029723747 0.0799867 0.082478784 0.057912715
0.09373899 -0.002572015 0.00897088 0.02134721 -0.0453629 0.020114774 -0.008383168 0.033246715
-0.06602998 -0.011453591 -0.021974007 -0.055037983 0.0024516818 0.014290544 0.10494526 0.06046941
-0.0171448 0.09925014 9.836509e-05 -0.0699937 0.062659316 -0.03309646 -0.0116490275 0.024349714
-0.06541538 -0.086746775 0.028402407 -0.10222142 0.0601817 -0.03691027 0.042045966 -0.051443238
0.044925746 0.06490661 -0.02041936 -0.007168447 0.009860304 0.009160887 -0.034257017 0.07430584
0.059058536 0.019135943 0.013769226 -0.033602767 -0.045174476 -0.06214884 0.0060717957 0.06678815
-0.073736764 0.025043026 -0.091940634 -0.02852803 0.026710019 -0.02766005 -0.028709147 -0.09952118
0.040286954 -0.07692588 0.023250116 -0.014362659 -0.029686727 0.02986145 0.07105197 0.12316944
-0.01187479 -0.00876948 0.04054864 0.02541507 0.031627562 0.01854191 0.06959121 -6.5776985e-05
0.1047681 -0.044156067 -0.004115307 -0.05290213 0.0070448713 -0.029506981 0.028195092 -0.080325276
-0.026878377 -0.04118615 -0.041085735 -0.024334008 0.05210899 -0.028630367 -0.05274653 0.06923856
-0.014267717 0.05674691 -0.012674046 -0.06339149 0.07175803 -0.062703654 -0.031185048 0.015396296
0.12133048 -0.050134685 0.042792406 -0.0135017615 0.040882733 -0.05389678 -0.055346817 0.054064557
-0.032277316 0.08968887 0.013119161 0.0071866317 -0.053103767 -0.06448732 0.019915115 -0.12711085
-0.06685571 0.13462234 0.022792445 0.035433207 -0.063241154 -0.079899795 -0.05589032 -0.050938457
0.03278348 -0.022598764 0.065825135 -0.048679467 0.038958717 0.042410523 -0.0034847495 -0.02865865
0.017267425 -0.0031807118 -0.007674223 -0.033229377 0.034504443 0.04126441 -0.026669307 0.0049480535
