src/checkpoints/ppo_best_checkpoint/learner/module_state/agent_1/module_state_dir/module_state.pt (torch, 655490 bytes, 11 tensors)

encoder.actor_encoder.net.mlp.0.weight f4 [256, 54]
000000 ff 40 0f 3f 5d b8 9c be 5e a9 e0 bd 9d 23 a3 3d
       0.5595855 -0.30609408 -0.10969804 0.07965777
000010 35 08 31 be 8e bd 2d 3b fb 53 1d be 70 22 83 3d
       -0.17288287 0.0026510688 -0.15364067 0.06403053
000020 72 4f 84 3d a2 10 5d 3d 30 46 3a bd bf 00 4a bd
       0.064604655 0.05397094 -0.045477092 -0.049317118
000030 f8 62 dd 3c 7b a3 1a be ce eb 82 3e fd 05 2c 3d
       0.027024731 -0.15101425 0.2557053 0.0419979
000040 13 82 c1 bb b4 f2 95 bd a5 c5 3b 3e de d9 2d bd
       -0.0059053986 -0.073216826 0.18337114 -0.042444102
000050 c5 fc fa bd a9 45 21 3d 4f 00 98 bd 28 b9 96 3d
       -0.12255243 0.039373074 -0.07421934 0.073595345
000060 90 ab d3 3d 9e 84 e3 bd 94 a9 e3 bd 8d a4 88 bd
       0.10335457 -0.11109279 -0.11116329 -0.066720106
000070 d9 90 74 3d 77 c5 e1 bd 9b f1 ff bd 16 c8 48 be
       0.05970845 -0.110239916 -0.124972545 -0.19607577
000080 16 19 dd 3d 33 f1 ef 3d 1c d6 3f 3d 3d 12 45 3c
       0.107958004 0.11715927 0.04683505 0.012028274
000090 cb 97 84 bd de f9 b3 3e 9f 6f 92 3d 66 98 92 3c
       -0.06474265 0.3515157 0.07150196 0.017894935
0000a0 55 ec 46 be 1b 9d a3 3d 5d 0f 0e be 7f 8c f7 bd
       -0.19426091 0.0798895 -0.13873048 -0.120873444
0000b0 77 16 2d 3d 5a 88 72 bd 45 89 21 be 3c 1b 06 3d
       0.042257752 -0.059212066 -0.1577502 0.032740816
0000c0 53 cc b7 bd 6f 6e 23 be da 98 09 be 95 64 e2 bc
       -0.089745186 -0.15960096 -0.13437214 -0.027635852
0000d0 1b 23 32 3c 24 3d 90 bc 70 09 90 3e d7 8a d2 bd
       0.010872628 -0.01760728 0.281322 -0.10280388
0000e0 9f 43 ca 3d e3 5d cc bd 29 40 38 3d 5a 3d 15 3e
       0.09876179 -0.09978845 0.044983063 0.14574185
0000f0 e4 9b c6 3d 9c ed 60 bd 72 9c 85 3d d6 82 c4 3d
       0.096977025 -0.054914102 0.0652398 0.095952675
000100 72 2a 94 3d 10 3c 9b 3d fd dd 41 bc 2c ea 08 be
       0.07234658 0.075798154 -0.011832711 -0.1337058
000110 4c 5a 9d 3c 2e 2c 60 3e 52 c5 bd 3d 2f 55 08 3d
       0.019208096 0.21891853 0.092661515 0.033284362
000120 59 3c 23 3d e1 2d 14 be 1f e1 17 3e 08 70 17 be
       0.039852474 -0.14470626 0.1483197 -0.1478883
000130 a4 c7 c5 bd 06 2a b8 bd dd e4 59 bd c5 07 c9 3d
       -0.09657219 -0.0899239 -0.053196777 0.09815935
000140 a7 d8 f0 3d 89 32 cc 3d c2 31 03 be e2 77 26 be
       0.11760073 0.09970576 -0.1281195 -0.16256669
000150 0d 64 3e 3d 84 96 05 be 93 9c cb 3d 15 a4 cb 3e
       0.046482135 -0.13045698 0.099419735 0.39773622
000160 e3 04 f8 3c 5b 96 98 bc 5a 58 1f 3e 73 71 a6 be
       0.030275768 -0.018626383 0.15561047 -0.3250843
000170 43 ec 61 3d 8b 8b 72 bd ab 03 08 3d 9d bc aa 3d
       0.055156957 -0.05921511 0.033206623 0.083367564
000180 d2 04 ef 3b 42 0b 40 bc 36 dd 07 3e 6b da 19 bd
       0.007294276 -0.011721434 0.13267979 -0.037561815
000190 1b bc 9c 3c 35 6c c6 bc 2b fb 05 be 8f e8 a2 3c
       0.019132664 -0.024221519 -0.13084094 0.019886283
0001a0 48 06 ed bd 81 31 5e 3d 38 3b 13 3d b3 3f 0b bb
       -0.11573464 0.05424643 0.035945147 -0.0021247684
0001b0 3e eb 12 3e 2d 2c 39 3e d0 4e c5 3d 6b 64 b6 bc
       0.1434755 0.18083258 0.09634173 -0.02226468
0001c0 e1 c7 aa 3d 82 94 bc bc 4d 5b 18 bd dd 16 a1 3c
       0.08338905 -0.023020033 -0.037196446 0.019664222
0001d0 09 c1 ca 3d 7f 7f 02 3c b9 fa 2c 3e bc 87 01 bd
       0.099001 0.007964968 0.16892518 -0.031623587
0001e0 cd 6a 45 3d e7 7d 3a 3c 0f 0c f5 bd 85 76 4c be
       0.048197556 0.0113825565 -0.119651906 -0.19967087
0001f0 03 33 e5 bc b9 9c 06 3e b3 4f b8 3d 43 25 7b bd
       -0.027978426 0.13145722 0.089995764 -0.061314832
000200 6f b4 25 3e b4 49 bb bc 40 30 24 3c 0f c5 d9 3d
       0.16182111 -0.022862293 0.010021269 0.10633289
000210 b2 a4 80 bd 1e a0 80 3d 9c 0f ba bc d0 e7 80 bd
       -0.06281413 0.0628054 -0.022712521 -0.06294215
000220 1d 94 ae 3d 01 04 1b 3e 31 ba 13 bd 0c a8 3d bc
       0.08524344 0.15138246 -0.036066238 -0.01157571
000230 ca 02 72 be f5 03 81 bc 71 c5 f8 bd 60 d0 09 bd
       -0.23633876 -0.015748957 -0.12147034 -0.033645988
000240 23 50 93 bc 77 78 40 3e eb d6 8d bd c5 ee e1 3d
       -0.017982548 0.18795954 -0.06925758 0.1103187
000250 5f 85 86 bc 91 ba b9 3d f0 44 d1 3c 75 be cd bd
       -0.016421018 0.09068788 0.025545567 -0.100460924
000260 0c a0 7f 3d f2 dc c1 3d b0 5d ea 3c ab d5 ef 3d
       0.062408492 0.0946597 0.028609127 0.11710676
000270 70 06 06 be b1 9d ec bd 38 24 cb bd 46 05 21 be
       -0.13088393 -0.11553515 -0.099190176 -0.15724668
000280 7f 68 18 bd c8 49 ed bd d2 f5 9b 3d d5 14 11 3e
       -0.03720903 -0.11586338 0.07615246 0.14168103
000290 ec c5 2d 3d 25 1d 0d 3e 42 99 98 3d 52 86 75 3c
       0.04242508 0.13780649 0.074511066 0.014985638
0002a0 d4 ae bd bd f2 05 f6 bc af 8a f9 bd 81 8a b1 3d
       -0.092618614 -0.030032132 -0.12184655 0.08668996
0002b0 c4 a3 22 3d ef 99 78 bd 37 cf 6c bd b3 e6 ee bd
       0.03970696 -0.060693678 -0.057814803 -0.11665096
0002c0 31 e4 99 be cc 6e 49 be 81 30 cf bd 45 ea ce bd
       -0.3005691 -0.19671172 -0.10116673 -0.10103277
0002d0 c4 8a f9 3d 5b 4b 52 be 90 1b 90 3c 02 90 75 3e
       0.121846706 -0.20536558 0.017591268 0.23980716
0002e0 be 96 82 bc 5c 21 99 3d 97 03 ac bd a2 1a d4 3d
       -0.01594102 0.07477066 -0.08399122 0.10356642
0002f0 2a 61 ab 3c 77 c0 4f bd 9c fb 02 3e ad 1a 74 3d
       0.020920355 -0.05072066 0.12791294 0.059595753
000300 8a 50 09 bd a3 d0 84 3d f0 7b d2 be f0 d4 42 be
       -0.033524074 0.06485107 -0.41110182 -0.19026542
000310 24 c9 f0 3b 8f 34 74 bd d9 ea 58 ba f6 bb e2 bd
       0.0073481966 -0.059620436 -0.0008274741 -0.11071007
000320 ca 83 a3 3d 61 78 20 3d b4 3c 6b 3d b4 62 d7 bd
       0.07984121 0.039177302 0.057430938 -0.10516873
000330 e5 6e 67 3d 9c 14 00 bd 2d 8c a0 bd d0 8f 5c bd
       0.05650224 -0.031269655 -0.078392364 -0.053848088
000340 7c aa 30 3d 19 7d 89 3d e5 32 1d 3d 23 b4 e5 bb
       0.043131337 0.067133136 0.038378615 -0.0070099994
000350 ea 1c c3 bd ed 4d 68 3e 0c e4 c6 3c 94 66 b1 bd
       -0.09526999 0.22685976 0.024278663 -0.08662143
000360 cd 37 1b 3e 0f 65 ff bc dd 29 5b 3e ac f4 26 bd
       0.15158005 -0.031176118 0.21402688 -0.04076068
000370 a0 d1 bc bc 08 08 e5 3c b8 dd a6 bd a2 93 92 bd
       -0.023049176 0.027957931 -0.08147758 -0.07157065
000380 b5 50 f2 bc b1 57 7c bd 71 28 6a 3c 68 d3 5f 3d
       -0.0295795 -0.061607067 0.014291869 0.054644972
000390 5f 5c 1c 3d e8 d0 9e bc 52 be 5d 3d 4a 7a 68 be
       0.03817403 -0.019386724 0.05413658 -0.227029
0003a0 ce 09 b4 3c fe 60 f0 3d 32 e3 2b 3e b5 2a 8e 3d
       0.021977331 0.1173725 0.16785887 0.069417395
0003b0 22 86 21 3e 84 7c 9c 3d a5 ad b9 bd 29 d8 a6 bb
       0.15773824 0.07640937 -0.09066323 -0.0050916863
0003c0 34 45 15 be 6b 93 5b bc 1a 02 16 be b4 60 73 bd
       -0.1457718 -0.013401846 -0.14649239 -0.059418395
0003d0 92 13 aa 3d 89 68 66 3c 6e 21 dc bc 1d 68 70 bd
       0.08304514 0.014063009 -0.02687141 -0.05869304
0003e0 27 63 a3 bd 45 98 08 be a7 dd 9c bc f7 9c af 3d
       -0.07977896 -0.13339336 -0.01914866 0.085748605
0003f0 02 a1 89 3e 7c d9 ef 3c 34 7a 74 3e 56 c0 12 3e
       0.26880652 0.02927851 0.23874742 0.14331183

encoder.actor_encoder.net.mlp.0.bias f4 [256]
000000 2f 51 37 3e 23 16 9c bb 78 c1 11 be 07 c4 ab bd
       0.17902063 -0.004763381 -0.14233959 -0.083869986
000010 65 0f 5b 3e 16 4d 31 be 90 dc ec bd 05 89 3e be
       0.21392591 -0.17314562 -0.115655065 -0.18606956
000020 9e 64 63 bd d7 82 d9 3b 94 c2 8a bb 0e 7d f7 3d
       -0.055515878 0.006637912 -0.0042346213 0.12084399
000030 ba a4 80 3d 7c 87 03 3d 1d 99 a1 3d 10 55 15 be
       0.06281419 0.03211163 0.07890532 -0.1458323
000040 dc 67 0e bd 72 6c 0b 3e 4f a9 fa 3d e7 fa 37 3e
       -0.034767017 0.13615587 0.12239324 0.17966805
000050 0d fd 12 bd 68 aa e6 bd ad 83 33 be ef 94 29 be
       -0.03588586 -0.11262971 -0.17530699 -0.1656072
000060 7f 5c 28 be 39 c1 d9 3d ef f9 45 3e 65 45 0f be
       -0.16441534 0.106325574 0.19333623 -0.13991316
000070 95 99 22 3c a9 e8 10 3d 86 a9 42 3e 58 ef ec bb
       0.009924312 0.035378132 0.1900998 -0.0072306804
000080 12 6f b9 be 4d 55 a5 3e 4d df 15 3e d4 77 8c bc
       -0.36217552 0.32291642 0.14635964 -0.017146982
000090 6f 58 62 3e 18 cf af ba a3 ba 03 3d 2e e8 53 be
       0.22104047 -0.0013413159 0.032160413 -0.20694038
0000a0 59 9f 4d bd fd ea 2e be d0 d9 82 bd 90 29 00 3e
       -0.050200794 -0.17081828 -0.06389201 0.12515855
0000b0 06 40 b7 bd 75 99 5a 3a 2b 3d 3e 3d 51 88 f6 bd
       -0.089477584 0.0008338907 0.046445053 -0.12037719
0000c0 c9 00 b2 3e 84 c7 43 3b 5b 70 f3 bd 8b d0 ea 3d
       0.34766224 0.002987356 -0.118866645 0.11465558
0000d0 93 2f 71 3d 82 30 d6 3d dd ca e5 bd 28 83 6a 3d
       0.05888326 0.10458471 -0.11220334 0.057253987
0000e0 6b b8 3b 3e 10 b3 86 3e d8 17 49 bc 30 62 29 3e
       0.18332069 0.2630849 -0.012273751 0.16541362
0000f0 21 a2 dc 3c 3f 65 12 3d 4d 97 cd 3d 4a 73 1e be
       0.026932778 0.035741087 0.10038624 -0.15473667
000100 ac 04 0c 3e 0c bd 6a be 00 34 11 be f8 58 e0 bd
       0.13673657 -0.22923678 -0.14179993 -0.109544694
000110 e7 60 fa 3d d2 cb 08 3c 5f 10 40 3d ec ca 85 bd
       0.12225514 0.008349376 0.046890613 -0.06532845
000120 d8 f6 11 3d 12 8f c1 3d 09 a3 8a 3d fc 62 1a bd
       0.0356358 0.094511166 0.06769378 -0.037692055
000130 96 f3 46 3d 91 9a b0 bd 0e e2 9c bd de bf a6 3d
       0.048572145 -0.08623231 -0.07660304 0.081420645
000140 80 28 3c be 9a 37 a7 3e 00 b1 02 3e c8 e8 20 be
       -0.18374825 0.32659608 0.12762833 -0.15713799
000150 c2 ac 21 be 52 75 45 3e 84 7b 90 3d fe 9f 5d 3d
       -0.15788558 0.19283035 0.07054809 0.05410766
000160 92 fb 18 be 8c 28 83 bd 59 d8 22 be e7 e9 0c bd
       -0.14939716 -0.06404218 -0.15902843 -0.034402754
000170 d7 10 69 3c 16 4e 5b 3e 52 fa 2f 3e 32 72 d7 bd
       0.014225206 0.21416506 0.17185333 -0.10519828
000180 a1 c8 dd bd eb 08 bb bd e4 42 f0 3d d6 40 3b 3e
       -0.108292826 -0.0913256 0.117315084 0.18286452
000190 13 23 3b bd 1e c1 97 3e bb 34 09 3e 47 8a 1f be
       -0.045687746 0.29639524 0.13399021 -0.15580092
0001a0 96 a4 10 be a1 2d 04 3e 2c 65 74 3d fe 71 d7 bd
       -0.14125285 0.12908031 0.059666798 -0.10519789
0001b0 99 7b 7b 3e 4c a8 01 3d 21 b4 f5 bd 4c c1 2a be
       0.24558868 0.03165464 -0.119972475 -0.166753
0001c0 84 78 ff bd 4f 77 37 be 6e 42 b8 3d 5a 60 02 3d
       -0.124741584 -0.17916606 0.089970455 0.03183017
0001d0 68 35 41 bd 9a c7 d0 3d 3c cd e8 bd a2 05 24 bd
       -0.047170073 0.10194321 -0.1136727 -0.040044434
0001e0 77 82 96 bd 13 ac 14 be 6f ac 47 3e 8e 1d 31 3e
       -0.07349103 -0.14518766 0.19499372 0.1729643
0001f0 e3 a0 c4 3c 25 c8 30 3d 80 7b 87 bb d5 31 c5 bd
       0.024002498 0.043159623 -0.0041345954 -0.09628645
000200 1f c8 13 be 4f ec 8e bc 6a 70 6b 3d f2 c4 26 3c
       -0.14431809 -0.017446665 0.057480253 0.010178791
000210 f1 d4 29 3d c9 79 1b be d6 98 bc 3d 1a 30 13 3d
       0.041462842 -0.15183176 0.09208839 0.035934545
000220 e7 55 d0 3d 24 c5 4b be 8b aa 7c bc 37 7b 28 be
       0.101726346 -0.19899422 -0.01542152 -0.16453253
000230 82 4a 26 be 80 5c 15 3e ff 0a 84 3d 15 a5 01 3e
       -0.1623936 0.14586067 0.0644741 0.1266063
000240 ce 07 a5 bc e4 67 d5 bd f0 90 2a 3e b2 ca 3c be
       -0.020145323 -0.10420206 0.16656852 -0.18436697
000250 2f dd 96 3e 27 ea 1e 3e 0b 70 e2 bd 09 d8 ec bd
       0.29465625 0.1551901 -0.11056527 -0.11564643
000260 58 78 75 3d f0 d9 a4 bd 07 5b 95 3d 92 79 24 3c
       0.059929222 -0.08049381 0.07292753 0.01003875
000270 f1 f4 61 be ed 4a c0 3d 4f c0 2f bd 59 dd 0c 3c
       -0.22066094 0.09389291 -0.04290801 0.008597695
000280 f7 34 3a 3e f9 78 86 bd 88 7c b5 3d d6 e0 83 bd
       0.18184267 -0.065660425 0.08861643 -0.064393684
000290 b6 5c 24 be 73 d9 4a 3d 9e 3e e3 bd 3a 69 1c be
       -0.16050991 0.049523782 -0.11095928 -0.15274516
0002a0 8a de d9 bd c3 67 41 3e bc 5d ce bc 50 a5 6b bd
       -0.10638149 0.18887238 -0.02519118 -0.0575307
0002b0 7b 08 0d 3d fd d4 dc 3d 52 d0 41 3e 72 06 ac bd
       0.034431916 0.10782812 0.18927124 -0.08399667
0002c0 44 bf 70 bc 45 50 5b 3e 9b d5 9f 3d fd 8e eb bd
       -0.014694039 0.21417339 0.07804414 -0.11501882
0002d0 d4 85 00 3d 69 41 2e bb 30 c3 a8 ba 71 af 42 be
       0.03137763 -0.002658928 -0.0012875553 -0.19012238
0002e0 a3 ae 4c 3c b1 a4 d6 3d 65 e2 05 3e c3 d2 df 3d
       0.0124928085 0.10480631 0.13074644 0.109288715
0002f0 ba 2a 25 be 7d f8 16 be 6b 0f e3 bd 65 80 d7 3d
       -0.1612958 -0.14743228 -0.11086925 0.10522536
000300 41 c8 a6 3d 66 68 43 3c 76 2e f9 bd 95 fb 64 bd
       0.08143664 0.011926746 -0.12167065 -0.05590399
000310 85 32 1d 3e a6 f4 3c be 70 88 87 bd 4a d1 27 3d
       0.15351303 -0.18452701 -0.0661782 0.040971078
000320 f7 46 b2 3d a8 d0 25 3e 22 42 35 3e 1f 50 eb 3d
       0.08704942 0.16192877 0.17701009 0.11489891
000330 35 7a cc 3d cb 8f 99 3d 80 bb 88 3e d4 a8 42 be
       0.09984247 0.074981295 0.2670555 -0.19009715
000340 87 16 bd bd e9 5d 4a bd 89 df 06 be d1 53 f1 3d
       -0.092328124 -0.049405966 -0.1317121 0.11783565
000350 f0 c8 36 3d a3 d9 85 be 0c 08 a0 bd 5d 70 2f be
       0.044625223 -0.26142606 -0.07814035 -0.17132707
000360 a0 44 6f bd 87 22 1d 3d e0 90 c9 3d 57 35 32 be
       -0.058415055 0.038363006 0.09842086 -0.1740316
000370 60 ea 01 3e c0 eb e2 3d ba 54 cd bd b2 8c 27 3d
       0.12687063 0.11080122 -0.10025926 0.040905662
000380 54 a0 34 3d 75 c0 ee 3c 9c cd 45 bc 92 89 96 be
       0.044098213 0.029144505 -0.012072947 -0.29401833
000390 41 de 59 3e 3e 33 0f 3c fe 6c 79 3d 91 0b 9a 3d
       0.2127619 0.008740244 0.06089496 0.07521737
0003a0 da 8b 37 3e 42 b3 83 3d fc 14 9e 3c cd 5f 92 be
       0.17924443 0.06430675 0.019297116 -0.28588715
0003b0 c7 f7 a4 bd 16 5e 8c bd 45 94 bf 3d c8 12 db bb
       -0.08055072 -0.06853883 0.09354452 -0.0066855885
0003c0 f7 3e 25 3c cc 20 da 3d a2 e3 b7 3d 77 95 38 3e
       0.010085813 0.10650787 0.089789644 0.18025766
0003d0 37 81 98 3d 35 bf 57 be a0 c4 32 3d ff 14 0b 3e
       0.07446521 -0.21069033 0.043644547 0.13582228
0003e0 48 dc 05 be eb 88 8e 3d 13 f1 6b bc dd 62 b3 bd
       -0.13072312 0.06959709 -0.014400738 -0.08759091
0003f0 45 74 b4 3d 74 65 02 be 26 65 c0 bd 99 ed 61 bc
       0.08811239 -0.12734014 -0.093942925 -0.013789558

encoder.actor_encoder.net.mlp.2.weight f4 [256, 256]
000000 17 a4 97 bc 7a 90 11 be 5a 94 cc 3a 3f fa 0c 3c
       -0.018510861 -0.1421527 0.0015608177 0.008604585
000010 2b 2b 92 bc 7b bf 37 3d 0e 52 2d bc 43 f7 eb 3d
       -0.01784285 0.044860344 -0.010578645 0.11521771
000020 aa 60 60 3d 8f 20 83 bd df 31 b6 bc 19 40 59 bd
       0.054779686 -0.064026944 -0.022240577 -0.053039644
000030 23 50 5d bd c1 c9 5f bc 57 11 8a 3d b4 7b 66 3d
       -0.054031502 -0.013658942 0.067415886 0.056270316
000040 20 1d d0 3c 01 9f 92 bc 1c 1e d9 bc 4e 12 2a bd
       0.025404513 -0.017898085 -0.026503615 -0.041521363
000050 75 15 79 bd 02 43 94 3d 90 5d e0 3b 8b 62 13 bd
       -0.06081148 0.07239343 0.006847091 -0.03598265
000060 e0 94 89 3d 3d c2 35 bd c1 5d 0d 3d ce 82 29 3d
       0.06717849 -0.044374693 0.03451324 0.04138451
000070 2e f8 32 3d df 50 38 bb 11 43 30 bd 6d 6a c0 3d
       0.043693714 -0.0028124375 -0.04303271 0.09395299
000080 8f d2 80 3d f1 2d c5 bc e8 ef 68 bc 9e 20 57 3d
       0.06290161 -0.024069758 -0.014217354 0.05252134
000090 20 0b 15 3d a3 ee 9d 3c b7 19 a1 bd 08 3b eb bc
       0.036387563 0.01927883 -0.07866233 -0.028714672
0000a0 47 41 46 bc 69 07 51 3c e3 b9 4a 3d 95 e0 14 3d
       -0.012100524 0.012758114 0.04949368 0.03634699
0000b0 f1 63 0a bc 19 34 80 3d ac 43 bb 3d f3 73 28 bd
       -0.008446679 0.06259937 0.09143767 -0.041126203
0000c0 30 55 70 bd f8 6f 75 3d 19 de e5 3d 1e fe 04 3c
       -0.05867499 0.059921235 0.112240024 0.008117227
0000d0 a8 ba e6 bc e9 03 12 3d 0f 52 95 3c 47 94 78 bd
       -0.028165177 0.03564826 0.018227605 -0.060688283
0000e0 8b 62 95 3d b9 21 cf bc 3a 93 84 bb 87 6b fa 3c
       0.07294186 -0.025284635 -0.004045871 0.030568851
0000f0 68 51 21 bd 06 58 8a bc 22 6e 98 bb 79 08 8e 3c
       -0.039384276 -0.016887676 -0.0046518007 0.017338024
000100 25 8a a6 bd 8b ec 8e 3c dc b2 0b bd 09 6e 4d 3d
       -0.08131818 0.017446777 -0.03410612 0.050153766
000110 a1 d7 2b 3d 9c ee 1e 3d 38 b2 8a 3d 1f 7b 75 bb
       0.041953687 0.038801774 0.06772274 -0.003745742
000120 1d 72 82 3d 99 88 89 3d 96 53 11 bd 5f 3a 49 bd
       0.06369422 0.06715507 -0.035480104 -0.049127933
000130 75 20 89 3d 26 d7 58 3d e0 77 70 bd 0c ec a3 bc
       0.06695644 0.052939557 -0.05870807 -0.020010017
000140 b4 3e b4 bc ca 2e b5 bd 5e 30 6d bd d1 b8 e8 3c
       -0.022002555 -0.08846815 -0.057907455 0.02840844
000150 91 02 55 3d 1d 37 5d 3c da 40 d9 3b 3a f3 cb bc
       0.0520044 0.01350191 0.0066300454 -0.024896253
000160 36 9f 91 3d 2a dd 7f bb 97 1d 4d 3d 82 97 96 bc
       0.07110445 -0.0039041736 0.050077047 -0.018382791
000170 91 cb ab bb 8a b9 1b 3a 84 83 7b 3d e6 5a 5c 3b
       -0.005242773 0.0005940428 0.06140472 0.0033623516
000180 f5 6f 8c 3d 08 d6 23 bd d7 d1 3c bd d6 0a d0 bc
       0.068572916 -0.039999038 -0.046098556 -0.025395792
000190 ee 28 8f 3c d1 b5 16 bc 1c 08 7d 3d ae eb ee 3c
       0.017475571 -0.009198622 0.06177531 0.029165115
0001a0 79 9e 47 bc e6 30 ba bc 04 65 e4 bb 3d 0c 7f 3c
       -0.012183779 -0.022728395 -0.00697005 0.015566883
0001b0 0a 87 95 bd cf 99 d6 bd 4a e8 10 3d 08 23 a0 bd
       -0.07301147 -0.104785554 0.035377778 -0.07819182
0001c0 41 cd f6 3a b9 17 5a 3b c0 b2 74 bd 0c a9 2a 3d
       0.0018829481 0.00332783 -0.05974078 0.041665122
0001d0 27 19 0a 3c 78 77 6d bc 0e 5f 6c 3d f8 c8 11 3c
       0.008428848 -0.014493816 0.05770784 0.008898012
0001e0 28 85 e2 bc e6 0a 20 3c 28 5e 27 bc 70 1f bb 3c
       -0.027651384 0.009768223 -0.01021532 0.022842139
0001f0 a2 a8 4b bd 16 46 f4 bc 2e 57 84 bd 7d 9c 8b 3d
       -0.049721368 -0.029818576 -0.06461941 0.06816957
000200 9a 29 d3 bc 55 b5 00 bd 3f 88 55 3d 3e 62 7f 3d
       -0.025776673 -0.03142293 0.052131888 0.06234955
000210 4b 3d 94 bc 9a 55 1f 3d 8b c1 67 3d 40 f8 41 3d
       -0.018095633 0.038899995 0.05658106 0.04735589
000220 df 01 62 3d bd c4 c2 3c 6d 36 f7 3c e8 c9 6b bd
       0.055177566 0.023775453 0.03017732 -0.0575656
000230 d0 db ea 3d 3a 03 42 3b f6 e8 ed bc af a8 17 3e
       0.11467707 0.0029603974 -0.029041748 0.14810441
000240 84 14 00 bd cb 43 67 3d fb f4 58 bd d7 1f fa 3d
       -0.031269565 0.056461137 -0.052968007 0.12213104
000250 b6 b3 26 bd 84 8c ec bc aa 91 af bd 0f 4b 63 bc
       -0.04069873 -0.028875597 -0.08572705 -0.013872876
000260 f1 44 83 bd 79 6f 86 bd ce dc 57 bd 89 07 ab bc
       -0.06409634 -0.065642305 -0.05270081 -0.020877616
000270 a2 22 ad bc 40 0c 67 3d 5e 44 e0 3a 01 46 65 3d
       -0.021134678 0.056408167 0.0017110219 0.055974964
000280 90 70 3b bd 6c 06 97 bc 84 d5 04 bd 69 23 0d bd
       -0.045761645 -0.01843568 -0.032430187 -0.034457598
000290 d3 fc c2 bc 4f d2 1b 3d 39 73 1f 3d 2c a3 31 bd
       -0.023802197 0.038042363 0.038928244 -0.043368503
0002a0 29 67 44 bd 8d bd 85 3c 03 df 80 bb 5d db a5 ba
       -0.047949944 0.016325736 -0.003932835 -0.0012653876
0002b0 79 48 92 3c 4d 1d 2e bd 81 84 a3 3d 9e 0d ce bc
       0.017856823 -0.042508412 0.079842575 -0.025152978
0002c0 75 cb a5 bd 0f 02 14 3d 9f d5 49 bd d4 81 63 bc
       -0.08095447 0.036134776 -0.04927599 -0.013885934
0002d0 11 8d 33 bd e6 de 3c bd db 9e 62 bc 8e 6a 29 3c
       -0.043835703 -0.04611101 -0.013831819 0.010340346
0002e0 17 c1 b3 bd b5 db d4 bd aa 11 57 3b 33 64 15 3d
       -0.08777063 -0.10393468 0.0032816925 0.03647251
0002f0 d2 77 21 3e 09 1a f2 ba 1b bf f0 bc 84 0b 43 3c
       0.15768364 -0.0018470894 -0.029388001 0.011904601
000300 dc 88 df 3c b7 35 f2 3c 18 7e c3 3c 50 d4 2e 3e
       0.02728694 0.029566629 0.023863837 0.17073178
000310 af 38 e5 3b 8f db 8e 3b 0b f8 93 39 e3 11 fe bc
       0.0069952826 0.0043596695 0.0002822283 -0.031014388
000320 a9 43 4e bd ef 36 2d 3d 94 64 95 bd 6c 5b d9 bd
       -0.050357495 0.042288717 -0.072945744 -0.106131405
000330 5a 09 1f bd ad 9c 08 bb ff 03 5e bc f5 fe 5c bd
       -0.038827278 -0.002084534 -0.013550757 -0.053954083
000340 78 9d c8 bc 1e 27 d4 3b d2 af 32 3d 6f cb 4d 3c
       -0.02448915 0.0064743897 0.043624707 0.012560709
000350 16 2a 06 3d d6 b9 de 3c b8 34 30 bd f2 43 9e 3d
       0.03275498 0.027188223 -0.043019027 0.07727803
000360 bb ba fd 3d 99 2b c2 3c f7 a2 41 3c 76 52 ab bd
       0.12389132 0.02370243 0.011818639 -0.083653376
000370 ea 48 ec bb 5e 37 a2 3c 95 03 48 3d 45 25 bd 3c
       -0.0072108405 0.019801792 0.04883154 0.02308906
000380 10 d8 be 3d e7 60 18 3d 55 ea b6 bd 8d 92 7e bd
       0.093185544 0.03720179 -0.08931414 -0.06215148
000390 2c bc 88 bd a6 aa 0a bd da d6 48 bd 8e 3d 04 bc
       -0.06676516 -0.03385415 -0.049033023 -0.008071316
0003a0 11 5c 2e bd eb 7c 2a bd 76 1b a9 3c 3a fe 4a 3d
       -0.04256827 -0.041623037 0.020642977 0.049558856
0003b0 83 c1 31 3d 82 d8 11 bc 8f e0 0a bd 78 67 d7 3d
       0.043397438 -0.008901717 -0.033905562 0.10517782
0003c0 22 f0 13 bd e7 c7 14 3d 6b 65 63 3d 39 f8 21 3d
       -0.03611768 0.036323454 0.05551664 0.039543364
0003d0 62 40 f7 3a 6f c5 43 bd d7 e9 9f bb 7e 19 dd bc
       0.0018863792 -0.04779571 -0.004880171 -0.026989695
0003e0 9c 65 b6 3a f8 52 58 3c 0c ab 48 bd 8b b0 25 bd
       0.001391578 0.013203375 -0.048991248 -0.040451568
0003f0 7d 27 28 bd ee f7 23 3c 52 2c 8a 3b 0a 85 1e bd
       -0.041053284 0.0100078415 0.004216709 -0.038701095

encoder.actor_encoder.net.mlp.2.bias f4 [256]
000000 f7 b9 f5 bb 22 8b 72 bd af 56 5f 3c 76 ed 2a bd
       -0.0074989754 -0.05921472 0.013631507 -0.041730367
000010 2d 5f 13 bd 2e 7f 3d 3d 3c 5f 93 3d ea 06 66 3c
       -0.03597944 0.046263866 0.07195899 0.014039734
000020 ef 50 fc 3c bb 1d ca bd 19 27 47 3d 7d 84 ca 3a
       0.03080031 -0.09868952 0.04862127 0.0015450862
000030 91 fa 20 3c 1b 1f ca bd 1c 97 13 be 5a ef 87 3d
       0.009825365 -0.09869214 -0.14413112 0.066374496
000040 d9 69 a4 3b 19 6b 52 3d 8b 0a 23 3c 49 8b 52 3d
       0.005017501 0.051371668 0.009951244 0.051402364
000050 61 2d 70 bd 9f 74 1d bd 9b 4f 34 3d 41 a9 94 bd
       -0.058637027 -0.038441297 0.04402123 -0.07258845
000060 e0 e9 b4 3d 2c c8 3e 3c da 8a 06 3d 0f 6c 02 be
       0.088336706 0.011644404 0.032847263 -0.12736534
000070 89 14 71 3d 7c b2 aa 3d 18 4b 03 3e 75 69 ef bd
       0.058857474 0.083348244 0.12821615 -0.11690036
000080 bd 0c b0 ba e8 51 70 3d 15 59 07 3e 25 db 16 bc
       -0.0013431531 0.058671862 0.13217576 -0.009207522
000090 14 52 27 3d 6d 06 7a 3d c5 fd f4 3c c9 28 c6 3c
       0.04084976 0.061041284 0.029906163 0.02418937
0000a0 08 fc 9e 3d 51 e9 48 3c 26 0d d6 bd 4f 6c f4 3d
       0.07762915 0.012262658 -0.104517266 0.11934721
0000b0 d9 c2 9c 3d 4b 77 b4 3d 54 2e a0 3d d0 b8 39 3d
       0.07654352 0.08811816 0.078213364 0.045342267
0000c0 6b 9a f9 bc c7 8c 0b 3d 1e 55 4b 3c 6a 1e 91 bc
       -0.03046914 0.034069803 0.01241043 -0.017714698
0000d0 f1 86 8f bd eb 12 26 3d e5 f8 b8 3d 64 1d 06 be
       -0.0700816 0.040545385 0.09031848 -0.13097149
0000e0 1d 5b 60 bd 76 81 a2 3c 77 26 73 bd 20 73 13 ba
       -0.054774392 0.019837122 -0.059362855 -0.000562476
0000f0 d9 57 85 3d 8a 22 be 3d 70 ab 1a bc 24 f3 92 bd
       0.06510896 0.092839316 -0.009440288 -0.07175282
000100 67 b2 09 3d 25 77 21 3d 7b a7 e5 bd eb a6 0e bd
       0.033617403 0.039420266 -0.11213585 -0.034827154
000110 a6 14 e6 bc 93 93 97 3c 05 5d 2e bd 0c 5e a7 bd
       -0.028086018 0.018502986 -0.04256918 -0.08172235
000120 76 f1 dc 3b 7b 50 30 bd 46 77 a8 3d 49 b5 7a 3b
       0.0067426516 -0.043045502 0.082258746 0.0038255027
000130 75 26 5d 3c 09 4f eb 3c be 4e 2c bd 80 7d cd 3c
       0.013497938 0.02872421 -0.042067282 0.025084257
000140 c8 7c f0 3d 48 41 40 3d 3e 88 b1 3d 7a 4b 46 bc
       0.1174255 0.046937257 0.08668564 -0.012102956
000150 29 49 25 bd f1 ef 49 3d 00 46 88 bc af 81 08 3e
       -0.040352974 0.04930109 -0.016634941 0.1333072
000160 61 82 8a bd 53 0c a2 3d 42 25 90 bc a5 70 06 bd
       -0.06763149 0.07912507 -0.01759589 -0.03282227
000170 eb 86 82 3d ee 03 02 3e a7 c4 59 bd 53 ba 85 bd
       0.0637339 0.12696812 -0.053166058 -0.06529679
000180 49 f5 f3 3c 0c eb 0c 3d 35 47 79 3d a2 90 1c be
       0.029780047 0.034403846 0.060858924 -0.15289548
000190 64 79 aa bc fa 23 ac bd 9c ea 17 bd c7 a1 83 bd
       -0.020809837 -0.084052995 -0.037088975 -0.06427341
0001a0 36 91 1e 3e e0 79 82 3d 78 fb 34 bd 5c 58 a4 bc
       0.15485081 0.06370902 -0.04418513 -0.020061664
0001b0 da 92 11 bd d4 4d 72 bd 45 aa 54 bd 48 92 91 bc
       -0.03554044 -0.059156254 -0.051920194 -0.017769948
0001c0 47 5a 4f 3d e2 83 f8 3d 60 b9 ca 3d 3d 79 b4 bc
       0.050623205 0.1213453 0.09898639 -0.022030467
0001d0 8f bf 8f bc 95 7d 23 3d 1b 32 47 bc 05 97 3d 3d
       -0.017547397 0.039914686 -0.012157942 0.0462866
0001e0 98 67 92 bc 78 c1 bd 3d 14 42 53 bd b6 7a 16 bc
       -0.017871663 0.09265417 -0.05157669 -0.00918453
0001f0 cc 6e 5c 3d cf 25 19 3d 20 de 9d bd 35 93 3b bd
       0.0538166 0.037389573 -0.077083826 -0.045794684
000200 3c ec 36 3c 89 fa 95 bd d9 1f e8 3c b6 39 f7 bd
       0.011164721 -0.073231764 0.028335499 -0.12071554
000210 9c fa 4c bd 49 36 32 3b fe 58 16 3c b5 c9 25 3c
       -0.050043687 0.0027193 0.009176491 0.0101188915
000220 06 6e 0c bd 97 7c f8 3c d0 a6 84 3c be 46 5f 3d
       -0.034284614 0.030332847 0.016192824 0.054510824
000230 74 47 00 bd 42 66 db 3c 46 67 1e bd 5e 63 0b 3d
       -0.031318143 0.026782159 -0.038672708 0.03403031
000240 ea 76 4e bd 1a 65 a8 3d 84 be 56 bb 7d 43 bc bd
       -0.050406374 0.082224086 -0.0032767365 -0.0919256
000250 d3 92 02 be 31 fa c8 3d 11 77 29 3d aa 70 83 bc
       -0.12751321 0.09813345 0.041373316 -0.016044933
000260 60 dc 96 bc e2 d1 81 bc b8 1f 85 bc 6b af 0b bd
       -0.01841563 -0.01584715 -0.016250476 -0.03410284
000270 0a 8e 37 bc 54 79 d7 bd de 81 30 bd 1b 40 1e 3d
       -0.011203298 -0.105211884 -0.0430926 0.038635354
000280 23 e5 9d bb ca f2 95 bd 3c 88 1a bd 4f 76 06 3d
       -0.004818575 -0.07321699 -0.03772758 0.03282767
000290 f7 2b 12 bd 87 8f 55 3d 19 c0 33 3e 56 ed c0 3c
       -0.03568646 0.05213883 0.17553748 0.02355067
0002a0 9e bc 2c 3c 54 cb 8d 3d 06 bc 5c 3c 85 78 77 bd
       0.010543017 0.069235474 0.013472563 -0.06041767
0002b0 b6 b7 6a 3d f3 08 97 bd 78 93 8d bd cc 9e c9 bd
       0.057304107 -0.07374754 -0.06912893 -0.09844741
0002c0 a9 a8 76 3d 5a 0d 4f 3d 70 c9 5e 3d 36 d9 7b bd
       0.06021944 0.050549842 0.054391325 -0.061486445
0002d0 c6 9b 3d 3d 39 59 89 bd 60 4c f9 bc 6f 77 e8 3d
       0.046291135 -0.06706471 -0.030431926 0.11350905
0002e0 a2 c5 71 3d 29 b9 31 bd 9b 78 93 3d f5 76 b0 3d
       0.059026368 -0.043389473 0.07200738 0.08616439
0002f0 d9 30 d3 bd d9 f2 db 3c 15 35 08 3e f1 ec 20 3d
       -0.10312051 0.026849197 0.13301499 0.039288465
000300 56 22 1b 3c 37 cd db bd 4f 04 12 3e 09 84 84 bc
       0.009468636 -0.10732501 0.14259456 -0.01617624
000310 ae eb 54 3c 75 cd 92 bc c0 81 95 3c 1c 5f 3f bd
       0.012995644 -0.017920235 0.018250346 -0.046721563
000320 4c e4 a7 bc 07 a1 43 bc 5e 8c 37 3d fc 26 0c bd
       -0.020494603 -0.011940247 0.0448116 -0.034216866
000330 3f db 8d bd bc cc c3 bd 29 d6 58 3d 2f 52 5b 3d
       -0.069265835 -0.09560534 0.052938614 0.053545173
000340 a6 e1 14 bd a0 2c e7 3d 7a d5 c3 bd 38 07 a2 3d
       -0.036348008 0.112878084 -0.09562202 0.07911533
000350 fa 63 9c 3d d9 da 2e 3d 4e e2 d8 3c 1f a2 44 3d
       0.076362565 0.04268918 0.026475098 0.048006173
000360 6d 14 ac 3d a5 8a 54 bd a3 18 bb 3d 13 fb de bc
       0.084023334 -0.051890034 0.091355585 -0.02721933
000370 57 f6 42 3d e2 f8 1a 3e c6 3f ff bc 75 bf 2c bd
       0.04759821 0.15134004 -0.03115834 -0.042174775
000380 63 19 9d 3b d0 be c3 bd 48 e8 fe bc e6 00 24 bc
       0.004794286 -0.09557879 -0.03111662 -0.01000998
000390 f2 e6 49 bd 1a 34 cc 3d be 5b 15 bd 08 5b 92 3c
       -0.049292512 0.09970875 -0.036464445 0.017865673
0003a0 76 82 91 3b d0 52 40 bd 71 e5 2a 3d 3b 50 b7 bc
       0.004440601 -0.046953976 0.04172272 -0.022377124
0003b0 d8 d1 97 bd eb 5d 11 3e 6d 66 75 bd c0 25 88 3c
       -0.074130714 0.14195983 -0.059912134 0.016619563
0003c0 62 91 9d ba 74 c5 4f bc 1a 9e da bd 8b 09 5e bd
       -0.0012021477 -0.012681354 -0.10674687 -0.05420832
0003d0 1b a8 b4 3d 32 68 38 3b cb e5 e7 bc c8 2f d0 bb
       0.08821126 0.0028138277 -0.028307816 -0.006353352
0003e0 fb 9c c9 3c 15 01 99 3c de ad ad bd b6 a7 61 bd
       0.024610987 0.018677274 -0.08480428 -0.055091582
0003f0 e8 23 23 3d f9 38 bb 3d 65 2f 17 be e3 63 43 3e
       0.039829165 0.09141726 -0.14764173 0.19081073

encoder.critic_encoder.net.mlp.0.weight f4 [256, 54]
000000 ff 87 14 3e da b4 52 bd c0 33 70 3b 95 7c 83 3d
       0.14505003 -0.051442005 0.003665194 0.064202465
000010 45 d9 54 bb be 40 e3 bc 67 ca dc bd 74 ac ed bd
       -0.0032478136 -0.027740832 -0.10780793 -0.116051584
000020 ec 20 71 bc cc 19 ff bd 3e bc 34 bd 3f a9 d1 bc
       -0.014717322 -0.12456092 -0.044124834 -0.025593398
000030 a1 f2 c1 3d e5 37 07 3e ea 5f 8b 3d 65 5f 1b 3d
       0.09470106 0.13204916 0.068054035 0.037932772
000040 99 d1 14 3d f5 67 58 3d 63 d6 38 bd 32 8c 07 3d
       0.0363327 0.052833516 -0.04512633 0.033092685
000050 80 df 3c bd 49 d9 0c be 3e 7f 1b 3c 79 25 c9 3d
       -0.046111584 -0.13754763 0.009490786 0.098216005
000060 32 ba 89 3d bd e7 b1 3d ff c1 92 3d a4 60 44 3d
       0.06724967 0.08686779 0.07165908 0.047943726
000070 9d ff 95 bd 97 30 2c 3d 14 fc a2 bc 41 63 1d 3e
       -0.07324145 0.042038526 -0.01989559 0.15369894
000080 39 d4 a4 bc bf f0 11 bd 35 47 c2 bd 12 0c db bc
       -0.020120727 -0.035629984 -0.09486238 -0.026739154
000090 4a fe ad 3c 44 b7 dd bd 70 ac 92 bd 95 59 d8 bb
       0.021239419 -0.10825971 -0.07161796 -0.006602476
0000a0 11 01 c5 bd 53 88 10 be 75 a4 57 bd 8b bf 9e 3d
       -0.09619344 -0.14114504 -0.052647073 0.07751378
0000b0 cd cc 5e bc 7a e0 9f 3d 64 b6 b8 3d fd 11 0d be
       -0.013598633 0.078064874 0.09019163 -0.13776393
0000c0 c3 d0 c4 bd 55 d8 ae 3d 23 25 3d 3d 25 b2 5a bc
       -0.09610131 0.08537356 0.046177994 -0.013348137
0000d0 2b b5 ed bd 44 18 d8 bc ce 63 be 3d 03 fe 1a bd
       -0.11606821 -0.026378758 0.0929638 -0.0378399
0000e0 74 c3 c9 3d 26 96 ad bd 90 b3 b7 3c 97 89 47 bd
       0.09851733 -0.08475904 0.02242449 -0.0487152
0000f0 b3 bf d5 3d c4 d1 76 bc fb 0c 35 be d2 fc 09 3d
       0.10436954 -0.01506466 -0.17680733 0.033688374
000100 ad c2 f8 3b 83 b8 fb 3d ee 5d 20 3d 49 ac d9 bd
       0.0075915665 0.12291052 0.03915208 -0.10628564
000110 58 76 19 3e 4c 6f 1e 3c 60 43 8a bd ec 56 ee 3c
       0.14986551 0.00967009 -0.06751132 0.029094182
000120 94 e8 9f bc 5e 7e 58 bd 11 45 d2 3b 0a af 6c 3d
       -0.019520082 -0.05285489 0.0064169248 0.057784118
000130 66 ba da 3c ae 7d cc 3d 8a 1c 75 bd 96 3b d1 bc
       0.02670021 0.09984909 -0.05984167 -0.025541108
000140 1a 37 ae bd bd 58 05 3d c3 4b 25 3c 52 5b 13 3e
       -0.085066035 0.03255533 0.010088864 0.14390305
000150 e0 f6 50 bd b2 bd 3a bc f3 8b 8b bd 17 5b 58 bd
       -0.05101669 -0.011397766 -0.068138026 -0.052821245
000160 3f 8d cf bd c8 5b 7f 3d 9c d3 39 bc 27 5b 41 bd
       -0.101343624 0.06234339 -0.0113419555 -0.04720607
000170 87 a8 a6 3d a2 06 4f 3c 87 8f 1f 3d b2 fc ce bd
       0.08137613 0.012635859 0.038955238 -0.101067916
000180 49 54 94 bd 76 1a 63 3d f9 be 10 3d fa 9f a4 3c
       -0.072426386 0.055445157 0.035338376 0.020095814
000190 d0 da dc bd 6d ee ae bd 19 8d a6 bd 74 cf 3c 3c
       -0.10783923 -0.0854157 -0.08132381 0.01152407
0001a0 47 f9 9f bd b6 8c 11 be 01 0b fd 3d 5f ab d2 3c
       -0.07811218 -0.14213833 0.123556145 0.025716482
0001b0 29 97 cb 3d 0f 0d 81 3d b4 3c b0 3b fb ed 12 be
       0.09940941 0.06301319 0.00537833 -0.14348595
0001c0 4a a8 e1 3d 64 46 d2 bd 1f 01 cd bd bb b4 e6 bd
       0.11018427 -0.10267332 -0.100099795 -0.1126494
0001d0 17 98 a8 3b 82 e7 c3 3d 21 41 03 3e 2c ec 02 3e
       0.0051450836 0.09565641 0.12817813 0.12785405
0001e0 79 e8 fa bc 12 c4 ee bd 9b 57 e3 3d 4a 15 c5 3d
       -0.03062843 -0.11658491 0.11100694 0.09623201
0001f0 f9 61 e6 bd 2d 8e 51 3d 6e 95 d1 bc 97 86 8c 3d
       -0.112491556 0.05116098 -0.025583949 0.068616085
000200 bb 62 c3 3d 10 d6 05 be a2 7e db 3d 69 2c f9 3b
       0.09540316 -0.1306994 0.10717513 0.007604171
000210 2e 59 e0 bd 88 19 37 bd f9 01 53 bd cd ed c9 bd
       -0.1095451 -0.044702083 -0.051515553 -0.0985981
000220 79 9a e7 3c a7 98 4b 3d a7 7c eb bd 2c fb 36 be
       0.0282719 0.049706127 -0.11498385 -0.17869252
000230 bf cb ac bd 02 99 bc bc 02 a3 c6 3d 34 2a 1e bc
       -0.08437299 -0.023022179 0.0969906 -0.009653617
000240 c6 da 8f 3d f0 23 ef ba 63 16 bd bd f9 58 e7 3d
       0.070241496 -0.0018244963 -0.092327856 0.11296267
000250 5a 1d e8 bd f3 ef 84 3d 40 30 c9 bc d1 f8 d3 3d
       -0.11333723 0.06491079 -0.02455914 0.10350192
000260 d1 39 68 bb b8 3f a4 bd 8b 3b 71 bc fd c4 73 bd
       -0.0035434852 -0.08019966 -0.014723669 -0.059514035
000270 4d 31 c6 3d 23 d2 4d 3d 2c db 02 bd 21 8c 46 bc
       0.09677372 0.05024923 -0.0319473 -0.01211837
000280 c2 86 1b 3c cf d6 00 3e 2f 67 75 3e 5b 72 1d bd
       0.009492578 0.12581943 0.23965143 -0.038439136
000290 bf 45 48 bd 5f 94 ba 3d 4e a4 ec bc bb 1c 27 3d
       -0.04889464 0.09110331 -0.02888694 0.040798884
0002a0 bd 5e b7 3d bc 35 bd bd 52 ec ad bd 23 25 9b bc
       0.08953617 -0.09238765 -0.0849234 -0.018938607
0002b0 ca 8d e9 3d 4e 30 1f be 69 50 0f 3d 46 03 94 3d
       0.11403997 -0.1554577 0.034988794 0.07227187
0002c0 73 4d 3a bd cd cb c3 bd 85 bc a0 3d 72 5a 21 3d
       -0.045484018 -0.09560356 0.07848457 0.039392896
0002d0 cd 26 04 3e 72 ae 2a bd 2c ef 05 3e 64 8e 02 3e
       0.12905426 -0.04167027 0.13079518 0.1274963
0002e0 f4 c4 d1 bd 00 58 f3 bd 34 d7 1e 3d f0 c0 4f bd
       -0.10242644 -0.11882019 0.038779452 -0.05072111
0002f0 1c 35 20 bd a2 cc 9b 3d 6d 7c 0e bd df 7e 7b bc
       -0.03911315 0.0760739 -0.03478663 -0.015350073
000300 e3 fd 30 bd a6 32 a8 3d 95 e1 6f 3d a6 96 e7 bd
       -0.043210875 0.082127854 0.05856474 -0.11308031
000310 b5 c5 da bd f9 a7 65 bd a7 4f 03 3e b2 ca 27 3e
       -0.10682241 -0.056068394 0.12823354 0.16385916
000320 1a 7c 7f bd 3f c6 5c 3d 49 18 26 3e c2 89 b3 3c
       -0.06237421 0.0539 0.16220202 0.021916274
000330 69 b8 37 3e f3 26 2e 3b 26 b1 c1 bc 49 be 2a 3d
       0.1794144 0.0026573509 -0.023644041 0.041685376
000340 03 48 7e bc 92 4e 34 3d 7b 86 a8 bc 01 e0 cc bd
       -0.015520099 0.044020243 -0.020571938 -0.10003663
000350 08 43 75 bd b0 1d 49 3d c7 b6 e0 3d af de 63 bd
       -0.05987838 0.049100578 0.10972362 -0.05563229
000360 91 6d e5 bd 46 ae 9b 3d c1 54 ac 3d 39 d8 11 be
       -0.11202539 0.076015994 0.08414603 -0.14242639
000370 18 77 f7 39 f3 37 1e bd af 47 dc 3d 7a dc 80 3d
       0.00047200243 -0.038627576 0.1075586 0.062920526
000380 61 11 94 bb 56 d8 e5 bd 6b c7 ca 3d 69 2b f0 ba
       -0.0045186733 -0.112229034 0.09901317 -0.0018323484
000390 11 50 d6 3c e5 74 0f 3d c6 6f 08 bb 17 fc 04 bd
       0.026161226 0.03502359 -0.0020818575 -0.032466974
0003a0 c5 61 b5 bd 45 5b 01 3e 30 2d 2a 3d 13 67 86 bd
       -0.08856539 0.12632473 0.041547 -0.065626286
0003b0 4b 1f ca bc 70 ac 3c be b6 01 2e 3d f6 da 71 3d
       -0.024673125 -0.18425155 0.0424821 0.059046708
0003c0 d8 d3 8d 3d f5 c9 ca bd 3d 8b 0c 3d f5 91 97 3d
       0.069251716 -0.099018015 0.034312475 0.07400886
0003d0 82 7e 1c be 52 89 c8 3d 1a 48 c8 bb 3d a9 57 3c
       -0.15282634 0.09791817 -0.006112111 0.013162908
0003e0 64 5b e7 bd c6 84 07 3e e7 91 a2 bd c2 2a a7 3d
       -0.11296728 0.13234243 -0.07937985 0.08162452
0003f0 a6 b7 40 bd b8 fa 84 bd 46 64 00 bd e0 64 29 be
       -0.04705014 -0.06493133 -0.03134563 -0.16542387

encoder.critic_encoder.net.mlp.0.bias f4 [256]
000000 a1 ab a2 3e 6e a8 8f be 90 3e 2e 3e 50 01 07 3e
       0.31771567 -0.2805819 0.17016053 0.13184094
000010 f4 28 94 3c 70 78 79 3e d6 bd 29 be 21 a4 e1 be
       0.018085934 0.2436235 -0.16576323 -0.44070533
000020 52 7e ea bc 9b 01 66 be d7 5f 0a 3f 58 47 56 3e
       -0.028624687 -0.2246155 0.5405249 0.20925653
000030 d1 ca 42 bd f9 81 0c be 11 60 63 3d 0b 4b a6 bc
       -0.047556702 -0.13721456 0.055511538 -0.020299455
000040 44 fd 0e 3e cc 1d 3d 3e 7d 80 22 be 9a d7 8d bd
       0.139638 0.18468398 -0.15869327 -0.06925888
000050 4b ad cb 3e 57 d5 6a 3e 33 90 9b be 8e c4 37 3e
       0.3978065 0.22932945 -0.30383453 0.17946073
000060 fb 44 17 be 3a d0 d9 bd a5 0a 3b be 2e 4d 12 be
       -0.14772408 -0.10635419 -0.1826578 -0.14287254
000070 9d 5e d1 be 99 e0 08 be 95 1b 36 3d ed 27 f4 be
       -0.40892497 -0.13366927 0.044459898 -0.4768671
000080 14 63 94 be de 14 2c be 86 1f 45 be f2 86 a2 be
       -0.2898184 -0.16804835 -0.19250306 -0.3174358
000090 43 19 e3 be 92 f4 31 3e ce 02 e5 3e 6d 11 45 3e
       -0.4435521 0.17378452 0.44728702 0.19244929
0000a0 94 b5 df bd bb 0b b7 be 97 d0 a5 3e 93 43 ec 3d
       -0.10923305 -0.35751137 0.32385704 0.11536326
0000b0 f1 51 57 3e 19 7b 0b 3f a8 49 a4 3e 37 61 91 3e
       0.21027352 0.5448471 0.32087445 0.28394482
0000c0 a1 a7 78 be a1 e9 95 3e b4 73 19 3d 05 cd 13 3c
       -0.24282695 0.29279807 0.03746386 0.009021048
0000d0 57 44 c7 3d 0a e8 93 3e 11 9e c7 3e 4a 2e 1b be
       0.09729832 0.2888797 0.38987783 -0.15154377
0000e0 3d f4 32 be e2 9f 4c 3e de d5 22 bd 8b 00 86 3e
       -0.17475982 0.19982865 -0.03975474 0.2617229
0000f0 fe 00 87 3e 89 0e cf 3e bc a0 03 be 85 b5 95 3e
       0.26367944 0.40440777 -0.12854284 0.2924005
000100 a4 90 b1 bc 44 6d 46 bd 96 ed ac 3e bf de 84 3d
       -0.021675415 -0.048444048 0.33775014 0.06487798
000110 f5 ee d4 3d d3 33 1b bd d9 f6 f1 3e a8 e2 ce be
       0.1039714 -0.03789122 0.47258642 -0.404073
000120 fb f7 98 be 5a 2b df be 18 b4 84 be 85 b0 d1 3e
       -0.29876694 -0.43587762 -0.2591865 0.40954986
000130 28 16 12 bd 4e e1 d1 bd 45 09 8c be 64 f2 9f 3d
       -0.03566566 -0.102480516 -0.27350822 0.07809904
000140 56 66 82 be ba 2f 48 3e bf 34 06 bf 4c d7 bc 3e
       -0.254687 0.19549456 -0.52424234 0.36883008
000150 b4 af 57 be 30 a7 02 3e 62 58 fc 3c ba fb 7d bd
       -0.21063119 0.1275909 0.030803863 -0.062007643
000160 2e ef c7 3d b9 c3 81 3d 7f f8 95 3a da 35 d1 3e
       0.09762417 0.06336159 0.0011441855 0.40861398
000170 10 49 3e bc 1c c2 1f 3d 4b 99 66 3e fb ab ac 3e
       -0.011614099 0.039003477 0.22519414 0.3372496
000180 d1 de 78 3d 9a a6 96 be 4e f4 b4 bc 17 88 86 3e
       0.06075937 -0.29423982 -0.02208915 0.26275703
000190 d9 e7 5f be 48 00 b3 be c0 a5 dc 3e 3e 9c 45 be
       -0.21865787 -0.34961152 0.43095207 -0.19297883
0001a0 6b 55 8f be 0c bc 81 3e aa 2d 72 3e c8 4d 0c 3e
       -0.27994856 0.2533878 0.23650232 0.13701546
0001b0 a4 9a 48 be 38 80 cc bd 3c ff 2f 3e c8 b4 e6 3e
       -0.1959024 -0.09985393 0.17187208 0.450598
0001c0 e9 0a a0 3e e0 1e 67 3e 31 0c 2a be 19 4c 1d be
       0.31258324 0.22570372 -0.16606213 -0.1536106
0001d0 db 34 4c 3e a8 bd e3 3e 69 f3 a0 be c5 e7 53 be
       0.19942038 0.44480634 -0.31435707 -0.20693882
0001e0 1b a9 7e 3e ed 33 66 3e 2a 9f e8 be ee cd 51 3e
       0.24869196 0.22480746 -0.45433933 0.20488712
0001f0 0e 5f 80 3e 8e 44 80 be 19 a6 92 3e 9c 0e e9 3d
       0.2507252 -0.25052303 0.28642347 0.1137974
000200 fe 1e 9e 3e a2 89 28 be ca 09 35 3d ce 7b 41 bb
       0.3088302 -0.16458753 0.04419879 -0.0029523256
000210 06 b4 8d 3e 66 57 70 3e d6 7c 94 bd 7a 84 92 3e
       0.2767641 0.2347084 -0.07250373 0.28616697
000220 d5 62 d5 3d 31 84 b9 bd 6b 2d a7 3e 1f 66 9f 3e
       0.10419241 -0.09058417 0.3265184 0.311326
000230 03 ee eb 3e f3 56 9b 3d 92 db 88 be 10 c9 be 3e
       0.46080026 0.075849436 -0.2673002 0.37262774
000240 9b 24 ea 3e f5 c6 8e be 59 f4 d9 3d 84 ab 61 be
       0.45731053 -0.27886167 0.10642309 -0.22038084
000250 b4 46 72 be 8d 5a 25 bd a5 bd c1 3e 0a 04 b6 3d
       -0.23659784 -0.04036956 0.3784 0.08887489
000260 da b6 ad bd 21 1e 6a 3e d3 23 dc bd 08 59 d7 bd
       -0.08482142 0.22863056 -0.107490204 -0.10515028
000270 c0 b2 03 be 94 ba 89 be 8a 34 d8 3c 35 7e 89 be
       -0.12861156 -0.2690016 0.02639224 -0.268541
000280 33 80 84 3e 8e a2 a9 3e a0 a1 03 be e3 55 61 3e
       0.25879058 0.33131832 -0.12854624 0.2200542
000290 67 75 a4 3e bc ae 94 3e 75 72 01 bd 4e 19 20 3e
       0.3212082 0.29039562 -0.031603295 0.15634653
0002a0 b6 56 c0 3e df 80 21 3e d9 69 5c be ee d9 b7 3e
       0.37566155 0.15771817 -0.21524753 0.35908455
0002b0 56 82 aa bd 0a 50 8f be 58 93 a1 be da a9 a3 be
       -0.08325641 -0.27990752 -0.31557727 -0.31965524
0002c0 b2 87 71 ba bc 10 ce bd 0f af 83 3e f4 aa 95 3e
       -0.00092136406 -0.100617856 0.25719497 0.2923199
0002d0 e3 ce 9d bc 0d a2 21 be 71 80 b2 be 3b 3b 9b be
       -0.01926369 -0.15784474 -0.34863618 -0.30318627
0002e0 0a 42 74 3e 8e b1 4b 3e 14 9d ff 3e 25 50 c8 be
       0.23853317 0.1989195 0.4992453 -0.39123645
0002f0 50 8f ca 3e 43 02 d3 be 90 29 66 bd a0 31 6d 3e
       0.39562464 -0.41212663 -0.05619198 0.23163462
000300 d0 f5 24 3e dc c6 be bb 7d e9 69 be 26 b3 a8 3e
       0.16109395 -0.0058220457 -0.22842975 0.3294918
000310 c7 81 91 bd 6f d7 73 3e 5b b6 97 3d 2c fb 33 be
       -0.07104831 0.2381265 0.074078284 -0.17576283
000320 a4 6c a5 3d 65 4c 54 be 91 45 c4 3e 90 b9 25 bd
       0.08077362 -0.20732267 0.38334325 -0.04046017
000330 57 b0 cf 3e 61 e4 a2 be 95 62 4a 3e 24 88 da be
       0.40564224 -0.31814864 0.19764169 -0.42681992
000340 20 63 e9 be 6c 91 2a bd d5 83 1f 3b 6b e9 51 3e
       -0.4558344 -0.04164259 0.0024340053 0.20499198
000350 85 9d 9e 3e 28 60 84 be b8 20 b2 bd 5a cc fa be
       0.30979553 -0.2585461 -0.08697647 -0.48984033
000360 b9 05 53 be 40 80 60 be ef 32 1d be 71 9e 54 3e
       -0.20607652 -0.21923923 -0.15351461 0.20763566
000370 46 f1 68 be 4c f1 8a be 09 27 ae be 72 a6 1f be
       -0.22748289 -0.2713722 -0.34014156 -0.15590838
000380 a5 95 0c be fe 83 d9 3e e6 b8 b5 3e 2f f3 b3 be
       -0.1372896 0.42483515 0.3549263 -0.35146472
000390 61 ca ad bd a2 41 af 3e 0f c5 cf 3b ef 42 76 be
       -0.08485866 0.3422976 0.00634063 -0.2404897
0003a0 f9 41 9e 3d 45 0f 9a 3c b3 3b bf 3e 67 c6 84 3e
       0.07727427 0.01880611 0.37350234 0.2593262
0003b0 67 9c 27 be 6f 72 8a 3e a9 34 f5 bd cd 28 a3 3e
       -0.16368257 0.2704043 -0.11972935 0.31867066
0003c0 88 27 b2 be 84 93 67 3d c8 a7 ec be d0 5f a3 3e
       -0.34795785 0.056537166 -0.46221757 0.31909037
0003d0 a2 ce 9f be 1c 10 83 3d 01 94 40 be 00 5a 77 3d
       -0.31212336 0.06399557 -0.18806459 0.060388565
0003e0 2a b8 90 3e 38 fe 5a 3e 11 15 84 3e ef 85 ac be
       0.28265506 0.2138604 0.25797322 -0.33695933
0003f0 02 35 ab be df 96 a7 bd 54 c5 9d 3e eb a5 08 be
       -0.3343888 -0.08183073 0.30814612 -0.13344543

encoder.critic_encoder.net.mlp.2.weight f4 [256, 256]
000000 e9 9a c6 3c 6d 46 68 bd 80 35 89 3d 18 cb 60 3d
       0.024243789 -0.05670779 0.066996574 0.054881185
000010 5c 2f 89 bd 9e 66 08 bd 09 4b 4d 3d 7f 7c 6c 3d
       -0.06698486 -0.03330099 0.050120387 0.057735916
000020 fb f6 2b bd fa 17 63 bd 78 b6 be 3c 0e 52 1b bc
       -0.041983586 -0.055442788 0.023280367 -0.009480013
000030 5d c9 6c bd 42 42 78 bd 4a 92 6e bc 4f ae be bd
       -0.057809222 -0.060610063 -0.014561245 -0.093105905
000040 38 47 fc 3b 92 ad 63 3d b2 f4 68 3d a1 28 66 bd
       0.0076989196 0.05558545 0.056873985 -0.05619109
000050 cf 37 84 3c 4e 42 66 3d ca 7b 41 3d 05 3f 43 3d
       0.016139893 0.056215577 0.047237195 0.047667522
000060 47 1c 74 bd 55 76 2c 3b 60 94 30 3d 91 8a 41 bd
       -0.05959728 0.0026315649 0.04311025 -0.047251288
000070 23 d2 32 3b 70 18 67 bc a8 7d 35 bd 9d a6 67 bd
       0.0027285896 -0.014104947 -0.04430929 -0.05655538
000080 76 1a 21 bd e1 7b 11 3d 56 15 76 3d 75 05 6a 3b
       -0.039331876 0.03551853 0.06007894 0.003570882
000090 75 f3 2f be af 66 f8 3d be 37 39 3d f4 ea 41 bd
       -0.17182715 0.1212896 0.045219176 -0.04734321
0000a0 25 f6 46 bd 6b 1b 9f bd e6 46 b8 3d b1 e8 83 3c
       -0.048574585 -0.077689014 0.08997898 0.016102167
0000b0 66 ef 07 3d 09 ca 1e bd b9 23 31 bc f9 10 09 bd
       0.033187293 -0.038766894 -0.01081174 -0.033463452
0000c0 0b d2 73 bd 21 c0 ee bc 4e 79 bd 3c cd 85 82 b9
       -0.059526484 -0.029144349 0.023129132 -0.00024895222
0000d0 6e 72 20 3d 39 5a b7 3d 79 f8 a4 3c 74 aa 42 bd
       0.03917163 0.089527555 0.020138012 -0.047525838
0000e0 76 d6 28 3d 4f 84 71 3c 83 d2 77 3d c0 3c 84 3d
       0.04122015 0.0147410175 0.060503494 0.064569
0000f0 88 3f 16 3d ca e1 93 3d f0 fc 78 bd c2 8f 11 3d
       0.036681682 0.072208 -0.060788095 0.03553749
000100 bd 04 f1 bc 9c 94 95 3b 5a 00 73 3d 68 c5 fd bc
       -0.029421205 0.0045648348 0.059326507 -0.03097792
000110 91 5d 5f 3d e8 1d bc 3d 82 96 81 3c b4 da 8d bd
       0.05453259 0.09185392 0.015818838 -0.0692648
000120 6f a2 1c bd ab 33 83 bd ac 8a 8c bd 0b 8b 19 3e
       -0.038240846 -0.06406339 -0.06862387 0.14994447
000130 04 c9 83 3c 6b 6e 21 3a 62 ca 44 bc 9b d9 f2 3b
       0.016087063 0.0006158116 -0.012011142 0.0074111945
000140 ed 6b dc bc e7 09 8e bc f0 86 ac 3b 1d 2c f8 bc
       -0.026906932 -0.017338706 0.0052651092 -0.030294472
000150 e6 e6 92 bd f1 2a 42 3c 1e 2d 94 bc db 36 d7 bc
       -0.07172947 0.011851058 -0.01808792 -0.026271274
000160 ee fb 8f 3c bf 35 43 bc d4 02 65 bd 16 7b ea 3d
       0.017576184 -0.01191467 -0.0559109 0.11449258
000170 2b 2a e0 bc bd 69 54 bc 53 b5 08 bd af b5 0d 3e
       -0.027363857 -0.012964663 -0.03337605 0.13838838
000180 2c f1 aa bd b4 a4 be 3c 32 4d 79 3d dd ff 26 3d
       -0.08346781 0.023271896 0.060864635 0.040771354
000190 ce 0b 1a bd 5b 40 a9 bd a0 02 1c 3d a5 cf fc 3c
       -0.037608914 -0.08264228 0.03808844 0.030860731
0001a0 85 7f 71 ba e7 96 0a bd 9d f0 8b 3d 88 cc 01 bc
       -0.00092124223 -0.033835318 0.06833003 -0.007922299
0001b0 17 02 84 3c b4 51 33 bd 08 64 b3 3d 85 9b f1 bb
       0.016114278 -0.04377909 0.08759314 -0.0073732757
0001c0 b4 3e 3f 3d d5 50 a8 3d fd 98 1c 3d 6e 7c 91 bd
       0.046690658 0.082185425 0.03823184 -0.07103811
0001d0 8d 91 97 3d 63 04 92 3d d5 11 fe bd ec ed 0b bd
       0.074008085 0.07129743 -0.12405745 -0.034162447
0001e0 47 18 30 bd dd fc 5d bb 5c ad bd bd 37 e0 33 3d
       -0.042991903 -0.0033872642 -0.09261581 0.043915
0001f0 be 0c 83 3d d6 cd aa bc a6 88 34 3d 62 a9 41 bd
       0.06398915 -0.020850103 0.04407563 -0.047280677
000200 3d 0a 94 3c f6 d4 bb bd eb 3d 22 3b 00 15 5c 3d
       0.018071288 -0.091714785 0.0024756144 0.053730965
000210 1d 6c cc 3a 86 b4 ef 3d 3e af 96 3d 85 09 ba 3d
       0.0015596185 0.11704354 0.073576435 0.09083847
000220 1d f9 48 3d f8 1f ba 3d 49 66 c5 3c 0b 45 4b 3b
       0.049065698 0.09088129 0.024096625 0.0031016495
000230 73 04 e6 bc a3 f5 c5 3d 8d 32 b1 bc 6b ce f3 3d
       -0.028078293 0.09665992 -0.02163055 0.119046055
000240 af c7 73 3d 86 85 9a 3d 40 d1 7c bb 5f a4 87 bd
       0.059516605 0.07544999 -0.003857687 -0.06623148
000250 d5 4d 41 3d 0e fa 62 3d 96 a9 f8 3d 1b 0b 6b bb
       0.047193367 0.055414252 0.12141721 -0.0035864774
000260 b6 31 d1 3b 6b 90 ad bd 52 c2 ee 3c ec cc be bd
       0.0063841 -0.08474811 0.029145394 -0.093164295
000270 ed 95 32 3d 86 1f c1 ba ed fb b8 bc 4f b0 d0 bd
       0.04360001 -0.0014734126 -0.022581065 -0.10189878
000280 fc 39 4f bd 2d a2 a6 bc da 82 ad 3c d0 96 d1 bb
       -0.050592408 -0.020341003 0.021180559 -0.006396152
000290 ec 77 cb 3d fd 10 22 3d 93 62 13 3d 34 fa 96 3d
       0.09934983 0.039566983 0.03598268 0.07371941
0002a0 a6 34 94 3d 86 59 28 3d df 1e 32 bc 9f 34 e3 3d
       0.072366044 0.041101 -0.010871618 0.11094021
0002b0 50 85 d5 bd f4 62 c1 3c 43 2e 47 bd 5e 79 06 bd
       -0.10425818 0.023606755 -0.048628103 -0.03283059
0002c0 92 2d 69 3d 41 e3 42 bd 1f f1 07 bd 53 40 cb 3d
       0.056928225 -0.047580007 -0.033188935 0.09924378
0002d0 08 08 f0 bc e7 39 3d 3d b4 b8 80 bd 97 93 9b bd
       -0.029300705 0.046197798 -0.06285229 -0.0759651
0002e0 ed 05 2b bb 67 6b 17 bd 5b b3 99 bc b3 60 1b bd
       -0.0026096061 -0.03696766 -0.018762281 -0.037934016
0002f0 5e d4 b4 bc 1c 67 bf bd 63 ac e2 3c 89 80 8d 3d
       -0.02207392 -0.093458384 0.027670091 0.06909282
000300 a6 9f 2a bd ea 3f c0 bc 6c f2 5f bb cf 9b 0c bd
       -0.04165616 -0.023467977 -0.0034171594 -0.03432828
000310 db a6 62 3d 4a ac 24 bc 60 1d 1e 3d c4 4b f0 bd
       0.055334907 -0.010050843 0.038602233 -0.11733201
000320 81 b1 87 3d d6 8d 1f b9 3a 09 8e 3d 98 a3 a2 3c
       0.06625653 -0.0001521626 0.069353536 0.019853398
000330 0a 05 86 3d c5 ed c0 3b 90 9b 92 3d 97 9a cc bd
       0.0654393 0.0058877193 0.071585774 -0.09990423
000340 04 2e e7 bc e1 a8 1f bd 76 bd d0 bc 64 2c 68 3d
       -0.028220184 -0.038979415 -0.025480967 0.05668296
000350 81 0d 4c 3d 00 d7 bf bd 1e be 45 bd ed ac e2 bb
       0.049817566 -0.0936718 -0.048277013 -0.006917587
000360 ff 90 94 3c 24 b2 28 bc 69 9d b3 bc 92 22 5a bc
       0.018135546 -0.010296378 -0.021925645 -0.013313906
000370 68 19 67 bd f1 ed 22 3c 88 fc 90 3b 80 28 8a bd
       -0.056420714 0.009944425 0.0044246353 -0.06746006
000380 17 9b 36 bd f6 6b 77 3d 46 63 cc 3c 8b 94 5d 3c
       -0.0445815 0.060405694 0.024949681 0.013524185
000390 e1 95 c8 3d 5c 58 37 3d ad 79 81 bd e9 55 62 bd
       0.09794212 0.044762 -0.06322036 -0.05525771
0003a0 a9 7e 17 3d 80 f6 59 3d d8 be 01 3e 51 d1 4f 3c
       0.036986027 0.053213596 0.12670457 0.012684182
0003b0 1f 27 88 bd 03 dc df 3d ec 8f 01 3c 1a 61 8c 3d
       -0.06648087 0.10930636 0.007907849 0.06854458
0003c0 80 99 c0 bc 74 a5 4b 3d a3 13 55 3c 6d a2 cd 3d
       -0.023510695 0.049718335 0.01300517 0.10040746
0003d0 18 25 9c 3c a4 5a 7a bd 7d 9e 5c bc 04 95 82 3d
       0.019060656 -0.061121598 -0.013465521 0.06376079
0003e0 39 29 11 bc 19 21 37 3d 79 99 c3 3b ef db 18 bd
       -0.008859926 0.0447093 0.005969223 -0.03731912
0003f0 15 58 b8 3b aa 7c a5 bd 0a 9c ee 3c 92 43 01 3d
       0.0056257346 -0.080804184 0.02912714 0.03155858
