src/checkpoints/ppo_best_checkpoint/learner/module_state/adversary_1/module_state_dir/module_state.pt (torch, 655490 bytes, 11 tensors)

encoder.actor_encoder.net.mlp.0.weight f4 [256, 54]
00000000: bb64 a6bc 1206 94bc a45e d93d f89f cb3d
00000010: 7a2d 8a3c 7c94 02be 4d43 b43d 6079 c8bd
00000020: d6f7 12be a69f fdbd 27ae 29bc 5120 85bd
00000030: e353 853d c16e 5d3d 3dc5 2c3d b1ad e9bd
00000040: 85f4 d73d 4c58 563e fa32 ebbd 2331 6bbe
00000050: b16c 733d eebd 1dbe d845 efbd 646a 29bd
00000060: ca2d 6c3d e702 c13d 4134 813d 9130 eabd
00000070: abad dd3d bf91 cd3d 6a4c c83d 5b4b 173e
00000080: df57 b33d 162b dc3d d463 b1bd a5d5 e1bc
00000090: 0c90 acbd 8f0f 56be 8841 0fbd 2cd8 cfbc
000000a0: 2444 c23c 1ff6 a8bc 9e92 babd 6953 54bc
000000b0: 4f0a b73d 54e7 5f3d 6660 db3d e4b0 f33c
000000c0: f669 afbd 0a2d 043d 5da5 e73d e3a1 e63d
000000d0: 5f40 a8bc fe62 08be 7f00 da3d 6e49 183e
000000e0: 3777 edbd 97e8 a6bd 6aba 363b 7033 ce3d
000000f0: a963 f7ba b9ef 3a3d 4acc 03be 2e99 35bc
00000100: 96a3 9dbd 35c3 223c e970 f3bd d059 0ebe
00000110: abfb da3c 82fc 03be e7ae c0bd a23c 9cbe
00000120: e64c acbd 3f7b 10bd b0cf 8f3d 48d1 15bd
00000130: 21b7 28bd 16fd 523d b0fa e3bd 81c1 d8bc
00000140: feaa f13d 4e6c bc3d de11 92bd 384a d93b
00000150: 3451 45bd 8436 76bd f611 4bbe 63dd 2cbe
00000160: d9a7 bd3d b5aa 6fbe 42d2 d7bc 6a93 563c
00000170: 5f37 ecbd c5d7 e33d fef1 e4bd 2848 20be
00000180: 1f5b 753c e8cd 28bd 97d3 eb3d eb29 af3d
00000190: de0b 01be e9b7 7cbd 46b1 a3bd 8f02 5cbc
000001a0: 59a8 fdbb 4a90 663d 75e9 683d 7f3f 2dbe
000001b0: 1434 133e 546b 01be 0f8e 9b3d 737b b13d
000001c0: 1d30 91bd d46d dcbc ba6c 2fbd 4445 52bd
000001d0: ce62 78bd 052d 833b 4de9 aa3d 6516 b2bd
000001e0: 7723 0a3d 03d2 9dbd d205 1bbd 11da 403e
000001f0: e4af acbe 3ffa 3bbe fef1 ba3c f482 3f3d
00000200: 3807 c63d 3e9f fc3d f298 973c 8a9c 0a3e
00000210: a27d da3d d880 d9bd 4156 80bd 09a6 06be
00000220: 5ca1 4abd 9184 e03d 4089 80bd 7d4d ebbd
00000230: 739e 9dbd 49e8 1b3e 557c febd dc17 2d3d
00000240: 6624 89bd a4d7 40be 86f1 b83d b4da c6bd
00000250: da29 883d 0bff a83d 91c4 ac3d 55f3 aa3d
00000260: b372 6abc b36d 5a3d dff6 c13c 0f10 6d3d
00000270: e141 723b 5e20 9c3d 70a2 4abd b31b 37be
00000280: 9e7f b6bd 18e9 043e 4687 4abd 4395 983c
00000290: 9d41 b2bd 26ba 713d 7390 9dbd b64c 693d
000002a0: e1d2 203e b1eb 493d 871d 38bd 0af1 bbbc
000002b0: 0534 0f3d 88b3 97bd a831 8dbd 4e4c 013e
000002c0: feb2 18be 6501 66bd c4ce b53c 318f 09be
000002d0: 43ce 1b3d d30f 32be 0c45 063c 4bd4 b8bd
000002e0: a6a4 3a3e f927 5e3c be1f 4bbd 5d13 5abc
000002f0: 5dd0 9ebc ab02 8abd 9c5c bdbc 38f4 d23c
00000300: 09b7 99bd 70fb 2ebd 9162 f2bd 255a 0fbe
00000310: 69b9 40bd 7456 273e e5bf e6bd fa79 6bbe
00000320: 374d 8e3d 91cc 99bc 15ae 83bd 5adc bdbc
00000330: ffcd 523d df8d e83b 6db2 a73d a2ba 6bbd
00000340: 6bd0 d83d 2264 2c3d 35c5 21bd 0e7a e53d
00000350: 55b7 30be eaee a43d 87cf 5a3e 58e4 b03e
00000360: 14ba ca3d 2981 e1bd ea7b 7dbd 464e 0c3e
00000370: a452 df3d d71e 09bc 1868 6c3d 2c2c cbbd
00000380: 211c a4bc 651e 7a3d 18b3 043e 23e7 06bd
00000390: c8c7 57bd 0b99 aebc 1799 a4bd 57ab 133e
000003a0: 0f66 2fbe 35b3 1a3e 8a97 ca3d 8cfd 823d
000003b0: 5520 3f3d 023e d1bd d78b cf3d f268 753d
000003c0: 8934 59bc bb8e ab3d ef53 54bd 9821 cc3d
000003d0: 1f1a 253d 9a9d 853d ac8f 8fba e92a b43d
000003e0: d1b3 7d3c 9955 803e 7908 33be 3a06 33be
000003f0: f4e6 013e 10c5 3dbe dfde dd3d 8805 1c3d
-0.020311704 -0.0180693 0.106137544 0.09942621 0.016867388 -0.12751955 0.08801899 -0.097887754
-0.14352354 -0.12383966 -0.010356463 -0.065003045 0.06510141 0.0540607 0.04218029 -0.11410082
0.10544685 0.2093212 -0.114843324 -0.22967963 0.059429828 -0.15404484 -0.116832435 -0.041361228
0.057660855 0.09424382 0.06308795 -0.114350446 0.1082414 0.100375645 0.097802 0.1477484
0.087569945 0.107504055 -0.08661619 -0.027567694 -0.08425912 -0.20904373 -0.034974605 -0.025371633
0.023714133 -0.020625172 -0.09109996 -0.01295934 0.08937513 0.05466397 0.10711746 0.029747434
-0.08565132 0.032269515 0.113108374 0.11261346 -0.020538507 -0.13319013 0.10644626 0.14871761
-0.11595004 -0.08149832 0.0027882108 0.10068405 -0.0018874306 0.045638774 -0.12870899 -0.011083884
-0.07697217 0.009934236 -0.1188677 -0.13901448 0.026731333 -0.12889293 -0.0940836 -0.3051501
-0.08413105 -0.035273787 0.07022035 -0.03657654 -0.04119027 0.051510893 -0.11131799 -0.026459457
0.11800192 0.09200345 -0.07132314 0.006631162 -0.048173144 -0.060110584 -0.1983107 -0.16881327
0.0926053 -0.23404963 -0.026345376 0.01309667 -0.11533999 0.11125139 -0.11178969 -0.15652525
0.014975338 -0.041211993 0.11514967 0.08552917 -0.12602183 -0.061698828 -0.079927966 -0.013428344
-0.007741016 0.05628995 0.056863267 -0.16918753 0.14375335 -0.12638599 0.07595455 0.08666124
-0.07089255 -0.026907839 -0.0428283 -0.051335588 -0.060641102 0.0040031695 0.0834528 -0.08695678
0.03372523 -0.07706072 -0.037847348 0.18833186 -0.33727944 -0.1835718 0.022820469 0.046755746
0.096693456 0.123350605 0.018505547 0.13536277 0.10668494 -0.10620278 -0.062664516 -0.13149275
-0.04947029 0.10962785 -0.06276178 -0.11489389 -0.076962374 0.15225329 -0.12426058 0.042259082
-0.066963956 -0.1883226 0.09030442 -0.09709683 0.066486076 0.082517706 0.084359296 0.08347193
-0.014309573 0.053327274 0.023677288 0.057876643 0.0036965536 0.07623361 -0.04947132 -0.1788166
-0.0891106 0.12979543 -0.049445413 0.018625861 -0.08703921 0.059015416 -0.07693567 0.056957923
0.15705444 0.04929704 -0.044950034 -0.022942085 0.03496172 -0.0740729 -0.06894237 0.12626764
-0.1491203 -0.056153674 0.02219332 -0.1343353 0.038038503 -0.17388849 0.008195173 -0.09024867
0.18226871 0.013559335 -0.04959082 -0.013310281 -0.019386465 -0.0673879 -0.023115449 0.025751218
-0.07505614 -0.04272026 -0.11835206 -0.13999231 -0.04705182 0.16341573 -0.1126707 -0.22995749
0.06948321 -0.018774303 -0.06429688 -0.02317636 0.051465984 0.0070969905 0.08188329 -0.057551034
0.105866276 0.04208768 -0.039494712 0.11204921 -0.17257436 0.08053382 0.21368228 0.34549212
0.09898773 -0.110109635 -0.06188575 0.13701734 0.10904434 -0.008369169 0.05771646 -0.099205345
-0.020032944 0.061064143 0.12958944 -0.032935273 -0.05268076 -0.021313211 -0.08037012 0.1442083
-0.17128776 0.15107425 0.09892185 0.063960165 0.046661694 -0.10216905 0.10134094 0.059914537
-0.013257154 0.08376833 -0.051837858 0.09967345 0.040308114 0.06524201 -0.0010952852 0.08797247
0.015484766 0.25065306 -0.17483701 -0.17482844 0.12685758 -0.18532205 0.10833525 0.038091213

encoder.actor_encoder.net.mlp.0.bias f4 [256]
00000000: 4136 4f3e 9009 80be 16a4 8c3d a182 60bd
00000010: f31a 1dbd b527 383e d17f 623d c25b c0bd
00000020: 90b7 21bd 09a5 19bd a6a8 d53c 95b6 81be
00000030: 26f3 e939 0a2f 7abe 8862 f63d ed68 103d
00000040: b128 5abd ec8d b1bd 095d f1bc bc75 8abe
00000050: 07bc b1bd 60c1 ecbd c33e a0bd 0675 903c
00000060: 08ab 21bd cadc 04be 8895 593d 81a5 023e
00000070: 872d 8f3d ef52 02be 5d4d 4abc 64f8 22bb
00000080: 38da 6a3d 775e 27bc f366 ef3c 8b8b acbd
00000090: 0708 223e c117 07be 7f8b a23d 0a46 8c3d
000000a0: 5fc9 a53d a1e8 18be 22b0 c93d d63d cfbd
000000b0: 3365 5c3b 1dd9 be3d 744c 1ebe 4995 30bc
000000c0: 0719 193d 2e02 2b3e 2200 913c f04a f1bc
000000d0: 4414 2ebe f4ba a2bd bc8c f63c ef26 183e
000000e0: dfec f0bd d05b 29be 5349 73bd 3c8f 633e
000000f0: e747 863d bbf6 103e 1df5 343b 756d 43be
00000100: c9c3 20bd 81f7 24be 2b42 953d 2a21 27be
00000110: 6204 c73d 7a67 f43d 1c58 643d 89ce 62be
00000120: e12e 37be 1b70 26be 0fd4 86bc 93df 31bd
00000130: e99e ee3c bc3e c7bc f8ad 38bd 63d4 163e
00000140: e78d 42bd 1d97 5fbd 04ac 743d aaad 3c3d
00000150: d6dc 01bc 7e96 a03d e525 5a3e 1628 b43c
00000160: cc9a 423e 0205 a7bd 86e8 d1bb 4c3e f8bd
00000170: d2d9 393d 7a38 febd 3447 d3bc 17df 24be
00000180: 2a34 0e3e 2d63 163e afbd 2e3e a666 f5bd
00000190: 95a3 54be 41ed 283e 9e41 ad3d 4796 ff3d
000001a0: fcc8 e73c b9c8 113c ff92 1cbb 358a fb3d
000001b0: 7ac0 603d 9422 06be fab7 3abe e7e6 583e
000001c0: 7eb7 d93d 516e 013e e00f 20bd 4c97 03be
000001d0: dcc0 24bc 9619 01be 05e0 523e d696 2b3c
000001e0: 8564 483d 9523 063e 7244 213c 8271 f2bc
000001f0: 220e 3dbc ddb8 73bd 8d2b 1bbc 1cd1 f0bb
00000200: cd32 b5bd 6155 8fbc 5f62 8bbd d393 e5bd
00000210: 421f 2c3e 26a7 813e adee 5f3d 495b c6bd
00000220: 2305 803d 65ed 553e e1e3 18be fbff 023e
00000230: 7dbe 4c3e 2bb7 4ebc 94d8 353a d9f6 183d
00000240: 545e 02be 0cc2 39be 503f 063e e4dc 10bc
00000250: 3feb 97bb 69c8 59bd a413 843d 4fbd 99bb
00000260: 912a 63be ca1c 1ebe 4e28 f4bd a087 d33d
00000270: c525 073e 3d98 b1bc dcaa e5bd 4603 97be
00000280: 45df 10be 4af8 183e a499 18be 2289 11be
00000290: da2f d0bd dc58 23be 1f96 ebbd d753 1e3d
000002a0: 8606 d8bd d624 34be 8669 663d 0b4e 6cbb
000002b0: aaa5 a2bd 84d9 5a3d e6ea 06be 9e48 0c3e
000002c0: a2c4 983c e3ba 35be 24fc 4cbd 4aaa 0dbe
000002d0: 3dea 9dbc f291 0f3e 3209 8c3d 2a41 143e
000002e0: 5f1f 543e 7697 a83c 1765 c4bd 6554 793e
000002f0: 34d9 dcbd adcc ba3c 049c 2fbd 6cc5 37be
00000300: 4abe 233c f87c d7bd 6fa1 a9bc 7c83 493e
00000310: 583e 023b 956c b93d b86f 79bd 4f44 693d
00000320: ac03 43be 5286 07bd a6cc 583e ee3c 0bbe
00000330: 7bb3 2f3e 46cc 14bb 73dd f03d 83bb 49be
00000340: f309 f1bd c8a6 26be 8dab 8a3b 8448 c73d
00000350: 028b e13d f09e fdbd e07a 5f3d 5ca7 0f3d
00000360: 2592 4ebd a0b5 c9bd d83f 113e 753e 98be
00000370: cb21 9bbd 6f7b 2ebd 2104 ae3d 6263 bdbd
00000380: 37d7 4a3e bc47 06be 239c c6bd 0237 df3d
00000390: ef66 2abe f92a f43c 3901 b93d 6fb1 203e
000003a0: 273a b8bd fe99 0c3e 8f39 2cbe 8571 6abe
000003b0: c644 00be f505 10be da66 9f3d 7b97 b1bd
000003c0: 60d0 0e3d c7e9 75bd 05bd e73d 5310 02be
000003d0: 704b 8b3d 6d5a d9b9 8d05 6e3b 33c0 7a3d
000003e0: 87d9 a7bb 45d6 63be 6592 1c3d 64f7 103e
000003f0: 1286 96be 5ef6 603d 4b88 18bd bfed 0dbd
0.2023554 -0.25007296 0.068672344 -0.054812077 -0.03835578 0.17983897 0.055297676 -0.093925014
-0.0394817 -0.037510905 0.026081394 -0.25334612 0.00044622383 -0.24432006 0.12030512 0.035256315
-0.053261463 -0.086696476 -0.029463308 -0.2704295 -0.086784415 -0.11560321 -0.07824471 0.017633926
-0.03946975 -0.1297485 0.05312112 0.12758447 0.069911055 -0.12726949 -0.012347546 -0.002486729
0.057337016 -0.010215393 0.029223895 -0.08425053 0.15823375 -0.13192655 0.07936763 0.068492964
0.08095049 -0.14932491 0.09848048 -0.10119216 0.0033629655 0.09318755 -0.15458852 -0.01077778
0.037377384 0.1670005 0.017700259 -0.029454678 -0.16999918 -0.07945815 0.030096404 0.14858602
-0.117639296 -0.1653893 -0.0593961 0.22222608 0.06556683 0.1415662 0.002761192 -0.19084723
-0.039249215 -0.1611004 0.07288011 -0.16321245 0.09717633 0.11933799 0.05574809 -0.221491
-0.17888977 -0.16253702 -0.01645854 -0.043426108 0.029128509 -0.024321906 -0.045087785 0.14729457
-0.04749861 -0.054587472 0.05973436 0.046064056 -0.007926187 0.07841204 0.21303518 0.02199177
0.19004363 -0.08155252 -0.006405893 -0.12121257 0.045373745 -0.12413116 -0.025790788 -0.16100727
0.13887087 0.1468627 0.17064546 -0.11982469 -0.20765527 0.16496755 0.08459781 0.12479835
0.028294079 0.008897954 -0.0023891327 0.1228222 0.05487106 -0.13099128 -0.18234244 0.21181832
0.106307015 0.12639739 -0.03907764 -0.12850684 -0.010055747 -0.12607417 0.20593269 0.010472974
0.048923988 0.13099511 0.009842979 -0.02959514 -0.011539014 -0.05950247 -0.0094708325 -0.0073491465
-0.0884758 -0.017496767 -0.06805872 -0.11209836 0.16808799 0.25322837 0.05467098 -0.0968538
0.0625098 0.2089134 -0.14930679 0.12792961 0.1999454 -0.012616913 0.00069368747 0.037344787
-0.12731296 -0.1814043 0.1311009 -0.008841727 -0.004636198 -0.05316964 0.06449059 -0.004691757
-0.22184207 -0.1544067 -0.1192175 0.10328603 0.13198002 -0.021679038 -0.112142295 -0.29494685
-0.1414767 0.14938465 -0.14902359 -0.14212468 -0.10165377 -0.15951866 -0.11503243 0.038654175
-0.10548119 -0.17592177 0.05625298 -0.003605726 -0.07941754 0.053430095 -0.13175544 0.13699576
0.01864845 -0.17747073 -0.050045148 -0.13834491 -0.019276733 0.14020517 0.06837691 0.14477983
0.20715092 0.020580035 -0.09589594 0.243486 -0.10783616 0.022802675 -0.042873397 -0.17946404
0.009994099 -0.10521883 -0.02070686 0.19679064 0.0019873586 0.090539135 -0.06089756 0.05694991
-0.1904437 -0.033087082 0.21171817 -0.13597462 0.1715831 -0.0022704764 0.11760988 -0.19700436
-0.11769476 -0.1627456 0.004231876 0.09730628 0.11012842 -0.123838305 0.054560542 0.035071716
-0.050432343 -0.09849095 0.1418451 -0.2973515 -0.07574805 -0.042598184 0.08496881 -0.092474714
0.1980866 -0.13113302 -0.096977495 0.10899164 -0.16640829 0.029805647 0.09033436 0.15692686
-0.08995467 0.13730618 -0.16818832 -0.22894867 -0.12526235 -0.14064772 0.07783289 -0.08671471
0.03486669 -0.0600374 0.113153495 -0.1270154 0.06801498 -0.00041456838 0.0036319226 0.06121845
-0.005122367 -0.22249706 0.03822555 0.14156872 -0.29399163 0.054922454 -0.037239354 -0.03465056

encoder.actor_encoder.net.mlp.2.weight f4 [256, 256]
00000000: 7d67 bebc 1575 3abd 516e 05bd a41b 2fbd
00000010: a6e5 3ebc 5a09 16bd e238 67bd 6854 723d
00000020: f5b9 e2bc b4e9 0e3c b2cd 98ba 7789 fab9
00000030: 6a08 57bb cd28 f7bc 02d6 233c aa22 253b
00000040: 33e3 a2bb 42b9 db3c f67e 2d3c f6cd 483d
00000050: db1c 3b38 357a 8ebd 8162 163d e6ca ccbc
00000060: 8435 ea3c 05e0 05bc 5937 743d de1f 2abd
00000070: 48e8 c1bb 4d2e 9abc beca 17bb 3405 f83b
00000080: 5351 d03c 9be1 41bd c988 523b 2677 95bc
00000090: dece ab3c 0610 6a3d 82db 6c3d 9462 51bd
000000a0: 864f d93c 043f 6d3d 4936 9bbc 7439 083c
000000b0: 5eb2 7d3c a436 b63c 9e5b 0c3d d297 213c
000000c0: 0044 533d 243f 113d 924e aa3d e2b6 ed3b
000000d0: c3a8 593d cff3 98b9 cb9d 9e3d 515c 163d
000000e0: f2c8 c93c 5107 69bd d7b8 2b3d 54ed 973b
000000f0: 9737 583d 1bb3 333c 77fa 15bc 1cfe 6abd
00000100: 4ff5 7ebc 356f 1d3d 74a4 9cbc e316 fbbc
00000110: dceb 9a3c 8977 a5bc 4b73 37bd cda9 1b3d
00000120: a1fc 6f3c 8b03 1a3d 81b2 e5bc 4e1e 113d
00000130: f8af bebc 8513 a1bc 3385 133d e0d7 afbc
00000140: d1e4 fc3c 8550 ecbc 1078 bdbc 67d8 babc
00000150: 8f23 013b 01e0 1cba 7e69 59bd 7b27 353d
00000160: 9e73 e43c 0faf 8e3d 4405 003c 665b 3c3c
00000170: d90c 313d 4d32 473b 6450 89bc f79a 58bd
00000180: c757 aa3d 736d 323c 8be5 33bd 31f4 e3bc
00000190: 1c7d b6bc 9c1d c2bb 4ec9 68bc 94a7 76bc
000001a0: e4a3 183c f1ad 9a3b 081c 2dbd caf9 43bd
000001b0: a7b0 353d 4485 143d 587c aabc c120 c43b
000001c0: e6e5 923d 2474 0bbd b144 1fbd 827b 8abb
000001d0: 5ad3 4dbd 1225 8ebb 4525 b4bc a437 713c
000001e0: 2dd5 1cbd 1731 a2bb 796a 0bbd a4f5 e0bc
000001f0: c9a1 7cba d68a 67bd 5d8b 63bc b30b f537
00000200: 9287 033c 5dac 0bbd 3bdd e1bc db8a 8b3d
00000210: 8045 35bd b7a2 cbbc af8f eb3c 0deb 363d
00000220: ab53 50bd 440f ec3c 8ab1 15bd 8b42 13bd
00000230: 3de9 c6bd f925 383d 3e4c 153b 2fc4 c2bb
00000240: 0b61 663d 00e7 5fbc 437b bebc 387b 213d
00000250: 52fd fc3b c7c5 f7bb 1b58 79bc 901e 5d3c
00000260: 1723 b3bb dd20 abbc 8b74 e73c b93a 5d3d
00000270: 92ab c4bc 40e2 d5bc b1c8 dc39 f778 a0bc
00000280: 27c1 233d 68c6 ca3c 1e0d c63c a198 eb3c
00000290: 4929 17bc 31aa fe3b 84ea 05bd 3c1a 9c3d
000002a0: 4f9e c6bc 7515 9a3d ba1a 64bd 247d 16bd
000002b0: 1538 44bc 5812 3dbd 564f 2c3d b87a 2d3d
000002c0: cef3 a93d de1d 96bc 2acc 2b3d dc7c cfbc
000002d0: 9e54 33bd 82d2 553d 83b7 56bc 4f0a 12bd
000002e0: e88d 24bd 4e66 4fbc 3c80 143d 65f8 94bd
000002f0: 8c91 3a3d 04ff 5b3c 34cd 81bd d9ca 6c3d
00000300: 85a4 57bd b23a 223c aa62 b6bc 3c88 8ebd
00000310: e04c 9fbc b1fc 1a3d 73ba 363c 67a0 3f3d
00000320: daab ea3c 77c9 b7bc 6e14 49bd 6747 a23c
00000330: bd14 253d a226 a53c 4a83 1fbd ded6 29bd
00000340: ab06 a6bd 6054 35bd 0fe2 fe3c 8a2b 603d
00000350: b9f8 87bc cb14 4abc 102c 1bbd 2b58 3c3d
00000360: 57b8 50bd bfa2 813c 4880 113c 4665 debc
00000370: b0b5 813c c7f3 4d3d c1a2 06bc 30e1 1bbd
00000380: 1ce8 7b3d 5d07 44bd e7b1 23bd ab91 29bd
00000390: bcc2 85bb f298 62bb afe0 823d bff9 62bd
000003a0: 11f9 6cbd 5c9b 143c 5a9c b5bb 8f92 733d
000003b0: 8334 983b 62b4 6c3d d718 d53c 692a 92bb
000003c0: 1735 1f3d 6fc4 713b bda0 1fbd 2279 4ebd
000003d0: 2ecd 37bc 15aa 5f3d 197b 33bd 148b 303d
000003e0: af18 ca3c e13d 083c 34e0 37bd 55ae 25bd
000003f0: 1128 25bd 1514 823b 2f0d 23bd 8bcd ce3b
-0.023242706 -0.045521814 -0.03257591 -0.04275097 -0.011651432 -0.036630012 -0.056450732 0.059162527
-0.027676562 0.008722711 -0.0011657982 -0.00047786135 -0.0032811412 -0.030170823 0.009999754 0.0025197663
-0.004970932 0.026821736 0.010589352 0.049024545 4.4611148e-05 -0.06956903 0.036715034 -0.024999093
0.028589971 -0.008171086 0.059623096 -0.041534297 -0.0059175827 -0.018820906 -0.0023161615 0.0075689796
0.025429403 -0.047334295 0.0032124987 -0.018245291 0.020972665 0.057144187 0.057826526 -0.051119402
0.026527178 0.057921425 -0.018946784 0.008314479 0.015484421 0.022242852 0.03426706 0.009862857
0.05157852 0.035460606 0.08315767 0.0072544673 0.05313946 -0.0002917335 0.0774494 0.036709134
0.024631951 -0.056891743 0.041924324 0.004636446 0.05278739 0.010967995 -0.009153954 -0.057371244
-0.015561416 0.038436133 -0.019121386 -0.030650562 0.018911295 -0.0201986 -0.044787686 0.03800373
0.014647634 0.037601035 -0.028039219 0.03542929 -0.023277268 -0.019662628 0.0360157 -0.021465242
0.030870827 -0.028846988 -0.02312854 -0.022808267 0.0019705032 -0.0005984307 -0.05307912 0.044227105
0.027887162 0.069669835 0.007813755 0.0114964 0.043225143 0.0030394972 -0.016761966 -0.05288216
0.083175234 0.010890353 -0.04392008 -0.0278264 -0.022276454 -0.00592394 -0.014208151 -0.015054602
0.009316418 0.0047204425 -0.04226306 -0.04784564 0.044357922 0.036259905 -0.020811245 0.00598535
0.07172756 -0.034046307 -0.03888387 -0.004226149 -0.05025039 -0.004337915 -0.021990428 0.014722738
-0.038289238 -0.0049496996 -0.034037087 -0.02746088 -0.0009637145 -0.05652889 -0.013888207 2.9211724e-05
0.008027928 -0.034099925 -0.027571311 0.06813594 -0.044255733 -0.024857862 0.028755037 0.044657756
-0.050861042 0.028815873 -0.036546268 -0.035952132 -0.097124554 0.04495809 0.002278104 -0.005943797
0.05624489 -0.013665915 -0.023252135 0.03942415 0.007720628 -0.0075614187 -0.01521876 0.013496056
-0.0054668295 -0.020889694 0.028253814 0.05401108 -0.024007592 -0.026108861 0.00042111197 -0.01958893
0.039979126 0.02475281 0.024176177 0.028759303 -0.009226152 0.0077717532 -0.032694355 0.07622191
-0.02424541 0.07523624 -0.05568955 -0.036740437 -0.011976262 -0.046160072 0.04206785 0.04235336
0.08298455 -0.018324789 0.041942753 -0.025328092 -0.04378187 0.05220271 -0.013105276 -0.035654362
-0.040174395 -0.012658669 0.036255106 -0.0727394 0.04554896 0.0134275 -0.063379675 0.057810638
-0.052647132 0.009901689 -0.022263844 -0.069595784 -0.019445837 0.03783864 0.011152851 0.04678383
0.028646398 -0.022434933 -0.04909175 0.019809438 0.04030298 0.020160023 -0.038943566 -0.04146468
-0.081067406 -0.04426992 0.031113653 0.054729022 -0.016598092 -0.012334059 -0.03788382 0.04598252
-0.05095705 0.015824674 0.008880682 -0.0271479 0.015833706 0.050281312 -0.0082175145 -0.038056552
0.061500654 -0.047858585 -0.039964583 -0.041398685 -0.004082052 -0.0034576026 0.06390511 -0.055413958
-0.057854716 0.009070244 -0.00554232 0.05946594 0.0046449318 0.057789214 0.026012821 -0.004460622
0.03886899 0.0036890765 -0.03897165 -0.05040849 -0.011218352 0.054605562 -0.043818567 0.043101385
0.024669973 0.008315534 -0.04489155 -0.04044946 -0.040321413 0.003969679 -0.039807495 0.0063111237

encoder.actor_encoder.net.mlp.2.bias f4 [256]
00000000: 7836 01bd 54e2 2e3b 0eef 323d 8114 833c
00000010: dfb4 78bc 62c2 913c 8454 b13c 6326 ecbd
00000020: a698 bbbd 01f7 253c d058 bcbd 710b f63d
00000030: a5ef 0c3d 0d82 a23d 3511 843d ba83 6abc
00000040: c675 013d 4f02 ab3d b7c2 d23b f53d 4b3d
00000050: 48a8 29bd 5eb1 123c a03c 273d 2444 213d
00000060: 37e5 b0bd 43da 1e3c 5d0b 223d 3e6c 483d
00000070: 3365 5f3d 1653 10bd 5c35 70bd 0253 53bc
00000080: 7e03 843c 191e 65bd 5fda b53d 91e3 b1bc
00000090: 3ce0 1fbd f914 5cbd 62b4 b73d 75a4 403d
000000a0: cc3b 7f3c efba 163d 15ac 81bd da4f 0abc
000000b0: b1e2 103c 78c3 763d cfda 9cbc a6e2 463d
000000c0: d198 d5bc 4f40 043d 0fe9 03bd 4df0 0d3d
000000d0: 2364 25bd 73b1 863d a4f4 64bc 6dc2 b33c
000000e0: 2d70 173a 04a0 ea3d 32ab b2bd 5d5c 11bd
000000f0: 6168 01bc 1fef 483d 09fb 9f3d 509f 3f3d
00000100: b35b c5bc 1240 57bd 1e91 05bd e2a7 9a3d
00000110: 891f 13ba e71e 47bc 11eb 763b a8bc 93bb
00000120: eb22 d43d d903 743d 7501 963d 98b4 ef3c
00000130: fb8a 5e3d f565 94bd 1e74 8abc b565 babc
00000140: 5d80 883d 997f 803d 1554 dfb9 2903 bdbc
00000150: e986 1bbd 48f5 4abd d6bb acbd 846b a13c
00000160: 2a7f ee3b 90f5 103d 19af 16bd 75b5 9cbb
00000170: ae98 bd3c 6850 443d 5632 7abc ab92 43bd
00000180: 9d04 15bd 4384 f93b fea7 8ebd fba8 6a3b
00000190: 502a abbb 21a8 cf3c f3f1 a7bd 5d45 0dbd
000001a0: 8140 20bd df63 1b3e 0e33 1fbd 7947 59bd
000001b0: bb19 76bd 2bc1 26bd cd1c 6ebd e2f8 363d
000001c0: 7e9e 3c3c 0e82 123c dc62 fdbc d214 e03d
000001d0: f792 69bc 0f08 f63d 8419 82bd b852 0e3d
000001e0: 7fe4 a0bd af18 d03b 9f28 59bd 9a64 03bd
000001f0: 492f b13d d921 c63a 8ccb 94bd 3186 0b3d
00000200: cef9 c93d a38a afbd fd07 d03c 4eb5 cc3d
00000210: f562 90bc 86bf ecbc 19d9 453d c9f0 42bc
00000220: 3c5a 41bb 216e adbd a103 b43d bc67 6dbd
00000230: e843 d93d 03f1 1d3d e98b 37bd ad0b d23d
00000240: b631 c73b 532b 72bb 076d b03d b6cd 053d
00000250: 3e18 d6bd e4d2 aabc cfbd 0bbd 09ab 2d3d
00000260: bb3b dfbd d6b2 933c acd6 b93a e6fb 023e
00000270: 70d6 eebc 0518 003d e032 393c 1f6a dabc
00000280: 68f2 9b3d d357 8fbd b89d f53d 79a9 b73c
00000290: 032d abbc 5bc5 2ebd 5cb5 313d b6d5 3f3d
000002a0: 0558 91bd 8fa7 023d 8b84 3fbd d628 42bd
000002b0: f353 a43d 3859 57bd 8be3 bf3b ab7f 88bd
000002c0: 9192 02bd fb86 c8bd 9734 d0ba 26bf a7bd
000002d0: 1fdf 47be bf88 973d 7f95 9bbd 5eb6 7cbd
000002e0: 9c0b b93d 0102 9bbd 07b2 bcbc f862 e73c
000002f0: 88db 953c 2560 a8bd 86dd 3e3d f161 c93c
00000300: 4978 7dbd 1e6f 22bc 24d0 11be ce64 023e
00000310: d3e7 aa3d bd97 063d e8dd 093d a9fe d7bc
00000320: e050 c03c 5d09 30bd c0b2 1abd 584f 4d3d
00000330: 730d 36bd 1f90 c6bd 49bb 36bd baa0 eb3c
00000340: 6f4c 83bc 9def 8cbc 9995 adbd 2dad d5bb
00000350: 8b6f 89bd 235c 123d f2dc 8d3d bd32 90bd
00000360: b87c 313c 32d1 6b3c 016e 8d3c 15bc 853d
00000370: cd4f 9bbc e33e 113e de8d c1bd 5f88 eebc
00000380: db91 b73c c9f4 c43c 227f 77bd 989d 2dbd
00000390: 3503 7f3d f0a7 dbbc 3b71 bfbc 8fa0 63bd
000003a0: 6c7b b0bd c131 dcbb 87bc 133d afa5 053d
000003b0: b7b4 3a3d 42e6 a13c 0499 8b3c 28c3 663d
000003c0: 7091 5bbd b80b 01be 52f0 d33b 6189 9bbc
000003d0: 66ed 16bd 099d 873d 10ad 45bd 37d3 093d
000003e0: 4902 043d 32c6 293d d3ba b43c bfae d7bc
000003f0: 759b 2abd 7469 89bd 9c2d 003c c16c 0b3d
-0.031546086 0.0026685195 0.04368501 0.016000988 -0.015179842 0.017792884 0.021646746 -0.11530759
-0.09159975 0.010129691 -0.09196627 0.12013901 0.03440823 0.079349615 0.064485945 -0.014313633
0.031606458 0.0835005 0.006431903 0.049619634 -0.04142025 0.00895342 0.0408293 0.039371625
-0.08637469 0.009695592 0.039561618 0.048931353 0.05453987 -0.035235487 -0.058644637 -0.012898209
0.016114946 -0.055936906 0.088795416 -0.021714957 -0.039032206 -0.05373094 0.08969952 0.04703184
0.0155782215 0.036799368 -0.0633165 -0.00844189 0.00884311 0.060245007 -0.019147305 0.048555993
-0.026073845 0.032287892 -0.032204684 0.034652997 -0.0403787 0.065768145 -0.0139743425 0.021943295
0.00057769084 0.11456302 -0.08724059 -0.035488475 -0.007898421 0.04905617 0.07811553 0.04678279
-0.024091577 -0.052551337 -0.032609098 0.07551552 -0.0005612304 -0.012153364 0.0037676732 -0.0045085736
0.103582226 0.059573982 0.07324497 0.029260918 0.05433176 -0.07246009 -0.016901072 -0.022753576
0.06665108 0.06274337 -0.0004259652 -0.023072796 -0.037970457 -0.049550325 -0.08434264 0.019704588
0.0072783427 0.035390437 -0.03678808 -0.0047823736 0.023144092 0.047928244 -0.01527079 -0.047747295
-0.036381353 0.007614644 -0.06965636 0.0035806287 -0.00522355 0.025348725 -0.08200445 -0.034489978
-0.039124016 0.15174817 -0.03886705 -0.053046677 -0.060083132 -0.040711563 -0.058132935 0.044670947
0.011512397 0.00894214 -0.030930929 0.10941471 -0.014256231 0.12013256 -0.06352523 0.034746855
-0.07856082 0.0063505988 -0.053017255 -0.032078363 0.08651597 0.0015116289 -0.07265386 0.03406352
0.098620996 -0.08571365 0.025394434 0.099955186 -0.017625311 -0.02889992 0.048302744 -0.011898228
-0.0029503247 -0.08468271 0.08789755 -0.057960257 0.10608655 0.038559925 -0.044811163 0.10256133
0.006078924 -0.0036952093 0.08614545 0.032666884 -0.104538426 -0.020852514 -0.034116562 0.04239944
-0.109000646 0.018029612 0.0014178357 0.12791404 -0.029154986 0.031272907 0.011303633 -0.02666193
0.07614595 -0.06999173 0.11992973 0.022419678 -0.020895487 -0.04266868 0.04338585 0.04683467
-0.070968665 0.031898078 -0.046757262 -0.047402225 0.080238245 -0.05257532 0.0058559827 -0.06664976
-0.031878058 -0.097913705 -0.0015884814 -0.081907555 -0.19518708 0.07399129 -0.075968735 -0.061697356
0.090354174 -0.075687416 -0.023034109 0.028245434 0.018293157 -0.08221463 0.04659798 0.024582835
-0.06188229 -0.009914188 -0.14239556 0.12733766 0.08344998 0.032859553 0.033658892 -0.026366549
0.023476064 -0.04297768 -0.037768126 0.050124496 -0.04444642 -0.09695458 -0.044612203 0.028763164
-0.016027657 -0.0172041 -0.08475799 -0.0065208883 -0.06710728 0.0357324 0.069269076 -0.070409276
0.010832958 0.014393138 0.017264368 0.065300144 -0.01895895 0.14184146 -0.09450887 -0.029117761
0.022408416 0.024042504 -0.060423978 -0.04238662 0.062258918 -0.026813477 -0.023369422 -0.055573042
-0.08617291 -0.0067197983 0.036068466 0.03262871 0.0455825 0.019763116 0.017040737 0.05633846
-0.053605497 -0.12602127 0.0064678574 -0.018986406 -0.036847495 0.06621749 -0.04826075 0.033648696
0.03222874 0.04144878 0.022061741 -0.026328443 -0.04165216 -0.06709567 0.007823374 0.034039263

encoder.critic_encoder.net.mlp.0.weight f4 [256, 54]
00000000: f02e 45bc f70b 353c 17e6 073e ce67 853d
00000010: 5a39 753d 8480 69bd 8156 0d3d 96b1 abbc
00000020: 0c6c 89bd e6c3 23bd bf99 c43c 540d ac3d
00000030: 9790 433c a9c5 263d b85d 87bd 9124 983b
00000040: 83b6 213d 5cfb 053d 6bca 14bd faf9 4bbd
00000050: 8aca fdbc b17f 803d 5586 bb3d 2305 d83c
00000060: d48b 8dbd 5187 54bd bb8c b3bd f02b 0f3e
00000070: 5713 03be 8ff9 68bd 92c1 173d 3b74 de3c
00000080: 6e41 423b 81fe ffbc 95d3 223e c6e8 7f3d
00000090: df6f 26bd a797 103e c9a4 0a3e a55c ce3c
000000a0: 6c59 9fbc 0f43 203e e4c7 ed3d df9e 04be
000000b0: 3463 043e 0afc 163e eca9 f1bd befa 95bd
000000c0: 79b7 c6bd 3db4 b2bd 4da9 f0bd a81f ac3d
000000d0: 376c d53d dee9 35be a1e6 0ebd cb85 ab3d
000000e0: a065 da3d 58fa 263c ae32 043d 7905 c6bd
000000f0: a380 ad3d c609 e6bd 1744 053e 52ae 40bd
00000100: 421c 0ebe d303 93bc daad 233c 007d 333d
00000110: f660 ab3d d6f8 b93c 96d0 7f3d 6f49 873d
00000120: 3af7 843d a2bb 2cbb 209e 483d 67bb 0bbe
00000130: 6795 003e ee1b 0b3c a43a 833c 020c d03d
00000140: 8e46 283e bb0b 5fbb fa77 dcbd b982 e4bc
00000150: bb60 cebd 97e0 923d 6dec 15bd e005 f5bd
00000160: 8614 823d 9cdb 90bd 40a0 38bd c4c5 07bd
00000170: 4161 ddbd b8a6 dbbd 0d07 8b3d d1ba a3bc
00000180: ef8e 073e 6977 033d 106e dc3d fba2 e63b
00000190: 9e84 4c3d a720 06bd fe00 f2bc be97 9e3d
000001a0: 609c f2bc a542 0c3d 5f98 10be 6c45 adbd
000001b0: 3261 aabd 0714 fabd 8dc0 903c a291 91bc
000001c0: bc2a 7d3d 2e5d 883d ba48 6f3d 40a8 2bbe
000001d0: 3b00 f23d e960 9e3d 4235 323d 8c01 2dbe
000001e0: 150c f93d cd04 963d a0fd b93c 4a48 073e
000001f0: a215 b4bd 44bc d8bc e02d 47bd e0cd bb3c
00000200: 8b1f a23d 6cd5 61bc eb6e eabd e742 a83d
00000210: aec8 91bd 15c3 c7bc 5b34 dbbc 8f06 ba3d
00000220: 9489 233d b0be 33be 3d04 e43d 8720 c1bd
00000230: 685c 96bd 88f3 bcbd fdb9 2d3d e356 773d
00000240: 29e8 ac3d c4ed a03d 80d0 8abd 48a1 91ba
00000250: 1fc9 12be 5c52 8c3d 0dc0 8cbc f372 e23c
00000260: 0a77 d83d d94e bfbd 41c0 513e fb49 dfbd
00000270: a477 1e3e 8c72 1bbe 775b e93d eb4c 28be
00000280: b387 9abb d740 4bbd 56c2 4fbc f526 7f3d
00000290: 61e9 debd 8b50 e2bd 5fff 5e3d 7919 953d
000002a0: 5354 e6bc 2b53 bcbd 1c6e e93d d24b 2d3e
000002b0: 42b4 003e d4d5 9d3c 87d8 dd3c ea0c 08bd
000002c0: 343f be3d 8c1b 61bc 8d07 6a3d d28c 0cbd
000002d0: 6827 4a3c 1f97 78bd f9ae edbd eea1 37be
000002e0: c5c0 9cbd 0ae7 b03d e7d3 1fbd 827e 953d
000002f0: 38b2 733c c494 a53d d147 333e a157 c33d
00000300: 0a7b 8e3d a46f 333e 9fe0 cc3d 2a3c 7abd
00000310: f305 003e 39c2 fb3d 66c5 333e aebc cbbd
00000320: 889b cabb 0c03 95bd 99be edbd 36cd dd3d
00000330: dee4 10bd 3468 6c3d d5cc a63d 27b4 3d3e
00000340: c450 073e f875 243e 93b7 a63d 1bc1 413e
00000350: 733b a3bc 0e61 5b3c 3db0 e03d 386a f8bc
00000360: 3644 5c3d 399f 11bd 4cbd 2dbe c596 e23d
00000370: 493c 41bb fefa a53c e07d ad3d f688 f03d
00000380: 519e 9b3d 8e17 bc3d 7308 abbb 8456 34bc
00000390: 7202 483d abc3 303d e9ff abbd c009 91bd
000003a0: 6a1d 863d 199e 59bd 7235 9d3d ffe4 c43c
000003b0: 2a87 27bc e004 0d3e f50e efbd 3966 d63d
000003c0: af6e c83d f1a8 c53d 67a8 4a3d 4ef9 16be
000003d0: 5910 293e 074b c7bc 563d 163e e91a e63d
000003e0: 0526 44bc 754b fd3d baf2 ef3d 1ee4 ae3d
000003f0: 4d94 1ebe a873 23be 8b14 13be d7c2 25bd
-0.012035117 0.011050216 0.13271366 0.0651394 0.059869148 -0.057007328 0.034506325 -0.020958703
-0.067100614 -0.039981745 0.023999093 0.0840098 0.011936328 0.040715847 -0.06609672 0.004643031
0.039480697 0.032710418 -0.036325853 -0.049798943 -0.030980367 0.06274355 0.09156481 0.026369637
-0.06911436 -0.05188686 -0.087670766 0.13981605 -0.12800346 -0.056878623 0.037049837 0.027155032
0.002964105 -0.031249287 0.15901025 0.06247785 -0.040634032 0.14120351 0.13539423 0.02519066
-0.01945182 0.15650581 0.11610392 -0.1295123 0.12928468 0.14744583 -0.11799988 -0.07323216
-0.097029634 -0.08725784 -0.117510416 0.084044755 0.10421031 -0.17764995 -0.034887914 0.08375128
0.10663915 0.010191523 0.032274894 -0.096690126 0.08471801 -0.11232333 0.13014255 -0.047041245
-0.13877967 -0.01794616 0.00999018 0.04382038 0.08368103 0.022701662 0.062454782 0.06605803
0.06492467 -0.0026356955 0.048978925 -0.13645707 0.12556992 0.008490546 0.016019173 0.1015854
0.16433164 -0.0034034092 -0.10765071 -0.027894365 -0.100770436 0.07171743 -0.036602426 -0.11964011
0.06351571 -0.07073137 -0.0450747 -0.03314759 -0.10809565 -0.107251585 0.06788454 -0.019986542
0.13238119 0.0320963 0.1076318 0.0070384718 0.04993116 -0.032745983 -0.029541489 0.07743786
-0.029615581 0.034243245 -0.14120625 -0.08460507 -0.0831932 -0.12210851 0.01766994 -0.017769638
0.061808333 0.066583976 0.058418967 -0.16763401 0.1181645 0.07733328 0.04350782 -0.16895121
0.121605076 0.073251344 0.022703946 0.1321117 -0.08793189 -0.02645696 -0.048627734 0.022925317
0.079161726 -0.013783794 -0.11446937 0.082158856 -0.07118355 -0.024385015 -0.026758363 0.09083282
0.039926127 -0.1755321 0.11133621 -0.09430032 -0.07341844 -0.092261374 0.0424137 0.060385596
0.084427185 0.0785785 -0.067780495 -0.0011110688 -0.14334534 0.06851646 -0.01718142 0.027642703
0.1056958 -0.09341211 0.20483495 -0.109027825 0.15475327 -0.15180415 0.11394399 -0.16435592
-0.0047158836 -0.049622383 -0.012680611 0.06229301 -0.10884357 -0.110505186 0.05444276 0.07280249
-0.02811638 -0.091955505 0.11397955 0.16923454 0.12568763 0.019267 0.027080787 -0.03321544
0.09289399 -0.013739478 0.057136107 -0.034313984 0.012338497 -0.060690995 -0.11605639 -0.17932865
-0.07653955 0.08637817 -0.039020445 0.0729952 0.014874034 0.080850154 0.17507865 0.09538198
0.069570616 0.17523056 0.100037806 -0.061092533 0.1250227 0.122929044 0.1755577 -0.09948097
-0.0061830916 -0.07275972 -0.11608619 0.108301565 -0.035374515 0.057716563 0.08144537 0.18525754
0.13214403 0.16060627 0.08140483 0.1892132 -0.019925809 0.013389839 0.10971115 -0.030324087
0.05377599 -0.035552237 -0.16966742 0.11063913 -0.0029485396 0.020261284 0.084712744 0.11744873
0.07598556 0.0918418 -0.005219513 -0.011006955 0.048830457 0.043155354 -0.0839842 -0.07081938
0.06548579 -0.05312929 0.076762095 0.024034975 -0.010225097 0.13771391 -0.11672775 0.10468716
0.09786736 0.09651364 0.049477007 -0.1474354 0.16510142 -0.024327768 0.14671835 0.112356015
-0.011971955 0.12367908 0.11716218 0.08539604 -0.1548626 -0.15962088 -0.14363305 -0.040469017

encoder.critic_encoder.net.mlp.0.bias f4 [256]
00000000: 0a96 993e e248 453e ce92 82be 3b87 983c
00000010: a805 63bd f64a 3e3e 8e11 70bd fefc 723e
00000020: e424 873e 67c9 713c a113 96be a8a1 dc3e
00000030: 5a0a a63e 0709 a43e 4da0 bdbe ec88 48be
00000040: e006 76bc a8bc e53c 165b 3e3e b434 07be
00000050: fbc8 8f3e cd2b d13d deae 223e 6254 39be
00000060: c2e3 2fbe 6688 2f3e 6379 af3e c44b 923e
00000070: 1784 c73e 72ce fcbd 7bd8 7f3e 4f45 85be
00000080: 0924 0e3b 998a 0abe 60a5 2cbe ae73 c33e
00000090: 2841 d13e e1e7 bcbe db88 d63d 2c01 37bd
000000a0: a537 5cbe 586a 48be d874 4c3e 8257 c5bd
000000b0: 706c 7c3e b7f8 d8bd 3164 84be 4f0d 36bd
000000c0: 94ec ae3b b8a0 203e 7028 3dbe e11e 82be
000000d0: dafd 70be fd1d 47be 5be6 343e 618e ddbe
000000e0: a5de b33e 6e2a 2a3e 8667 073e b1de 563e
000000f0: 5e80 973d 60f7 03bd 6f8d ccbe fd44 9abe
00000100: 7891 82be 0b74 533e 3aae bdbe 0f34 a3be
00000110: 6210 07be f04b 243e 7bf0 4fbe 402e 86be
00000120: db43 87be 2901 95be 8880 073d 82fb 913e
00000130: 4e9b 71bd d8f6 b63d 7fbf 3f3e c7de 8cbe
00000140: 607c 94be 159e 163e 2f22 2d3e 3067 f0bd
00000150: 961f f13e b25c c8bd d44a 763d 55b5 f1bd
00000160: 2e10 28be be8d aabe 8fea fe3d 3d74 203e
00000170: 6c9b 9abe 4e5f 6c3d a38e 89bd 0b16 b23d
00000180: c748 083e 9002 a13e f674 8c3d 38cc 583e
00000190: 4a45 323e 6a86 6dbe 1b5f 603c 0383 ca3d
000001a0: b214 1c3d a14a 363e 8953 983e b14c 63be
000001b0: 4024 b1be 9eb5 463d 7736 e43d 74d6 843e
000001c0: cb93 aabd 4a99 91be 05f0 9cbe 7a28 8a3e
000001d0: 6877 363e 2341 7fbe fd61 4bbe 9f7a 193d
000001e0: 387d 813e 69e1 8bbe a103 6a3e 1bca 573e
000001f0: 9f9b 8d39 3da8 df3d 0a36 0fbe 12af 833e
00000200: 220f 243e e7c3 973e 6e96 8dbe f514 41bc
00000210: a921 4a3e 7ef1 983e 0fa6 493e 0f03 20bd
00000220: 22ff 863e 3b57 d93e df51 073e 40bc 8cbd
00000230: 74b5 fabd 0a7f d23e 01e1 113e 197e 7e3e
00000240: 9ee5 163e 55c3 cc3d 5b11 bbbc 2136 c2bd
00000250: bc35 843e e8c5 a73e 6b0a 09be a97d 52be
00000260: b82e 8abe ced8 4bbe 6e3c 743e 8d52 173e
00000270: d5b4 5a3e e20f 88be 13ce f93d ed89 d23d
00000280: 2352 353e 582a ecbe 5003 0ebf 5734 603e
00000290: b523 923e b98d f4bd 2b83 383e 3f87 aebe
000002a0: 5756 7a3e dc37 043f 2dc3 c23e 7f65 6a3e
000002b0: 50ef 703e 0ada 663e 3b92 5abe 5df9 7f3e
000002c0: 1f0c a83d fd3a 03bd a6a8 2dbe 9b92 aebe
000002d0: 845a 90be b285 fb3d 6e93 9ebe ddad 17be
000002e0: 92e5 a2be 2e91 63bd 48b1 3a3e b13e 8a3d
000002f0: 297f 6a3c 4d5b 40be 3662 ec3d 9154 3fbe
00000300: a8c1 fcbd f228 85be e3fb 96bc 0871 b1bd
00000310: 4785 22be 87fa 833d 0bba 853e 2f51 d03e
00000320: b9a4 833d 3ce9 16be 0e01 323c 82bc c83d
00000330: a41b ccbd c4aa a8be 98dd 9d3d 7598 0abe
00000340: 8bd4 adbe d4c4 2dbe b2c7 ebbc 819d 7abe
00000350: 62f9 943d 95f2 e2bd 5f15 a3be 306d 0abd
00000360: 05a8 babd 9126 283e fda3 553c 7c52 e5bd
00000370: 8204 b1be 0556 60be 1d9c 493e 5044 683a
00000380: 1d50 ff3d fe34 cebe c549 bf3d dffe 4f3e
00000390: 3a56 913e bc92 ab3e 68dd 7abe a179 273e
000003a0: 4c90 ecbc 7ec1 a43e 1df6 9e3e 513e 9d3e
000003b0: 7dca 8e3e a623 10bd 8865 153e d28f 3fbc
000003c0: a462 df3e 5bb3 1e3e e363 8e3d edd7 993e
000003d0: 6f73 02be 7d46 21be 0d96 86be d43d 183e
000003e0: 45fe d1bd ceb9 62be cfe0 b9be deb4 a23e
000003f0: db61 5fbd 17e7 3ebe 09aa d53c 6e3e ae3e
0.29997283 0.19266084 -0.25502628 0.01861917 -0.055425316 0.18583283 -0.05861049 0.23729321
0.26395333 0.014757491 -0.2931185 0.43092084 0.32429773 0.32038137 -0.37036362 -0.19583482
-0.015016288 0.02804406 0.18589434 -0.13203698 0.28083023 0.102134325 0.15887019 -0.18098596
-0.17176726 0.17141876 0.34272298 0.2857343 0.38967964 -0.12344064 0.24984924 -0.2602944
0.002168896 -0.13529433 -0.1685996 0.38174194 0.40870023 -0.3689566 0.10475322 -0.044678852
-0.21505602 -0.19571817 0.19966447 -0.096358314 0.2465074 -0.105943136 -0.2585769 -0.044446286
0.005338261 0.1568631 -0.18472457 -0.25414184 -0.23534337 -0.19445033 0.17665999 -0.4327269
0.35130802 0.16617748 0.13223085 0.20983388 0.07397531 -0.032218337 -0.39951655 -0.3013076
-0.2550161 0.20649736 -0.37046987 -0.31875655 -0.13189843 0.16044593 -0.2030658 -0.2620716
-0.26418957 -0.29102448 0.03308156 0.28512198 -0.058986 0.089338005 0.18725394 -0.27513716
-0.2900114 0.14708741 0.16907571 -0.117384315 0.4709441 -0.09783305 0.060129955 -0.118021645
-0.16412422 -0.33311266 0.12447082 0.15669341 -0.30196702 0.057708077 -0.06716659 0.086956106
0.13309012 0.31447268 0.06858246 0.21171653 0.17409244 -0.23195806 0.01369455 0.0988827
0.038105674 0.17801906 0.29751232 -0.22197224 -0.3459797 0.048513047 0.11143201 0.25944865
-0.083289705 -0.28437263 -0.3065187 0.26984006 0.17818987 -0.24927191 -0.19861598 0.037470456
0.25290847 -0.27320412 0.22852947 0.21073191 0.00027009562 0.10920761 -0.13985458 0.25719506
0.16021398 0.2964165 -0.2765383 -0.011784782 0.19739403 0.29871744 0.19692253 -0.039065417
0.26366526 0.42449364 0.13214825 -0.06871843 -0.12241641 0.41112548 0.14245988 0.2485279
0.1473603 0.09998194 -0.022835424 -0.094829805 0.25822246 0.32768178 -0.1338288 -0.20555748
-0.2698877 -0.19906923 0.23851177 0.14777584 0.21358044 -0.26574618 0.12197509 0.102802135
0.17707114 -0.46126056 -0.55473804 0.21894966 0.28542867 -0.11941094 0.18018787 -0.3408756
0.24446999 0.51647735 0.38039532 0.2289028 0.2352879 0.22544113 -0.21344845 0.24997468
0.08205437 -0.032038677 -0.16958866 -0.34096226 -0.28194058 0.1228136 -0.30971855 -0.14812417
-0.31815773 -0.055558376 0.1823169 0.06750239 0.014312544 -0.18784828 0.1154217 -0.18684603
-0.123416245 -0.260078 -0.018430656 -0.08664137 -0.15871154 0.06444269 0.26118502 0.40686938
0.06427903 -0.1473741 0.010864509 0.0980158 -0.099662095 -0.32942784 0.07708281 -0.1353472
-0.3395122 -0.16969615 -0.028781746 -0.24474145 0.072741285 -0.11081425 -0.31852242 -0.033795536
-0.091140784 0.16420962 0.013039586 -0.11197373 -0.34573752 -0.21907814 0.19688459 0.0008860277
0.12466452 -0.40274805 0.09340242 0.2031207 0.28386098 0.33510387 -0.24498522 0.16354991
-0.0288774 0.32178873 0.31047145 0.30711606 0.2788886 -0.035190247 0.14589512 -0.011692004
0.43629944 0.15498106 0.06952646 0.3004755 -0.12739347 -0.15749545 -0.26286355 0.14867336
-0.10253576 -0.22141191 -0.36304328 0.31778616 -0.05453668 -0.18642841 0.026082056 0.34032005

encoder.critic_encoder.net.mlp.2.weight f4 [256, 256]
00000000: 0397 e13d d241 253c 8b22 91bd 7703 8fbc
00000010: 93db aeba f0d0 a83d 2ec1 efbc 4a5b 9f3d
00000020: 0f69 a7bc 49b4 643b 1c76 f33c 7970 2f3e
00000030: d90b 7e3d e42f 8a3d 77aa 08be 6e03 61be
00000040: d113 9ebc c534 aa3d c241 163e eb4d 15be
00000050: 062a d23d 16d6 973c 99c2 263d 5ba6 d5bc
00000060: 7b11 0cbd c0fb 8abb c0ae 823c 6ef9 fcbb
00000070: 28b6 703d eaa9 b9bd d125 d93d e3c2 24bd
00000080: 0301 99bd dcd7 1d3d bd0b 98bc e24a 8d3d
00000090: c8b7 8d3d a38d 073d cfbb f53d a3f4 753c
000000a0: 76ba c4bd bdaa 7dbd 342a 133e cb35 2dbd
000000b0: f5de 6d3e 193c 0dbd 2240 2ebe 9059 b13c
000000c0: 0e6b a4bd 8e49 773d e8d7 d5bd 7b0c f9bd
000000d0: 03ce 22be cf93 b0bd 0676 e13d 66f4 88bd
000000e0: 00b2 ec3d 3f5b 123d 9c9e d23c 7bf8 0a3e
000000f0: 5e2b 1c3e f7b4 063d 0ba9 15be 04b1 c9bd
00000100: e8e0 f3bc 3103 80bd 9082 dbbd e91f b7bc
00000110: 7609 fabc 3125 6e3d 251e a2bd 3352 08be
00000120: 2c64 c0bc 6a33 4e3c a864 ce3c cd60 7e3d
00000130: 48bc 0e3e 2964 2bbd cf5c d73c dfb0 e43c
00000140: 089e 60bd dd15 76bb e2c9 f53c b629 7fbd
00000150: 087b 153e 9454 cebc 4ce7 673c 6802 8cbc
00000160: 5f28 0c3d 493b 01be 21ec 50bd 5c4f ae3d
00000170: fc8f a53c 3e64 96bc 3928 9cbb a841 95bb
00000180: 2f30 a5bc a58f fb3d 91f8 453d 931d 2b3c
00000190: 095d a13c a958 97bb 963c cebd c994 0b3d
000001a0: 3c0a 323c 80b2 243e d145 173d 4ace 17bd
000001b0: b841 90bd c72b 373d 45a2 9e3d aa42 c13d
000001c0: e4d1 a4bd ab79 a1bd 59cb 00be 75d6 273d
000001d0: 8ff5 d33c d500 52be bfea 2cbd ab25 083b
000001e0: 37f1 9d3c ce86 75bc e14d 913d 7efe 423e
000001f0: 210e 9b3d 40f3 d63d 1c20 b0bd e0f7 d23c
00000200: 0a48 bd3d 98e4 893e 29d8 37bd 5d4f 36bd
00000210: 6108 5e3e 667e ce3d 608d 213e 7997 513d
00000220: 2b01 243d 8fe3 bd3d 7b42 f33d 5c8d d1bb
00000230: 430b 97bd bc1d c93d 660b bf3b b826 db3d
00000240: 1538 6b3d ce05 f63c 8bbf a1bd 997c 9abc
00000250: 7901 683e 06c0 583d 8241 13bd ddaa 0fbe
00000260: e4e5 39bc b58f 5ebd 3bb8 b33c 3991 6abc
00000270: 782e 8b3c fae5 04be b7bd 2b3c f08c 25bd
00000280: 6a9c b93d b2d1 1ebe 2288 2bbe e44e 813d
00000290: c32d 163e a626 593c baf5 733e 88ba 10bd
000002a0: 8d07 d43d ad1d 263e aa2a 633e 38ad 023e
000002b0: 4c5d 803d 3b3a 0c3e 59e7 c8bc 927f 803d
000002c0: 35e0 353d 6829 57bd 3c6a 523d 09da bdbd
000002d0: 6073 abbc eb11 e7bb 83ef cd3c 6ba6 ae3c
000002e0: 6f34 5bbd 7861 0c3c 8776 fc3d f3c1 30bd
000002f0: 87d7 223e ff86 02be 6932 3e3e 5b59 30be
00000300: 70a3 7a3c 0de4 76bd dd97 5abd cad1 843d
00000310: 818c e1bd 1072 06bd 43b1 ce3d 1406 8c3d
00000320: edff 633d 9dcf d5bd 4188 d23d 64c1 b8bc
00000330: 1cd0 383d 2707 f6bd 5bd5 263d e1a0 52bd
00000340: 7351 9e3c a4b6 5fbc 2016 d53c 0842 b4bd
00000350: b2b3 003e e7f1 91bc 0931 e7bc 5503 b3bc
00000360: 577f 5f3c fea4 9f3d a378 533d 87d0 b9ba
00000370: cd9a 25bd c6c9 93bd fa34 233e fd9d 88bd
00000380: 5229 7cbc 0ca5 49be 9c1f f63d d071 eb3d
00000390: 9c88 9e3d 361e f13d 8ba1 94bd 8e9d 0a3d
000003a0: c9e7 f73b b2d9 c13d e07a bd3d 57d7 093e
000003b0: 8f44 3abd 7498 fe3c 0369 fabc a649 67bd
000003c0: 3910 283e 54a5 a93d 0854 e8bc 371e 753d
000003d0: 6fa0 bebd 5e4c e8bd e814 90bd b315 ea3d
000003e0: 7e7d 85bd aef7 9dbd c0ac e93c 7e18 573d
000003f0: ec01 b63d 085a 5dbe a9b5 a4bd 3e0b b23d
0.11015131 0.010086494 -0.07086667 -0.017457707 -0.0013340585 0.08242977 -0.02926692 0.07781084
-0.020435838 0.0034897497 0.029719405 0.17132749 0.062023018 0.06747416 -0.13346277 -0.21973965
-0.019296559 0.08310846 0.14673522 -0.14580505 0.102619216 0.018534701 0.040712927 -0.026080301
-0.03419636 -0.0042414367 0.015952468 -0.007720164 0.058767468 -0.09065612 0.10602916 -0.04022492
-0.07470896 0.038535938 -0.018560285 0.068990484 0.06919819 0.03309406 0.11998712 0.015011939
-0.09605877 -0.061930407 0.14371568 -0.04228763 0.23229583 -0.03448114 -0.17016652 0.021649152
-0.080282316 0.06037288 -0.104415715 -0.121605836 -0.158989 -0.08621942 0.11008839 -0.0668724
0.11557388 0.03573155 0.025710396 0.1357135 0.15250918 0.032887425 -0.14615266 -0.09848216
-0.02977033 -0.06250609 -0.10718262 -0.022354083 -0.03052209 0.058140937 -0.07915906 -0.13312607
-0.023485266 0.0125855 0.025194481 0.062104035 0.13939011 -0.041843567 0.026289372 0.02791637
-0.05483821 -0.0037549653 0.030003492 -0.062295638 0.14597714 -0.025186814 0.014154267 -0.017090991
0.03421819 -0.12620272 -0.05100644 0.0851123 0.020210259 -0.018358346 -0.004765537 -0.004554946
-0.020164577 0.122832574 0.048332755 0.010444063 0.019697683 -0.0046187234 -0.100701496 0.03407744
0.010866698 0.16083717 0.036931816 -0.037061967 -0.07043785 0.044719484 0.07745794 0.09436543
-0.08047846 -0.078845344 -0.12577571 0.040976007 0.025873927 -0.2050813 -0.04221606 0.0020774405
0.01928006 -0.014985753 0.07094932 0.19042394 0.07571054 0.10495615 -0.085998744 0.025752962
0.09242256 0.26932216 -0.04488388 -0.04450928 0.21682884 0.10082702 0.15776587 0.051169846
0.040040176 0.09271919 0.118779145 -0.006395025 -0.07375195 0.098201245 0.005830216 0.107007444
0.05742653 0.030032065 -0.07897862 -0.01885824 0.22656812 0.052917503 -0.035951145 -0.14030023
-0.011346314 -0.05433627 0.021938434 -0.01431685 0.016989931 -0.12978354 0.010482243 -0.04041761
0.09063037 -0.1550968 -0.1675115 0.06313875 0.14665894 0.013253843 0.23824206 -0.03533414
0.10353003 0.16222258 0.22184244 0.1276139 0.06267795 0.13694088 -0.024524378 0.06274332
0.044403274 -0.052529722 0.051370844 -0.092701025 -0.020929039 -0.0070516965 0.025138622 0.021319589
-0.0535168 0.00856816 0.12327295 -0.043153714 0.1590253 -0.1274681 0.18573917 -0.17221586
0.015297756 -0.06027608 -0.053367484 0.064853266 -0.11013127 -0.032823622 0.10092404 0.06837097
0.05566399 -0.1043999 0.102798946 -0.022553153 0.045120344 -0.12013083 0.040730815 -0.051422957
0.019325947 -0.013654385 0.026011527 -0.08801657 0.12568548 -0.017815543 -0.028221624 -0.021852175
0.0136412 0.07795142 0.05162872 -0.0014176526 -0.040430833 -0.072162196 0.15938178 -0.06670759
-0.015390711 -0.19691867 0.12017748 0.114963174 0.077409 0.117733404 -0.072573744 0.033841662
0.0075654727 0.0946535 0.09251952 0.13461052 -0.04547554 0.031078555 -0.030567652 -0.05646672
0.16412438 0.08283487 -0.028360382 0.05984327 -0.09307944 -0.11342691 -0.070352376 0.1142992
-0.06518076 -0.07713257 0.028524756 0.052513592 0.08887085 -0.21616375 -0.080424614 0.086935505

encoder.critic_encoder.net.mlp.2.bias f4 [256]
00000000: c3f2 c73e 2710 233e a086 813d 3a30 b33e
00000010: 8239 873e fd92 a8be 9e8f bb3e 84c4 44bc
00000020: f27c cfbd 454a 2abe c48b 483e 0d79 8bbd
00000030: 3b80 69bd f935 203d 3e32 43be 001e 89be
00000040: 62d8 153c 35bb 933c 0a77 c23c e29a cebd
00000050: a88d a63e e78f 693e b806 8338 ade5 82be
00000060: dda0 7f3e c0e8 ae3e a135 85bd c760 d63c
00000070: a34a c73c 7dfd ad3e 3340 8dbd 9813 68bd
00000080: 44a1 67be def9 55be 5dfe 5abd dc96 2cbd
00000090: 5667 96bd 273d 963e 157f 413e 6d9f 39be
000000a0: 1bd9 c83d 31f9 b53d 29f5 6bbc a404 593e
000000b0: c940 b4be 5151 213d af1b 863e d52e 8fbb
000000c0: e04b 6ebe 6212 c4be b1af 82be 31b2 a43d
000000d0: 6057 a03e acf6 343e 9dad ab3e abe2 953d
000000e0: e3f6 afbc 725e aabe 3f1f 5cbe 55e7 bc3a
000000f0: 6228 9abc f7a8 5fbd e80e a13d f1ef 353d
00000100: 8165 b73e 8c0d c33e e1bc 95be 497b 863e
00000110: af44 c43b 79d4 2bbe 204a 80be 515a 333e
00000120: 602a 6bbe deaa 84bc e8dd a03e 3364 133d
00000130: a9d3 8a3e c957 aa3d 9420 a3bd b981 b73e
00000140: 6511 c43a 604d d3bd 74b5 c5be 122d 953e
00000150: 12e6 383d 8519 8a3e b78a 6bbd 487b d53e
00000160: a4df 803e 3101 333e 024e a13e bec2 e4bd
00000170: 8fe7 f33d 052f 81bd f786 153e 8ebd 0cbd
00000180: 4246 92be d2a7 083e 2edf 96be bb42 c9bd
00000190: 6345 283e 2bde 963e 8bcf 843d c06d 11b9
000001a0: 35c0 853e 8421 b73c 8d33 d93d c6d3 fcbc
000001b0: 2003 6cbe 2b99 70bd d713 78bd 533a 9dbd
000001c0: 81b0 eb3d c835 223e 4b7b 643e 3bd1 2b3c
000001d0: ab06 2c3e 3663 93be a685 5b3d 7a26 2c3e
000001e0: d10f 773d 9cb0 903e 549e 253d 3eb7 71be
000001f0: 657d 733d 3401 6d3c db92 6a3e 0182 793e
00000200: 8758 e7bd 1520 283e 274d 493e a121 d93b
00000210: b39d de3c 3367 2ebe 2642 c4be 2db9 ecbd
00000220: b2ca 263d f651 bd3e ed72 a7bc 63e6 1ebd
00000230: 077d 88be 2d02 5f3e b137 973d fd0d 8d3e
00000240: d0ac 5c3e 95c5 c43e 72f3 073d 51de d3bd
00000250: 2b6f 683e b2a2 1d3d 7239 3f3d 19b2 b13d
00000260: 3f30 2e3e 1edb 033e 7239 9a3d 6ec2 72be
00000270: eb00 b1bd 7f61 05be b1cb 833c 4af6 033e
00000280: 10da 9ebb 7f62 4f3d 970b debc 598e 1dbe
00000290: 52c3 97be 3c73 9c3c 73ad 0cbe 4dca 71bd
000002a0: 64c0 07be 27b4 03be 6721 803e 538f 4a3e
000002b0: 852d 933b 78b2 dbbe e714 d73e 6f5d 3a3d
000002c0: 6c1c b13e dc75 a4be 2074 a13e d787 3bbd
000002d0: 41f0 cf3e 8522 3d3d 6506 a93e 006a 503d
000002e0: e1da 7c3c bf91 4c3e e284 5cbe 728f ac3d
000002f0: 2e34 213e 5213 97bd eb5f c93d 7e8c f2bd
00000300: 7096 a43d 886c ce3e 0471 793d 8ca2 45be
00000310: e115 c43d 0de8 8dbe 839e 953d 0420 803c
00000320: 81bb 8e3e f291 963e 3ed6 b2be 6e1b f33b
00000330: e607 413c 0338 833e 55d3 ae3e 9ce0 b53c
00000340: 26c6 ffba ccea b3bc 4d68 4e3c f2ab 7cbe
00000350: 33c5 c63e 951a 5cbe d29a 8b3d 7ac4 b23e
00000360: 6e8e aebe ffdb ccbc 8a7b 453e d017 3f3e
00000370: 7326 843d e1e3 253c 9e83 3abe f7dd 9bbd
00000380: ab90 7a3e e9ce f3bb 3c5e 243c 2fbf 14be
00000390: db59 633e 9dd9 61bc e613 f43d 6b7e 33bd
000003a0: 97ee 023e 0e4c a6bb 8e07 7bbd 32a9 60bb
000003b0: cef0 563e 99c3 f5bd 79e9 113d 8af9 4ebe
000003c0: d82a 703e 196b 27be 1abc 323c dc04 0f3d
000003d0: d6d0 bbbe 94b7 28bc 0d29 e53c edce 923d
000003e0: 9c09 9dbc 59ef e9bd 5d07 363d d42a d8bc
000003f0: c180 753e bbc9 8abb 3717 af3c f146 973e
0.390524 0.1592413 0.06324506 0.3499773 0.26411062 -0.32924643 0.3663301 -0.012009744
-0.10131253 -0.16629894 0.19584566 -0.06810198 -0.057007056 0.039113972 -0.19062135 -0.267807
0.009145828 0.018033603 0.023738403 -0.10088135 0.3252995 0.228088 6.247818e-05 -0.25565854
0.24963708 0.3416195 -0.065043695 0.026169194 0.024327582 0.3398246 -0.06897011 -0.05665931
-0.22620112 -0.20896098 -0.053465236 -0.04213606 -0.073439285 0.2934353 0.18896134 -0.18127222
0.098070346 0.0888542 -0.014401712 0.21193177 -0.35205677 0.03938419 0.26192996 -0.0043695965
-0.23271132 -0.38295275 -0.25524667 0.080418 0.31316662 0.17672223 0.33530894 0.07318624
-0.02148003 -0.3327518 -0.21496294 0.0014412204 -0.018818084 -0.054604497 0.07864171 0.04441828
0.3581963 0.38096273 -0.29245666 0.26265934 0.005989633 -0.1678027 -0.25056553 0.17514922
-0.22965384 -0.016194757 0.314193 0.03598423 0.2711461 0.08317525 -0.07965198 0.35841158
0.0014958797 -0.103174925 -0.38615 0.29135948 0.045141287 0.26972595 -0.057505336 0.4169562
0.25170624 0.17480923 0.31504828 -0.111699566 0.11909401 -0.063077964 0.14602266 -0.03436046
-0.28569227 0.13345268 -0.29467148 -0.09827181 0.16432719 0.29466376 0.06484898 -0.00013869163
0.26123205 0.022354849 0.10605536 -0.0308627 -0.23048067 -0.058739822 -0.060565796 -0.0767714
0.11508275 0.15840828 0.22312658 0.010486896 0.16799419 -0.2878663 0.053594254 0.16811553
0.060317818 0.28259742 0.040434197 -0.23605058 0.059445757 0.014465619 0.22907583 0.24365999
-0.11296182 0.16418488 0.19658338 0.0066263233 0.027174806 -0.17031555 -0.38331717 -0.11558757
0.04072065 0.36976594 -0.020440543 -0.038793933 -0.26657888 0.21778174 0.07383669 0.27549735
0.21550298 0.38431993 0.033191152 -0.10345138 0.22698657 0.038485236 0.046685643 0.086765476
0.17010592 0.12876555 0.07530488 -0.23706982 -0.08642753 -0.13025473 0.016088339 0.1288692
-0.0048477724 0.050631043 -0.027105136 -0.15386333 -0.29641205 0.019097917 -0.1373804 -0.05903082
-0.13256985 -0.12861691 0.25025484 0.19781236 0.0044915103 -0.42909598 0.42008135 0.04549926
0.34591997 -0.3212117 0.3153391 -0.045783844 0.40612987 0.0461755 0.3301269 0.05088234
0.015433044 0.19977473 -0.21535066 0.084257975 0.15742561 -0.07376732 0.09832748 -0.11843203
0.08036506 0.40317178 0.060898796 -0.19300288 0.095744856 -0.27716103 0.07305624 0.015640266
0.2787743 0.29408222 -0.3492908 0.0074190414 0.011781668 0.2562867 0.3414561 0.022201829
-0.0019514009 -0.021962546 0.012598109 -0.24674967 0.38822326 -0.21494515 0.06816639 0.34915525
-0.3409304 -0.025007246 0.19285408 0.18661427 0.06452646 0.010125131 -0.1821427 -0.07610696
0.24469249 -0.007440437 0.010032233 -0.14526056 0.22202246 -0.013784793 0.11917858 -0.043821733
0.12786327 -0.0050749844 -0.0612865 -0.0034280536 0.20990297 -0.12000198 0.035623048 -0.20212379
0.23453844 -0.16349448 0.010909105 0.034916744 -0.36682767 -0.010297675 0.027973676 0.07168374
-0.019169621 -0.11422605 0.044440616 -0.02638761 0.23974897 -0.004235474 0.021373374 0.29546311
