src/checkpoints/ppo_best_checkpoint/learner/module_state/adversary_0/module_state_dir/module_state.pt (torch, 655490 bytes, 11 tensors)

encoder.actor_encoder.net.mlp.0.weight f4 [256, 54]
-0.20258354 0.11356288 -0.098520756 -0.10792661 0.14346473 -0.02892452 -0.011085646 -0.09380372
0.06437671 0.08948583 -0.11097956 0.13547486 -0.1105261 0.024267828 -0.14041531 0.021879427
0.12925982 -0.059894282 -0.1402751 -0.114224076 -0.083304964 0.11172551 -0.11682227 0.069174364
-0.089338884 0.08136368 0.049445264 0.13127826 -0.055904314 0.10384633 -0.05725376 0.009133189
0.0583513 0.11868963 -0.007455765 -0.0079256855 -0.081690386 -0.210862 0.067908674 -0.08256347
0.13337064 0.024703443 0.0935087 0.079519205 -0.030624663 0.118962884 -0.021991944 0.023333905
0.026765985 0.14402756 -0.24854442 -0.13480014 -0.041671254 -0.037921224 -0.105304874 -0.20830159
-0.031086816 0.14023507 -0.025720421 -0.028933771 0.009709233 -0.015493468 -0.14448696 -0.12148302
-0.09699333 0.104200065 -0.05579435 0.048234843 -0.06931554 -0.0008361414 -0.04754726 -0.19190043
-0.172636 -0.025688844 0.07098562 0.1422651 -0.017037198 0.010197608 -0.08658182 -0.0056188474
-0.10606305 0.07697092 0.118595414 0.046144154 0.08994538 0.07422527 0.19602229 0.07204215
0.15216888 -0.01459486 -0.2553694 -0.015718948 -0.10066636 0.10521448 0.033315707 0.0498729
-0.12663655 -0.016579954 0.062192533 0.10990363 0.1088331 -0.010080214 0.100784026 0.09818406
0.18089738 -0.17815816 -0.114147216 0.16205716 0.096258014 0.000778251 0.0991122 -0.030223459
0.06549809 -0.019526508 -0.12888256 0.09527355 0.06946604 -0.0040339045 -0.034700975 0.1089848
0.11643544 0.013296257 -0.1979865 0.1566487 -0.16632478 -0.052325122 0.13343272 0.056702163
-0.09029831 0.017654149 0.036286 -0.1055766 -0.0033905301 0.024433706 -0.06340713 0.006046261
-0.050609086 -0.09868841 0.066984504 -0.04614869 -0.06516465 0.13695729 -0.09778086 -0.12141366
0.013476368 0.06617047 -0.027591147 0.0042034388 -0.053348657 0.10965898 0.06003056 -0.10928574
0.07792959 -0.068703674 0.05293227 -0.10881942 -0.089010715 -0.14147145 -0.27379394 0.048097197
-0.1068433 -0.07370058 -0.009463934 0.13100098 -0.07402016 0.13271856 0.06542034 0.048443444
-0.088868365 -0.002991212 -0.02815087 0.053940386 -0.022320509 0.000825488 0.031776216 -0.12755845
-0.22158504 -0.23597844 0.12719764 0.08398623 -0.15063381 0.15259445 -0.030512158 -0.065123536
-0.06418455 0.023323584 -0.049062118 0.07278244 0.024199128 -0.11254877 -0.039246418 0.13139534
0.10333386 -0.043704305 -0.24592613 -0.13024539 0.012856855 0.111456275 -0.0040023723 -0.0005613618
0.11552034 -0.062007446 0.06500203 0.06279079 -0.022456873 0.06406 -0.05782194 0.037320357
-0.066918485 0.0844163 0.1252019 0.063534565 -0.13195781 0.14531 -0.015466229 0.19883563
0.11357327 -0.0028859067 -0.10483959 -0.05083949 -0.016401973 0.06637118 -0.07061389 -0.020315554
-0.06972395 -0.021256702 -0.04891842 0.013314898 0.14028418 0.15703492 0.06850115 0.036985964
-0.03500314 -0.029045051 -0.06878635 0.098736644 -0.0057041678 -0.028756982 -0.057210978 0.040115327
-0.09470473 -0.029936936 -0.056637153 0.11558637 -0.029503852 -0.103060536 -0.09010851 0.05319581
-0.22337644 -0.04360239 -0.031759765 -0.045053758 -0.13394149 0.010262826 0.0692845 -0.15016514
00000000: 0f72 4fbe a893 e83d 40c5 c9bd a008 ddbd
00000010: 6be8 123e 1df3 ecbc 92a0 35bc 2a1c c0bd
00000020: f0d7 833d 5944 b73d 4049 e3bd ecb9 0a3e
00000030: 825b e2bd 53cd c63c 08c9 0fbe 7c3c b33c
00000040: b05c 043e b553 75bd 47a4 0fbe 50ee e9bd
00000050: cb9b aabd 58d0 e43d 8440 efbd 4aab 8d3d
00000060: 4ef7 b6bd 00a2 a63d 1e87 4a3d cf6d 063e
00000070: ecfb 64bd 62ad d43d eb82 6abd 5fa3 153c
00000080: c601 6f3d 8c13 f33d 7d4f f4bb bcda 01bc
00000090: 4a4d a7bd 35ec 57be b413 8b3d 0917 a9bd
000000a0: 5092 083e e05e ca3c 7d81 bf3d f7da a23d
000000b0: 93e0 fabc d0a2 f33d 7328 b4bc bf26 bf3c
000000c0: 5744 db3c f67b 133e 6e82 7ebe 0c09 0abe
000000d0: 7aaf 2abd 4953 1bbd 15aa d7bd 034d 55be
000000e0: c7a9 febc c899 0f3e a2b3 d2bc 8406 edbc
000000f0: 7a13 1f3c 51d8 7dbc 64f4 13be 17cc f8bd
00000100: 70a4 c6bd d866 d53d 9e88 64bd e691 453d
00000110: 4ef5 8dbd 8030 5bba eac0 42bd 8c81 44be
00000120: 7ec7 30be 6971 d2bc e960 913d f1ad 113e
00000130: 9891 8bbc de13 273c cf51 b1bd 4f1e b8bb
00000140: 9637 d9bd eea2 9d3d 27e2 f23d a701 3d3d
00000150: 4935 b83d 6b03 983d 11ba 483e d68a 933d
00000160: 29d2 1b3e 481f 6fbc c7bf 82be 06c5 80bc
00000170: 2a2a cebd b07a d73d 0d76 083d 8747 4c3d
00000180: 03ad 01be afd2 87bc 99bd 7e3d 2815 e13d
00000190: e3e3 de3d 7b27 25bc db67 ce3d b914 c93d
000001a0: 2a3d 393e 186f 36be 04c6 e9bd 50f2 253e
000001b0: ec22 c53d 8a03 4c3a 56fb ca3d 3097 f7bc
000001c0: dd23 863d 0ef6 9fbc caf9 03be c71e c33d
000001d0: 3644 8e3d d82e 84bb 9c22 0ebd 6c33 df3d
000001e0: b475 ee3d 8bd8 593c f9bc 4abe 8468 203e
000001f0: 0b51 2abe de52 56bd 96a2 083e 8740 683d
00000200: 52ee b8bd 6f9f 903c a1a0 143d 8b38 d8bd
00000210: a833 5ebb 3229 c83c 99db 81bd b71f c63b
00000220: 794b 4fbd 261d cabd 2c2f 893d 6906 3dbd
00000230: 0b75 85bd 883e 0c3e 5541 c8bd baa7 f8bd
00000240: fccb 5c3c 6284 873d d406 e2bc 00bd 893b
00000250: 1f84 5abd e394 e03d 9be2 753d 34d1 dfbd
00000260: 8d99 9f3d 83b4 8cbd 82cf 583d b7dc debd
00000270: 404b b6bd e4dd 10be b82e 8cbe 9101 453d
00000280: a9d0 dabd 54f0 96bd 9e0e 1bbc 1f25 063e
00000290: e297 97bd 60e7 073e 19fb 853d a26c 463d
000002a0: 9e00 b6bd 3608 44bb a79c e6bc 98f0 5c3d
000002b0: 80d9 b6bc 9065 583a c727 023d af9e 02be
000002c0: 30e7 62be 55a4 71be 1940 023e f900 ac3d
000002d0: c03f 1abe b841 1c3e a2f4 f9bc 7d5f 85bd
000002e0: 3073 83bd 1a11 bf3c 5cf5 48bd f60e 953d
000002f0: 403d c63c f87f e6bd dac0 20bd 808c 063e
00000300: b4a0 d33d 4903 33bd 0fd4 7bbe 0c5f 05be
00000310: 8fa5 523c 3043 e43d 5526 83bb 5a28 13ba
00000320: ee95 ec3d 85fb 7dbd c91f 853d 7598 803d
00000330: 7af7 b7bc e431 833d b3d6 6cbd 3bdd 183d
00000340: 8f0c 89bd 74e2 ac3d ed34 003e 691e 823d
00000350: f31f 07be 25cc 143e 1166 7dbc 919b 4b3e
00000360: 1a99 e83d 7b21 3dbb 24b6 d6bd 123d 50bd
00000370: 6e5d 86bc 9ded 873d 049e 90bd ce6c a6bc
00000380: 6ecb 8ebd 8922 aebc ae5e 48bd bb26 5a3c
00000390: a8a6 0f3e c3cd 203e 554a 8c3d 987e 173d
000003a0: 745f 0fbd e3ef edbc dcdf 8cbd 7036 ca3d
000003b0: 07ea babb c393 ebbc 0f56 6abd f84f 243d
000003c0: 8ef4 c1bd 4e3e f5bc 5cfc 67bd 8cb8 ec3d
000003d0: 10b2 f1bc 6711 d3bd cf8a b8bd dae3 593d
000003e0: cbbc 64be 6b98 32bd 8716 02bd 4a8a 38bd
000003f0: f527 09be 6a25 283c 08e5 8d3d e4c4 19be

encoder.actor_encoder.net.mlp.0.bias f4 [256]
0.23154686 -0.03662784 0.15074964 -0.20690092 0.07404033 0.11793906 0.051226437 -0.25693184
-0.05002833 -0.12610924 0.032208417 0.059758086 0.07332182 0.14912933 -0.0048200833 0.10852351
-0.18738535 -0.03940753 -0.24951525 0.13853358 -0.0045534503 0.16398285 -0.07027751 0.14155553
-0.13257875 -0.08002661 -0.12887998 0.16726838 -0.20736426 0.10559409 -0.23882298 0.113611765
-0.05385893 -0.026887462 0.021247022 -0.015749432 0.14857198 -0.05988018 -0.06618294 0.03507474
0.018203951 -0.18080752 0.047519483 -0.16540922 -0.03526516 -0.11438148 -0.07700643 -0.16428414
-0.023976564 0.15190618 0.14236298 0.09238388 -0.06383135 0.05142142 -0.12430448 0.027372602
0.05406283 -0.034182724 -0.054642327 -0.0097258175 -0.07454971 0.24010617 -0.053398155 0.14394177
-0.003981493 0.073548086 0.1057197 0.036344808 0.066585116 -0.22026972 0.023739053 -0.0022585052
0.13502467 0.08850475 0.076558754 -0.1111305 0.09824749 0.10694073 -0.21697508 0.23533258
-0.1081199 0.09747283 -0.06190761 -0.12564619 -0.11929749 -0.019300431 0.10082065 0.09729899
-0.14466512 0.04588474 -0.06670186 0.0988266 0.030997166 -0.059909046 0.0011931694 -0.20264372
-0.06059722 0.058821943 0.20453933 0.07694826 0.10019703 -0.07357133 -0.108174406 -0.124052525
-0.0052715996 -0.08799308 -0.041675206 0.0677693 -0.069786295 0.03606096 -0.11302343 0.12814169
0.033024393 -0.15676858 0.097377524 0.08250151 -0.0559675 0.15355867 0.0962963 -0.030848455
0.16250168 -0.10698772 0.017470991 0.008028024 0.17776933 -0.35453495 -0.15499504 -0.24402371
0.05671999 0.20664991 0.25503713 0.08092884 -0.20283993 0.057021722 0.048417337 -0.20641057
0.22866403 0.022328956 0.023078589 -0.12831798 -0.22143885 0.18678169 0.020918876 0.06697727
-0.13558231 -0.020298481 0.09266755 -0.15875612 0.15071367 0.060343724 -0.033585615 -0.005933011
-0.05455552 -0.15483959 0.23064326 -0.049117934 0.0019784532 -0.034454893 -0.00799404 -0.24923788
-0.075883456 0.0953284 0.17147107 0.1228624 0.029193545 -0.06484953 0.19781186 0.18933056
0.24133162 -0.18251218 0.077602625 0.06668707 0.12185252 -0.16881816 -0.13213935 0.108051226
-0.021506308 0.07960119 -0.121601745 -0.0020353496 0.15141699 -0.19809026 -0.004631943 0.07536064
-0.15307516 0.11774954 -0.09093007 -0.22393845 -0.04401055 0.035977226 -0.03306361 -0.09495097
0.14212106 -0.088419914 0.13072386 -0.105247356 -0.06472404 -0.013693196 0.1502271 0.11775392
0.026405819 -0.08709004 -0.038077053 0.044151522 0.15487772 -0.0076170294 0.17749803 -0.06975118
-0.084260136 0.13203663 -0.17660944 0.00032524051 0.051325947 -0.15806372 0.15930723 -0.18420827
0.005642844 -0.02627172 -0.11267833 0.054945547 -0.1437085 0.0076102386 -0.08870596 0.01832587
-0.041692678 0.010732506 -0.041235477 -0.16576147 -0.15206437 -0.1742692 0.07144286 0.08022129
-0.040327393 0.15114273 -0.076010935 0.15152222 0.18373355 0.15487936 0.13681488 0.017464856
0.14674222 -0.27108613 0.0028644656 -0.13178654 -0.15685529 -0.0778504 -0.09781547 0.2457932
0.21120657 -0.14270234 0.096595444 -0.04955706 -0.06993409 -0.22402683 0.12118521 0.031015638
00000000: 9f1a 6d3e 1307 16bd 1d5e 1a3e d6dd 53be
00000010: 75a2 973d 098a f13d d0d2 513d 928c 83be
00000020: 82ea 4cbd c822 01be f9ec 033d e5c4 743d
00000030: c029 963d 5cb5 183e caf1 9dbb 9341 de3d
00000040: f2e1 3fbe ca69 21bd ed80 7fbe bfdb 0d3e
00000050: 1c35 95bb 1feb 273e a8ed 8fbd eff3 103e
00000060: b9c2 07be fee4 a3bd 1df9 03be 6748 2b3e
00000070: 4c57 54be b741 d83d 038e 74be 49ad e83d
00000080: 2e9b 5cbd 1843 dcbc 3c0e ae3c f404 81bc
00000090: 4123 183e eb44 75bd ec8a 87bd 88aa 0f3d
000000a0: 7420 953c 9b25 39be caa3 423d 0961 29be
000000b0: 3372 10bd d640 eabd 8cb5 9dbd 1a3a 28be
000000c0: 806a c4bc 4b8d 1b3e 9ac7 113e c233 bd3d
000000d0: 03ba 82bd 449f 523d 5993 febd 823c e03c
000000e0: fc70 5d3d 2f03 0cbd a2d0 5fbd 0959 1fbc
000000f0: 85ad 98bd 64de 753e 06b8 5abd 7965 133e
00000100: 2f77 82bb 61a0 963d 9283 d83d 4bde 143d
00000110: c75d 883d 638e 61be 6778 c23c 6e03 14bb
00000120: e843 0a3e fa41 b53d d6ca 9c3d 6398 e3bd
00000130: fb35 c93d be03 db3d b72e 5ebe 06fb 703e
00000140: f76d ddbd d69f c73d d692 7dbd 65a9 00be
00000150: 3e52 f4bd f01b 9ebc 0f7b ce3d b144 c73d
00000160: 1823 14be a3f1 3b3d fc9a 88bd 9a65 ca3d
00000170: c5ed fd3c 3063 75bd 1f64 9c3a d681 4fbe
00000180: ca34 78bd 47ef 703d c272 513e 0d97 9d3d
00000190: 1a34 cd3d 91ac 96bd 8b8a ddbd 400f febd
000001a0: 62bd acbb b735 b4bd 9fb3 2abd a1ca 8a3d
000001b0: 1eec 8ebd a8b4 133d d478 e7bd 9337 033e
000001c0: 9644 073d f187 20be de6d c73d 8df6 a83d
000001d0: 2d3e 65bd 7c3e 1d3e ff36 c53d e6b5 fcbc
000001e0: d766 263e 611c dbbd 531f 8f3c f987 033c
000001f0: 2a09 363e 9b85 b5be 05b7 1ebe 5ae1 79be
00000200: 3853 683d 099c 533e 3a94 823e 05be a53d
00000210: 45b5 4fbe 9c8f 693d 4251 463d 4b5d 53be
00000220: e726 6a3e 37eb b63c 4f0f bd3c ca65 03be
00000230: dec0 62be b343 3f3e 105e ab3c 612b 893d
00000240: 17d6 0abe 0049 a6bc 7cc8 bd3d f790 22be
00000250: af54 1a3e fb2a 773d 1291 09bd b469 c2bb
00000260: 9c75 5fbd 458e 1ebe bf2d 6c3e e32f 49bd
00000270: f0a8 013b 9320 0dbd 6ff9 02bc 3738 7fbe
00000280: c968 9bbd 893b c33d 1d96 2f3e 489f fb3d
00000290: 4d27 ef3c d5cf 84bd 318f 4a3e dfdf 413e
000002a0: a31f 773e 79e4 3abe 20ee 9e3d 3b93 883d
000002b0: d08d f93d abde 2cbe 8a4f 07be f649 dd3d
000002c0: ff2d b0bc f305 a33d 560a f9bd 8063 05bb
000002d0: 0e0d 1b3e 2cd8 4abe 8ec7 97bb ae56 9a3d
000002e0: bcbf 1cbe ac26 f13d 8b39 babd 1f50 65be
000002f0: 6844 34bd db5c 133d b56d 07bd a775 c2bd
00000300: 2f88 113e 8015 b5bd 7adc 053e ed8b d7bd
00000310: 0a8e 84bd 6d59 60bc 22d5 193e f828 f13d
00000320: 0451 d83c 435c b2bd aff6 1bbd 3ad8 343d
00000330: 4498 1e3e 4698 f9bb 0bc2 353e b5d9 8ebd
00000340: 9490 acbd 9c34 073e 1bd9 34be 0b85 aa39
00000350: 283b 523d 75db 21be 6f21 233e 18a1 3cbe
00000360: 9be7 b83b ca37 d7bc e5c3 e6bd 950e 613d
00000370: 5228 13be 4f5f f93b 78ab b5bd 2320 963c
00000380: f1c5 2abd 65d7 2f3c 88e6 28bd 60bd 29be
00000390: c3b6 1bbe a073 32be a250 923d 0f4b a43d
000003a0: 562e 25bd 29c5 1a3e 9fab 9bbd a428 1b3e
000003b0: a624 3c3e b298 1e3e 3319 0c3e 7512 8f3c
000003c0: 9843 163e cdcb 8abe c2b9 3b3b 0df3 06be
000003d0: ac9e 20be 0870 9fbd 7a53 c8bd 36b1 7b3e
000003e0: 8946 583e 9020 12be d5d3 c53d 58fc 4abd
000003f0: 9b39 8fbd 4a67 65be f42f f83d 8214 fe3c

encoder.actor_encoder.net.mlp.2.weight f4 [256, 256]
-0.055476513 -0.018314064 -0.0342382 0.029835312 0.050700683 -0.02140997 0.054602258 0.027766243
0.024977047 -0.0032208243 0.039988846 0.06315518 -0.018435938 0.0081445165 -0.08519861 -0.03807767
-0.053931825 -0.06206632 0.08038082 0.005107414 -0.009280871 -0.056102365 -0.032642465 -0.03155682
-0.026228482 0.051925797 -0.03686635 -0.03191033 0.045516647 -0.008038311 0.0056211827 -0.046807732
0.034858897 -0.014627168 -0.05993733 -0.04670797 -0.071361065 -0.07690344 -0.07888966 0.03512642
0.04304805 0.04195657 0.05073429 0.013843957 -0.0039750286 -0.07721911 0.035708126 0.004260943
0.010054194 -0.029595554 0.03454599 -0.01739558 0.058742765 0.04838188 0.06387033 -0.035859026
0.0008917782 -0.043765686 0.0067569753 0.039405327 -0.054770812 -0.0007267797 0.019622402 -0.05258967
0.0014511424 0.048758313 0.07706669 0.009965522 -0.054496054 -0.009147313 0.07178087 -0.022036524
-0.019691324 0.051170755 -0.056195114 0.036305096 0.015780874 0.07319992 -0.03588062 0.028511109
-0.03275545 0.059640102 -0.028541865 0.008493803 0.038658503 -0.04384179 0.0058064796 0.014503228
-0.08407496 -0.02489469 -0.0070104003 -0.026563918 -0.0421021 -0.016321933 0.003378388 0.056447864
0.028517228 -0.0046992265 0.023327896 0.040480662 0.04131722 -0.06455087 -0.01344182 -0.051001538
0.03958653 -0.022294238 -0.030214699 -0.035425916 0.017692778 -0.0049457937 -0.0063564256 -0.012579769
-0.0057103247 0.022525547 -0.032256775 0.012782937 0.055604894 -0.028034048 0.054202903 0.028213743
0.023270492 0.0524909 0.035925638 0.017723791 0.064862855 0.05481571 -0.055738706 0.040982172
0.029658087 -0.010559206 0.05543797 0.032035347 0.048218362 0.013036693 0.055774078 -0.005395309
-0.058925103 -0.02110861 0.011892738 0.05037133 -0.040779933 -0.026118606 0.016140988 0.03888208
-0.07240677 0.011579433 -0.04091637 -0.022509394 0.033405185 0.013450576 0.045812856 -0.027476659
0.071003504 0.0034249083 0.04834044 -0.017854476 -0.025183175 -0.012393517 -0.0035738633 -0.017382395
-0.0044318577 0.033954483 0.0558518 -0.052893598 0.047643226 0.051094633 0.01650393 0.024911258
-0.0009179715 -0.057161447 0.055915393 0.024936974 0.033897784 0.05261628 -0.036121346 0.085072786
0.03233557 0.037134934 -0.044175822 -0.01679829 0.015460223 0.022522144 -0.04617912 -0.053894717
-0.026216699 0.046403762 -0.042057592 -0.04426823 0.01953145 -0.02588059 -0.03484144 -0.004315003
0.041576456 0.0639944 -0.013629591 0.0648007 0.043305468 -0.0008832861 -0.05752532 0.039472006
-0.02361261 -0.062004343 -0.002865382 0.022689214 -0.0633587 -0.013159504 -0.040418755 0.03195731
0.03624619 0.019135352 0.015292764 0.06330378 -0.03418411 0.016588552 0.0076682735 -0.04854625
0.0034683938 0.05307888 -0.024509626 0.049819093 0.019666923 -0.013435037 0.024683068 0.073965624
-0.038450453 0.058976077 -0.06871678 -0.052595247 0.062201485 -0.039520644 -0.03331494 0.062600434
-0.030834962 0.01732356 0.06517327 0.00051209965 -0.028364135 -0.041304983 0.02161872 0.06917171
-0.0434647 0.008026647 -0.07882369 -0.008083401 -0.055500906 0.036767915 -0.020184526 0.022679627
-0.05039446 -0.037300017 -0.005966344 -0.025061317 0.0047356044 0.06443833 -0.053250503 0.05624921
00000000: 573b 63bd 6007 96bc 5b3d 0cbd 2f69 f43c
00000010: 85ab 4f3d f663 afbc 9ea6 5f3d 0876 e33c
00000020: aa9c cc3c 7714 53bb 58cb 233d 8157 813d
00000030: f706 97bc 9470 053c 9c7c aebd 55f7 1bbd
00000040: 9ee7 5cbd 4139 7ebd b39e a43d 185c a73b
00000050: cb0e 18bc 98cb 65bd 1bb4 05bd b941 01bd
00000060: 1ddd d6bc 25b0 543d 2b01 17bd 68b4 02bd
00000070: aa6f 3a3d 1fb3 03bc e631 b83b 77b9 3fbd
00000080: 34c8 0e3d caa6 6fbc d980 75bd db50 3fbd
00000090: c025 92bd 8d7f 9dbd e790 a1bd b9e0 0f3d
000000a0: 2753 303d a7da 2b3d c2ce 4f3d c4d1 623c
000000b0: f540 82bb 0e25 9ebd af42 123d 619f 8b3b
000000c0: 59ba 243c 6072 f2bc 1980 0d3d 2d81 8ebc
000000d0: 419c 703d 142c 463d 73ce 823d eae0 12bd
000000e0: 39c6 693a a643 33bd 9e69 dd3b 7b67 213d
000000f0: 5c57 60bd 5c85 3eba 29bf a03c 4468 57bd
00000100: 4234 be3a ccb6 473d 24d5 9d3d 6e46 233c
00000110: 4137 5fbd 9dde 15bc d901 933d f185 b4bc
00000120: b34f a1bc 6d98 513d d92c 66bd a7b4 143d
00000130: e446 813c d7e9 953d 8ff7 12bd 2190 e93c
00000140: 942a 06bd 2e49 743d a1d0 e9bc 9829 0b3c
00000150: 6158 1e3d 7393 33bd 4844 be3b f29e 6d3c
00000160: 7e2f acbd f3ef cbbc 80b7 e5bb 939c d9bc
00000170: 4073 2cbd 93b5 85bc f267 5d3b e035 673d
00000180: f69c e93c f8fb 99bb 251a bf3c 0dcf 253d
00000190: 3f3c 293d 3f33 84bd 143b 5cbc fde6 50bd
000001a0: 7c25 223d 68a2 b6bc d184 f7bc c41a 11bd
000001b0: 72f0 903c 5310 a2bb 9049 d0bb 601b 4ebc
000001c0: ad1d bbbb 7f87 b83c ae1f 04bd 866f 513c
000001d0: f5c1 633d a9a7 e5bc dd03 5e3d 8220 e73c
000001e0: c2a1 be3c b300 573d c326 133d 7c31 913c
000001f0: d1d6 843d 7086 603d 454e 64bd ecdc 273d
00000200: 84f5 f23c 8500 2dbc ed12 633d 7f37 033d
00000210: 9e80 453d db97 553c 5c73 643d 22cb b0bb
00000220: 735b 71bd f7eb acbc c2d9 423c 2b52 4e3d
00000230: dc08 27bd b0f6 d5bc 1b3a 843c d142 1f3d
00000240: 004a 94bd aab7 3d3c ec97 27bd 9f65 b8bc
00000250: e0d3 083d ce5f 5c3c 43a6 3b3d bb16 e1bc
00000260: 496a 913d 6d74 603b a000 463d 8d43 92bc
00000270: f24c cebc 2e0e 4bbc 7a37 6abb 8665 8ebc
00000280: 1e39 91bb db13 0b3d dbc4 643d f5a6 58bd
00000290: 8b25 433d 9b48 513d 4033 873c b212 cc3c
000002a0: 06a4 70ba 1f22 6abd 8a07 653d a048 cc3c
000002b0: 67d8 0a3d 2b84 573d faf3 13bd a43a ae3d
000002c0: 4d72 043d cd1a 183d b5f1 34bd 919c 89bc
000002d0: e04c 7d3c 5c80 b83c 5126 3dbd b5c0 5cbd
000002e0: 67c4 d6bc df11 3e3d 9544 2cbd 9b52 35bd
000002f0: 6b00 a03c 8803 d4bc e6b5 0ebd de64 8dbb
00000300: 134c 2a3d 7f0f 833d a64e 5fbc 3bb6 843d
00000310: 1361 313d 548c 67ba ac9f 6bbd 66ad 213d
00000320: 3b6f c1bc 44f8 7dbd 22c9 3bbb bbde b93c
00000330: 35c2 81bd f69a 57bc 238e 25bd abe5 023d
00000340: e376 143d bec1 9c3c 808e 7a3c 6aa5 813d
00000350: a304 0cbd b7e4 873c 2446 fb3b 6fd8 46bd
00000360: fe4d 633b 3d69 593d 69c8 c8bc 1b0f 4c3d
00000370: 871c a13c a11e 5cbc 2534 ca3c 4a7b 973d
00000380: 397e 1dbd e690 713d 62bb 8cbd 1d6e 57bd
00000390: fcc6 7e3d 66e0 21bd 3f75 08bd a834 803d
000003a0: 9a99 fcbc 23ea 8d3c 9079 853d 6d3e 063a
000003b0: e75b e8bc 6a2f 29bd be19 b13c e6a9 8d3d
000003c0: 0b08 32bd 3382 033c 516e a1bd 3e70 04bc
000003d0: eb54 63bd f499 163d 055a a5bc a0ca b93c
000003e0: 6c6a 4ebd e7c7 18bd 5281 c3bb 644d cdbc
000003f0: 212d 9b3b 3ef8 833d 331d 5abd 9265 663d

encoder.actor_encoder.net.mlp.2.bias f4 [256]
-0.015473748 -0.036978025 0.02139343 -0.15247865 0.018753493 -0.049530506 -0.0050199125 -0.030774403
0.031503383 -0.12214094 0.02926056 0.036894336 0.007836324 -0.053871743 -0.0017191694 -0.010890458
0.020130293 0.07929303 0.03798736 0.04873565 -0.01877849 -0.0076005235 0.006991158 -0.12597801
-0.03218432 0.0017197452 -0.021812607 -0.020502672 -0.025103487 -0.077395715 -0.06751753 -0.027548747
0.027725505 -0.07934636 0.07410292 -0.019669814 0.037409328 -0.044869814 -0.0018695508 -0.087077774
0.022897467 -0.093534105 -0.10359711 -0.050889567 0.0950888 -0.04349158 -0.12089754 -0.028580148
-0.042056136 0.058405217 0.06128989 0.051616598 -0.01709043 -0.06269034 0.036455877 -0.036659867
-0.029174503 -0.16934994 -0.011349988 -0.048721235 0.0063457605 0.045214932 0.059827693 -0.027756479
-0.05394589 -0.021225981 -0.04990675 0.023319773 0.043616597 -0.050382614 -0.068657026 -0.020509027
0.05619542 -0.009346054 -0.009952977 0.119530685 -0.01863574 -0.029797906 0.06397481 -0.094837524
-0.041901223 0.041699916 0.05700862 -0.08796644 0.053041797 -0.004284506 -0.02743962 0.0058438485
0.042214237 0.023664773 0.14866702 -0.025436893 -0.008196581 -0.005951537 0.053973634 -0.041659
-0.03057497 -0.12107374 -0.090485506 -0.05047131 -0.05321026 0.0466315 0.014555482 0.01458905
-0.037289523 0.03104555 -0.09241155 -0.047078982 0.018857328 -0.085852385 0.002293913 0.030637767
-0.042718176 -0.08852714 0.022490792 -0.015128108 -0.0555837 -0.07512818 0.0076099923 -0.038829483
-0.1406846 0.04699586 0.022003373 0.00373119 -0.062226962 -0.060673762 -0.0191016 0.10064022
0.0018742642 -0.10388207 -0.025137134 -0.04398857 0.057658818 -0.13132896 0.049075894 0.018672433
-0.011498856 -0.024418041 0.04267138 -0.0039578215 0.09748673 -0.011978179 -0.03668652 0.092301354
-0.027368836 -0.039457887 0.025865965 -0.020695651 0.044881925 0.03930332 -0.05089723 -0.025939105
0.0632622 -0.049895238 -0.037797485 -0.030798683 -0.032433294 0.0030413126 0.045413744 -0.03397608
0.053944394 -0.0013129665 -0.004976447 -0.043382563 -0.014013788 -0.05004169 -0.10774316 -0.069727466
-0.009535001 0.031789616 -0.11316266 0.051182 -0.060792692 -0.05924547 -0.0927343 -0.060795676
0.102808714 -0.02754339 -0.020518806 -0.026687475 -0.02950532 0.045751177 -0.04081047 -0.036733087
-0.08772939 -0.048137594 -0.010722088 0.063623056 -0.02326929 -0.104516424 0.046995837 0.06110297
-0.08127463 0.18203387 0.007979533 -0.07198569 -0.008237838 -0.040562343 0.023409672 -0.06832222
-0.0174906 -0.06426501 0.09066317 -0.003149355 0.04711698 0.08260002 -0.005288218 0.07650193
0.045113854 0.039541155 -0.03418775 0.11303575 -0.012410012 -0.015258283 0.025017554 -0.033057466
-0.039015148 0.11178582 0.05220654 0.041351695 -0.049401887 -0.05400854 -0.058603052 -0.033597182
-0.050694756 0.07320095 0.04631886 0.02097954 0.043987878 -0.05984271 0.062382046 0.026851792
0.051384915 -0.06072058 -0.020635264 -0.060681116 -0.0047706636 0.14334464 -0.052833732 -0.067825325
-0.019165266 0.09371613 -0.02853692 -0.08712625 -0.018346094 -0.118342854 -0.043955177 0.018618818
-0.13153934 0.024679825 0.08349471 0.08603836 -0.019161494 0.024393687 0.083029576 -0.056049637
00000000: 9a85 7dbc 4576 17bd 4641 af3c 5d23 1cbe
00000010: eda0 993c 80e0 4abd 147e a4bb 9a1a fcbc
00000020: b109 013d 0725 fabd d8b3 ef3c 841e 173d
00000030: ed63 003c 9ea8 5cbd c155 e1ba e46d 32bc
00000040: 49e8 a43c 6264 a23d a298 1b3d 089f 473d
00000050: 59d5 99bc d00d f9bb 1516 e53b 6100 01be
00000060: b5d3 03bd 1369 e13a 5ab0 b2bc 38f5 a7bc
00000070: d4a5 cdbc a581 9ebd a146 8abd e9ad e1bc
00000080: 9920 e33c 5880 a2bd 46c3 973d 9722 a1bc
00000090: 863a 193d 69c9 37bd b70b f5ba d555 b2bd
000000a0: 7893 bb3c cf8e bfbd b92a d4bd 9471 50bd
000000b0: ebbd c23d 3a24 32bd 2199 f7bd ea20 eabc
000000c0: 0e43 2cbd 4f3a 6f3d 1c0b 7b3d ed6b 533d
000000d0: 3b01 8cbc cb63 80bd c252 153d a828 16bd
000000e0: 5eff eebc 126a 2dbe 4df5 39bc eb8f 47bd
000000f0: 19f0 cf3b 4b33 393d e20d 753d 8e61 e3bc
00000100: 5ef6 5cbd 1ce2 adbc 056b 4cbd 1c09 bf3c
00000110: 51a7 323d 005e 4ebd 0e9c 8cbd 8c02 a8bc
00000120: 2b2d 663d 3120 19bc d011 23bc 81cc f43d
00000130: fba9 98bc bd1a f4bc 3a05 833d 2d3a c2bd
00000140: 9ea0 2bbd 88cd 2a3d df81 693d c027 b4bd
00000150: 5b42 593d 0b65 8cbb 0ec9 e0bc c17d bf3b
00000160: d6e8 2c3d a0dc c13c 2b3c 183e 0861 d0bc
00000170: f44a 06bc 1c05 c3bb 7513 5d3d a1a2 2abd
00000180: 5c78 fabc 82f5 f7bd 7750 b9bd 01bb 4ebd
00000190: 00f3 59bd ac00 3f3d 1e7a 6e3c e906 6f3c
000001a0: e6bc 18bd 3d53 fe3c 4442 bdbd e4d5 40bd
000001b0: af7a 9a3c 60d3 afbd 7955 163b 0efc fa3c
000001c0: 41f9 2ebd b84d b5bd 9c3e b83c e2db 77bc
000001d0: bcab 63bd cedc 99bd 3e5d f93b aa0b 1fbd
000001e0: a00f 10be bb7e 403d 6b40 b43c fb86 743b
000001f0: b3e1 7ebd 0d85 78bd f57a 9cbc 761c ce3d
00000200: dfa9 f53a 1fc0 d4bd 64ec cdbc 5c2d 34bd
00000210: a72b 6c3d 197b 06be ce03 493d eef6 983c
00000220: b365 3cbc 5808 c8bc 2fc8 2e3d 9db0 81bb
00000230: 1fa7 c73d 2040 44bc 9b44 16bd 7e08 bd3d
00000240: 9c34 e0bc 989e 21bd dce4 d33c ed89 a9bc
00000250: 1cd6 373d 85fc 203d 9d79 50bd 3f7e d4bc
00000260: 9d8f 813d f35e 4cbd 89d1 1abd 854d fcbc
00000270: c6d8 04bd c250 473b c303 3a3d 812a 0bbd
00000280: ccf4 5c3d d817 acba 7711 a3bb eab1 31bd
00000290: 169a 65bc 84f8 4cbd 72a8 dcbd 46cd 8ebd
000002a0: b138 1cbc d435 023d d3c1 e7bd 38a4 513d
000002b0: c201 79bd 61ab 72bd 7beb bdbd e304 79bd
000002c0: 608d d23d ada2 e1bc 0e17 a8bc b19f dabc
000002d0: 24b5 f1bc 9665 3b3d e128 27bd 6f75 16bd
000002e0: 77ab b3bd ed2b 45bd b2ab 2fbc ce4c 823d
000002f0: 3d9f bebc b50c d6bd b57e 403d 1c47 7a3d
00000300: 5073 a6bd 1667 3a3e 96bc 023c 3c6d 93bd
00000310: fff7 06bc b324 26bd a4c5 bf3c 85ec 8bbd
00000320: 7248 8fbc 609d 83bd 9dad b93d 6965 4ebb
00000330: bcfd 403d 332a a93d ca48 adbb 0bad 9c3d
00000340: 4ec9 383d e8f5 213d 7408 0cbd 4a7f e73d
00000350: 5d53 4bbc e1fd 79bc 9df1 cc3c 4467 07bd
00000360: 59ce 1fbd f7ef e43d 86d6 553d 6560 293d
00000370: a259 4abd 0f38 5dbd c109 70bd 339d 09bd
00000380: 4ea5 4fbd 61ea 953d d8b8 3d3d 49dd ab3c
00000390: a22c 343d a11d 75bd 5184 7f3d 4af8 db3c
000003a0: fd78 523d 25b6 78bd 490b a9bc c38c 78bd
000003b0: 3a53 9cbb f0c8 123e 2f68 58bd 01e8 8abd
000003c0: 7a00 9dbc 3eee bf3d 42c6 e9bc 3f6f b2bd
000003d0: 8c4a 96bc bd5d f2bd 580a 34bd 7e86 983c
000003e0: 40b2 06be 582d ca3c 46ff aa3d e134 b03d
000003f0: 91f8 9cbc 45d5 c73c 690b aa3d 4e94 65bd

encoder.critic_encoder.net.mlp.0.weight f4 [256, 54]
0.033839118 -0.098792925 -0.03809748 0.07058374 0.0015791593 0.03494355 -0.113740355 -0.023739662
0.0049857693 -0.029874837 -0.08606253 0.061864633 -0.13298966 -0.07667196 -0.09708556 0.06506382
-0.10508825 0.060759854 0.15432577 -0.10342163 -0.04209267 0.07017673 -0.010433129 0.06365624
0.10422795 0.002618203 0.002519809 0.016958283 -0.1250334 0.15929966 -0.059177008 -0.075236805
0.09753776 -0.09725156 -0.013558723 -0.14491557 0.0017034264 -0.1462936 0.0020990998 -0.14561205
0.080289446 -0.002120745 0.13659303 0.04144269 0.13010801 -0.08232072 -0.07903129 0.12078926
0.0932994 -0.015561444 -0.030979646 0.04000694 0.030491592 -0.0851031 0.0052948412 0.014028085
0.005567164 0.04963183 -0.01016 0.16621701 0.10535194 0.016844945 -0.027657537 -0.02850361
0.005005088 0.06292417 0.029522208 -0.0052722613 0.060660888 0.044879314 0.04848589 -0.00437153
-0.042662684 0.032215584 -0.005860364 0.014670555 -0.00968609 0.036092762 -0.029540548 -0.056706835
0.10798508 0.022077648 -0.121176645 0.008316956 -0.044222124 0.09560596 -0.055404402 0.042427234
-0.037264615 -0.006138917 -0.062304147 -0.00792999 0.023797888 0.08142609 -0.050731 0.14003427
-0.00010838753 -0.0492149 0.085018106 0.0070128506 0.010831001 0.056677055 -0.08733904 0.1407847
-0.024133407 0.018329093 -0.07334679 0.035737593 -0.06530682 -0.071194716 0.11028819 -0.039643496
-0.05904215 -0.11979686 0.13095513 -0.001624839 -0.036564894 0.015826926 -0.06041067 -0.07098147
-0.0056059244 0.036364965 0.0055541475 0.0070211547 0.013800671 -0.0015826868 -0.017452855 -0.047653735
0.05137267 0.026392955 -0.0025956219 0.04746793 -0.029398585 -0.1335106 -0.0055187955 -0.113482624
0.010979235 0.01601121 -0.039117444 0.07215869 0.12198147 0.03126833 -0.04639871 0.08912297
0.11112722 -0.094523005 0.018112132 0.036176108 -0.09458821 0.1131967 -0.11415952 0.12354575
0.11484157 0.03414911 0.11273544 0.030657202 0.13036233 0.0561168 0.016089968 0.038517475
0.110763595 0.11306748 0.012657967 0.080618374 -0.054832015 0.07518026 0.06421863 -0.048495926
-0.029046694 0.010729512 -0.079585105 0.07631413 -0.071193665 -0.043990996 0.011771463 -0.018369997
-0.09452646 0.035746377 -0.06605294 -0.03467506 -0.08643294 0.024188438 -0.040225834 -0.12196105
-0.11640585 -0.022542965 0.09605469 -0.15178668 -0.09890824 -0.009523555 0.10776505 0.06578539
0.039043754 0.00600305 -0.026933886 0.06260412 -0.01429512 0.086318225 0.047927495 -0.08338255
-0.11845441 0.056853943 0.059006833 0.088224545 -0.10778584 -0.031153485 -0.010483643 -0.077903844
0.077577785 -0.011865982 -0.12708746 -0.0019188963 0.04285481 0.06974315 -0.08745152 0.0667508
-0.12188552 -0.03575992 -0.15848167 -0.021385757 -0.05490688 0.12653978 0.17553304 -0.0040275543
-0.123956546 0.030831678 0.09119734 -0.044055644 -0.1007205 -0.06355982 0.06683339 0.049677618
-0.021906842 0.025322707 0.12781264 -0.008529157 0.10929136 -0.06362295 -0.17318521 0.00017399593
-0.053838413 -0.022342354 0.13263921 -0.042507302 0.044008173 0.034353595 -0.011567724 -0.106487215
0.030031497 -0.05765342 -0.10186377 -0.029527938 0.08297884 -0.016005926 0.028749563 0.078846574
00000000: e39a 0a3d f253 cabd 1a0c 1cbd 358e 903d
00000010: cbfb ce3a f820 0f3d b4f0 e8bd ae79 c2bc
00000020: aa5f a33b 13bc f4bc 8d41 b0bd c565 7d3d
00000030: 712e 08be 3006 9dbd cbd4 c6bd 2e40 853d
00000040: 8238 d7bd 53df 783d 9307 1e3e b8ce d3bd
00000050: 5d69 2cbd d1b8 8f3d b7ef 2abc 345e 823d
00000060: 7775 d53d 2896 2b3b 6123 253b 19ec 8a3c
00000070: c108 00be 731f 233e 9763 72bd c115 9abd
00000080: e1c1 c73d d32b c7bd 6825 5ebc bf64 14be
00000090: 8145 df3a fdcd 15be 0d91 093b 531b 15be
000000a0: cb6e a43d 32fc 0abb 0bdf 0b3e cfbf 293d
000000b0: 093b 053e c497 a8bd 28db a1bd 5c60 f73d
000000c0: c113 bf3d 6df5 7ebc 07c9 fdbc 51de 233d
000000d0: 81c9 f93c 894a aebd 5980 ad3b 0ed6 653c
000000e0: c26c b63b bf4a 4b3d 2176 26bc cb34 2a3e
000000f0: c2c2 d73d 69fe 893c 0f92 e2bc 6780 e9bc
00000100: b901 a43b 63de 803d 8fd8 f13c efc2 acbb
00000110: 8d77 783d 5fd3 373d 2499 463d 0d3f 8fbb
00000120: 11bf 2ebd 7df4 033d 4c08 c0bb c45c 703c
00000130: 68b2 1ebc 01d6 133d 05ff f1bc 6d45 68bd
00000140: 4827 dd3d 2fdc b43c 762b f8bd d843 083c
00000150: 4222 35bd 0fcd c33d baef 62bd 2ec8 2d3d
00000160: c8a2 18bd f828 c9bb a232 7fbd caec 01bc
00000170: caf3 c23c b9c2 a63d 4fcb 4fbd 2565 0f3e
00000180: 1d4e e3b8 9095 49bd f91d ae3d 0ecc e53b
00000190: 8374 313c 3326 683d d0de b2bd dd29 103e
000001a0: 6cb3 c5bc e526 963c d836 96bd 9561 123d
000001b0: 95bf 85bd 89ce 91bd c6de e13d 3861 22bd
000001c0: 2ed6 71bd 0e58 f5bd 1a19 063e 8df8 d4ba
000001d0: 12c5 15bd 78a7 813c 2e71 77bd bc5e 91bd
000001e0: e7b1 b7bb 6ef3 143d 91ff b53b b711 e63b
000001f0: 361c 623c 2872 cfba 4af9 8ebc 9030 43bd
00000200: 266c 523d 0a36 d83c 4f1b 2abb bb6d 423d
00000210: 4dd5 f0bc 01b7 08be 03d7 b4bb 9469 e8bd
00000220: 40e2 333c f129 833c 9d39 20bd efc7 933d
00000230: 6cd1 f93d 3813 003d 930c 3ebd 1b86 b63d
00000240: ab96 e33d 4795 c1bd e55f 943c 662d 143d
00000250: 77b7 c1bd acd3 e73d 77cc e9bd 8e05 fd3d
00000260: 0f32 eb3d f0df 0b3d d7e1 e63d d024 fb3c
00000270: b47d 053e bbda 653d 1ccf 833c 80c4 1d3d
00000280: 06d8 e23d ec8f e73d 5d63 4f3c 3f1b a53d
00000290: 8997 60bd 1cf8 993d 0f85 833d aaa3 46bd
000002a0: 55f3 edbc d6ca 2f3c 84fd a2bd 954a 9c3d
000002b0: fccd 91bd e72f 34bd 18dd 403c ad7c 96bc
000002c0: 1797 c1bd cb6a 123d c446 87bd 7007 0ebd
000002d0: c103 b1bd d526 c63c d8c3 24bd b7c6 f9bd
000002e0: 3166 eebd 06ac b8bc 52b8 c43d f86d 1bbe
000002f0: 6790 cabd af08 1cbc ecb3 dc3d 7eba 863d
00000300: 58ec 1f3d 3cb5 c43b 74a4 dcbc 9736 803d
00000310: 1436 6abc 9cc7 b03d 9f4f 443d 78c4 aabd
00000320: 3a98 f2bd aedf 683d 26b1 713d 12af b43d
00000330: d3be dcbd 9835 ffbc 96c3 2bbc 0d8c 9fbd
00000340: 1ae1 9e3d 8969 42bc 3723 02be 7a83 fbba
00000350: 8688 2f3d 7fd5 8e3d c819 b3bd a5b4 883d
00000360: 1e9f f9bd fe78 12bd 0549 22be 2f31 afbc
00000370: 09e6 60bd a593 013e efbe 333e 93f9 83bb
00000380: eedc fdbd b792 fc3c acc5 ba3d b173 34bd
00000390: 8d46 cebd a72b 82bd f2df 883d c27a 4b3d
000003a0: fa75 b3bc 9171 cf3c 51e1 023e e1bd 0bbc
000003b0: 26d4 df3d c04c 82bd 7757 31be ad72 3639
000003c0: ab85 5cbd 5007 b7bc 93d2 073e 231c 2ebd
000003d0: ea41 343d 5bb6 0c3d 8d86 3dbc f815 dabd
000003e0: 9d04 f63c fe25 6cbd f49d d0bd 93e4 f1bc
000003f0: cff0 a93d dc1e 83bc 3484 eb3c 507a a13d

encoder.critic_encoder.net.mlp.0.bias f4 [256]
0.18331283 0.13560441 0.05556924 -0.08792473 -0.36862618 0.37146917 0.06781937 0.09136827
-0.27752408 0.012571139 0.16672017 -0.0602966 -0.1590486 0.0053457697 0.1262103 0.12968746
-0.39042258 0.01727214 0.07922334 0.06572602 0.23381405 -0.2115085 0.50959474 0.2787029
0.049393304 -0.1652924 0.29658934 0.28531456 -0.21460702 0.013174316 -0.11071392 -0.042832755
-0.14436366 -0.04565797 0.13280733 0.1312771 0.064870365 0.021411298 -0.052361425 -0.002759495
0.106773995 -0.123125575 0.38757843 -0.42927116 -0.16968898 -0.18907858 0.25840405 -0.1641742
0.19613361 0.07138899 -0.20051926 0.34736747 0.11481374 -0.16037941 -0.21469587 0.18084781
0.21195774 -0.14382389 0.13827246 -0.26490512 -0.09787679 0.2336308 -0.19506203 0.06973236
0.080415145 0.13682894 -0.102745414 0.18571952 0.2615718 0.014852526 -0.07855189 0.10957381
-0.052582726 0.21577317 -0.13791253 0.26274943 -0.11294866 0.24682762 0.113956034 -0.28081504
0.14027652 -0.1413569 -0.09731078 0.21800621 0.31279644 -0.12237687 0.09492558 -0.16863605
0.058623843 0.25794676 -0.41925967 0.08012184 0.22929496 0.101684645 0.18097451 -0.14969169
-0.20835745 -0.23923843 0.024873277 0.11066164 0.22782177 -0.04270923 -0.21298376 0.058090974
-0.09921067 -0.095898494 0.3043655 0.37525132 0.040958177 -0.27639148 -0.11425801 0.18433784
0.1983525 -0.008592753 0.160581 0.09219209 0.22678848 0.24939613 -0.0047615715 0.32318023
-0.19071998 -0.082884975 -0.087856784 -0.33280575 0.14503811 -0.106777124 -0.093303174 0.15644945
0.3044233 0.17687133 0.097481586 0.25808457 -0.24393646 0.1347707 -0.06311726 0.3186121
0.049370237 0.26528776 0.23293021 0.012015282 0.31735495 0.14006996 -0.19740476 0.0928976
0.12288758 0.10198134 0.12648493 -0.101776935 -0.10939138 -0.04884568 0.043307357 0.0035179195
-0.12024994 -0.12640536 -0.07360502 0.20317103 -0.021223497 -0.3244116 -0.12962721 0.0033069006
-0.07849929 -0.07042942 0.38073996 0.05423184 0.20234084 -0.027662411 0.15999833 0.0043094186
0.16738658 -0.15669075 0.26264212 -0.28706256 -0.30489704 0.24450935 0.03856699 0.08730963
0.038147267 -0.05507304 -0.23184322 0.17049852 -0.11668546 -0.28166953 -0.12503806 0.22045523
-0.25864357 0.11678109 -0.19131851 0.11663842 -0.07853947 -0.24358243 -0.16712208 -0.061438162
0.29049408 -0.04433068 -0.18759203 0.19146791 0.00058374536 -0.16020747 0.28766292 -0.03976632
-0.08455294 0.09576077 -0.40365666 -0.31268188 -0.30443388 -0.19342545 -0.022924803 -0.033549283
-0.10924558 0.019540919 -0.35810417 0.29840705 -0.17149472 -0.23355356 0.13866574 0.1217246
0.19258577 0.25972226 -0.23749137 -0.116792455 0.2889131 0.19578852 -0.08171298 0.13558641
0.22398259 0.18298045 -0.102004565 -0.007841915 0.108892456 -0.2488987 -0.16395564 -0.19828406
-0.19043024 0.34050775 -0.2272068 -0.29633012 0.29297358 0.072179556 0.030245613 -0.032201238
-0.05805326 -0.2196315 -0.19277087 0.14266391 0.0908807 0.015196963 -0.242764 -0.31642333
0.18531923 0.37032634 0.18829148 0.028134527 -0.041221008 0.14425212 0.33780375 -0.33197996
00000000: 5cb6 3b3e e2db 0a3e 929c 633d e111 b4bd
00000010: 92bc bcbe 3531 be3e e2e4 8a3d 4a1f bb3d
00000020: a317 8ebe 2ef7 4d3c b1b8 2a3e 91f9 76bd
00000030: a3dd 22be 912b af3b 463d 013e cacc 043e
00000040: 78e5 c7be 4e7e 8d3c d93f a23d 5d9b 863d
00000050: f36c 6f3e af95 58be cd74 023f 26b2 8e3e
00000060: a250 4a3d 6942 29be 8fda 973e c014 923e
00000070: f1c1 5bbe 16d9 573c fbbd e2bd 6671 2fbd
00000080: 11d4 13be da03 3bbd a5fe 073e 816d 063e
00000090: c1da 843d bf66 af3c ef78 56bd a5d8 34bb
000000a0: 53ac da3d 4329 fcbd ae70 c63e 6ec9 dbbe
000000b0: f3c2 2dbe d19d 41be 894d 843e 481d 28be
000000c0: 40d7 483e 6434 923d ec54 4dbe 26da b13e
000000d0: 7723 eb3d 803a 24be 3cd9 5bbe 2b30 393e
000000e0: 730b 593e 9246 13be 4c97 0d3e a5a1 87be
000000f0: a073 c8bd ea3c 6f3e 57be 47be d7cf 8e3d
00000100: b2b0 a43d e31c 0c3e 306c d2bd 422d 3e3e
00000110: bdec 853e 0258 733c d0df a0bd 3c68 e03d
00000120: fc60 57bd a4f3 5c3e f138 0dbe 1887 863e
00000130: a151 e7bd 61c0 7c3e c861 e93d fdc6 8fbe
00000140: a6a4 0f3e ddbf 10be e04a c7bd 053d 5f3e
00000150: db26 a03e b9a0 fabd 5868 c23d eeae 2cbe
00000160: 8e1f 703d 9911 843e 34a9 d6be eb16 a43d
00000170: 4ccc 6a3e 0a40 d03d 6251 393e c748 19be
00000180: a85b 55be ebfa 74be 0bc3 cb3c 92a2 e23d
00000190: 1c4a 693e e0ef 2ebd 6a18 5abe cdf0 6d3d
000001a0: f72e cbbd 6e66 c4bd cbd5 9b3e f120 c03e
000001b0: c3c3 273d 2f83 8dbe 1b00 eabd 0fc3 3c3e
000001c0: eb1c 4b3e 9ec8 0cbc 586f 243e 35cf bc3d
000001d0: 3d3b 683e b361 7f3e f506 9cbb e177 a53e
000001e0: 194c 43be 99bf a9bd 42ee b3bd 8465 aabe
000001f0: df84 143e f7ad dabd bc15 bfbd 4934 203e
00000200: 5fdd 9b3e c21d 353e 6da4 c73d a923 843e
00000210: 7bca 79be 5501 0a3e 9f43 81bd 2021 a33e
00000220: 7238 4a3d ccd3 873e 4285 6e3e bfdb 443c
00000230: 597c a23e 806e 0f3e 7924 4abe 1941 be3d
00000240: 7cac fb3d 98db d03d 4485 013e 6d70 d0bd
00000250: 9608 e0bd 6812 48bd 0e63 313d e58c 663b
00000260: 9a45 f6bd 6870 01be 3bbe 96bd 110c 503e
00000270: e6dc adbc 4719 a6be ffbc 04be 96b8 583b
00000280: 3cc4 a0bd 4d3d 90bd 59f0 c23e 3522 5e3d
00000290: 7032 4f3e 489c e2bc 9ad6 233e 0636 8d3b
000002a0: 6367 2b3e 8a73 20be 0779 863e ddf9 92be
000002b0: 771b 9cbe a960 7a3e 6cf8 1d3d 64cf b23d
000002c0: 4f40 1c3d 4594 61bd 4f68 6dbe 2a97 2e3e
000002d0: c9f8 eebd fd36 90be fa09 00be 04bf 613e
000002e0: ee6c 84be ed2a ef3d 00e9 43be 20e0 ee3d
000002f0: 4dd9 a0bd ac6d 79be 0d22 2bbe 95a6 7bbd
00000300: a4bb 943e 1694 35bd 2018 40be 2a10 443e
00000310: 7d06 193a 6d0d 24be 8e48 933e 02e2 22bd
00000320: 182a adbd 391e c43d 16ac cebe d717 a0be
00000330: c2de 9bbe 5211 46be cccc bbbc f96a 09bd
00000340: 26bc dfbd 4714 a03c 6e59 b7be cfc8 983e
00000350: 509c 2fbe aa28 6fbe 64fe 0d3e bf4a f93d
00000360: 3435 453e 51fa 843e f030 73be e230 efbd
00000370: 6bec 933e c97c 483e 2359 a7bd 2ad7 0a3e
00000380: b15b 653e 3a5f 3b3e c5e7 d0bd 607b 00bc
00000390: 0203 df3d 4ddf 7ebe fde3 27be fa0a 4bbe
000003a0: 2500 43be 0857 ae3e e6a8 68be 95b8 97be
000003b0: a200 963e e0d2 933d a6c5 f73c 72e5 03bd
000003c0: 41c9 6dbd 14e7 60be ba65 45be 7d16 123e
000003d0: a91f ba3d affc 783c 2097 78be 3d02 a2be
000003e0: 53c4 3d3e 6a9b bd3e 7bcf 403e 617a e63c
000003f0: 5cd7 28bd d4b6 133e 9df4 ac3e 47f9 a9be

encoder.critic_encoder.net.mlp.2.weight f4 [256, 256]
0.097216345 0.0063270023 0.049346626 -0.00024409825 -0.00607943 0.04270302 0.13315406 0.15689988
-0.033523444 0.053745944 0.03815421 0.058533292 -0.113965295 -0.090409115 -0.00015493784 0.051716942
-0.08109591 -0.0034097447 -0.035693873 0.0703122 0.034282193 -0.024727102 0.05898409 0.09269922
-0.026110051 -0.097213835 0.06298918 -0.029237352 0.05610208 -0.07257558 0.034058496 -0.0010517852
0.031765826 -0.020600826 -0.07774285 -0.06141834 -0.058243494 -0.0487252 0.0034172344 0.02517615
0.00045265254 0.035620768 0.1130524 -0.026645621 0.022540951 -0.08012554 0.0043435697 0.04340576
0.061031975 0.054282784 -0.06814622 -0.03859075 -0.007572064 -0.03213318 -0.02873243 -0.041789647
0.036413804 0.017000267 0.014773313 -0.06079414 0.03263905 0.096477844 -0.05806495 0.028049828
0.057683647 0.023564085 -0.032996606 0.033421833 -0.08679329 0.08605279 -0.025946949 0.045629274
-0.05148948 0.0076808543 0.016749028 -0.021513786 -0.054006323 0.06507111 -0.0400814 -0.0195352
0.03167125 0.036073074 -0.027044177 0.09945976 0.1307341 -0.022486322 -0.014553666 0.04126797
-0.07577591 0.016773447 0.054878917 0.0065532 0.08813849 0.088211715 0.05825495 0.041288067
0.05671026 -0.065206654 -0.03495798 -0.048147127 -0.03785533 -0.025381478 -0.08392684 0.0033734273
-0.036918327 0.024513582 0.06397713 0.0480316 0.0027729804 -0.013408174 0.055376317 0.05044752
0.017042613 -0.056185573 0.06596286 -0.026495812 -0.020332593 0.14810564 0.06732614 0.11079609
-0.0066102394 -0.065988295 -0.013619453 -0.077382274 0.018056883 -0.07451735 -0.083898775 0.06947383
0.10213558 -0.038744688 -0.009733666 0.012867841 -0.061540768 -0.023358712 -0.05521334 0.046540543
0.0357009 0.051342066 -0.015851527 -0.06530586 -0.044575296 0.09547963 -0.06434458 -0.06243014
0.048838194 0.06267785 -0.09457535 -0.054820966 0.04496336 -0.13080068 -0.034439895 -0.036527384
-0.017635139 -0.16825607 0.07112493 -0.018794382 -0.04521486 -0.047693565 -0.013807694 0.056997906
0.045240227 -0.04993706 0.005634216 0.084018305 -0.0918352 -0.115206175 -0.047174547 0.0044668326
0.098992795 -0.00744394 0.010868998 -0.093810625 0.038360443 0.025507992 0.05849556 0.049290136
0.0026575942 0.08195805 -0.10036514 0.008117136 0.029318932 0.011420524 0.020894758 0.02501951
-0.089672424 0.052408956 -0.0013798364 0.04145619 0.010224398 0.084414676 -0.09101319 -0.06393933
-0.034618944 0.080388054 0.012379253 -0.007770289 0.03511251 -0.059047367 0.009790702 -0.05291963
-0.0057867393 0.009332773 -0.06989927 -0.028131517 -0.028674442 -0.1288285 0.13509408 0.008813158
-0.047721587 0.0715414 -0.033879537 0.05675968 -0.048991743 -0.023861315 0.0033014682 0.0021500553
0.037368424 0.045007076 0.057128355 -0.072614774 0.035126228 0.13643564 0.052194957 0.056294344
0.08076087 0.06123912 -0.035325725 0.08941667 0.08699052 0.030431403 0.010377094 -0.0026167308
-0.043015275 0.057782166 0.05333666 -0.092787966 0.12516233 0.04357594 -0.059895236 0.005624468
0.021871747 0.004034955 -0.026392005 0.031985484 0.073380426 -0.11004266 0.039499715 0.021352354
0.037026733 0.0039763837 0.17067169 0.018709566 -0.019359257 0.050265312 -0.017628947 -0.0017658746
00000000: 5d19 c73d be52 cf3b b01f 4a3d a0f4 7fb9
00000010: f535 c7bb 5de9 2e3d 8a59 083e 5daa 203e
00000020: e14f 09bd b524 5c3d 9747 1c3d 9bc0 6f3d
00000030: a366 e9bd 6a28 b9bd cf76 22b9 25d5 533d
00000040: 9d15 a6bd 0676 5fbb bd33 12bd d8ff 8f3d
00000050: 7c6b 0c3d 7e90 cabc 4d99 713d 17d9 bd3d
00000060: bfe4 d5bc 0c18 c7bd 7900 813d 2c83 efbc
00000070: 4bcb 653d 81a2 94bd ec80 0b3d 0edc 89ba
00000080: e21c 023d 10c3 a8bc a537 9fbd cc91 7bbd
00000090: bb90 6ebd 1394 47bd aef3 5f3b 373e ce3c
000000a0: ff51 ed39 15e7 113d 0488 e73d eb47 dabc
000000b0: cda7 b83c dc18 a4bd 8154 8e3b 3dca 313d
000000c0: aafc 793d a057 5e3d 3f90 8bbd 5611 1ebd
000000d0: 141f f8bb 159e 03bd 4660 ebbc 9f2b 2bbd
000000e0: a426 153d 2544 8b3c c40b 723c 4703 79bd
000000f0: 86b0 053d 2d96 c53d 83d5 6dbd c1c8 e53c
00000100: b045 6c3d 7809 c13c 7327 07bd 55e5 083d
00000110: aec0 b1bd 723c b03d b28e d4bc c3e5 3a3d
00000120: a2e6 52bd adaf fb3b 4235 893c ae3d b0bc
00000130: bc35 5dbd 0144 853d 652c 24bd 4908 a0bc
00000140: b6b9 013d 5cc1 133d c08b ddbc 8fb1 cb3d
00000150: 29df 053e 3c35 b8bc 8072 6ebc 9a08 293d
00000160: 6630 9bbd 7868 893c b7c8 603d 3abc d63b
00000170: f481 b43d 58a8 b43d be9c 6e3d ad1d 293d
00000180: 0549 683d 118b 85bd 1930 0fbd ec35 45bd
00000190: 310e 1bbd d1ec cfbc d6e1 abbd b814 5d3b
000001a0: ac37 17bd b5d0 c83c 7106 833d c8bc 443d
000001b0: e4ba 353b f5ad 5bbc 47d2 623d 0fa2 4e3d
000001c0: f39c 8b3c d822 66bd 8917 873d bf0d d9bc
000001d0: 8a90 a6bc 01a9 173e 4ae2 893d 0fe9 e23d
000001e0: b59a d8bb df24 87bd 2024 5fbc 997a 9ebd
000001f0: 07ec 933c 8d9c 98bd 1fd3 abbd 4c48 8e3d
00000200: 752c d13d c0b2 1ebd f479 1fbc a3d3 523c
00000210: 2c12 7cbd c55a bfbc 6227 62bd 4ca1 3e3d
00000220: 1b3b 123d 0f4c 523d 10db 81bc 14bf 85bd
00000230: 9694 36bd d38a c33d 17c7 83bd bfb6 7fbd
00000240: 8f0a 483d 3f5d 803d b9b0 c1bd f38b 60bd
00000250: 802b 383d 9df0 05be d910 0dbd bd9d 15bd
00000260: 9177 90bc 524b 2cbe f3a9 913d adf6 99bc
00000270: 3833 39bd 545a 43bd ab39 62bc a376 693d
00000280: d14d 393d cd8a 4cbd 3b9f b83b ca11 ac3d
00000290: 1814 bcbd 37f1 ebbd 193a 41bd 825e 923b
000002a0: bcbc ca3d 4bec f3bb e213 323c c91f c0bd
000002b0: d71f 1d3d 23f6 d03c 0a99 6f3d 74e4 493d
000002c0: 082b 2e3b 9fd9 a73d 3d8c cdbd bcfd 043c
000002d0: 422e f03c 261d 3b3c 7c2b ab3c b7f5 cc3c
000002e0: 2da6 b7bd c6aa 563d a0db b4ba f7cd 293d
000002f0: 3c84 273c 9ae1 ac3d 2065 babd a0f2 82bd
00000300: 98cc 0dbd 7ea2 a43d 5ad2 4a3c e99d febb
00000310: 23d2 0f3d a7db 71bd 2e69 203c 41c2 58bd
00000320: b09e bdbb 7de8 183c 5927 8fbd 1174 e6bc
00000330: aae6 eabc 9eeb 03be 1a56 0a3e 1065 103c
00000340: b677 43bd 4c84 923d 45c5 0abd d77c 683d
00000350: 91ab 48bd ce78 c3bc 725d 583b f1e7 0c3b
00000360: a20f 193d 5759 383d 6cff 693d 0eb7 94bd
00000370: 85e0 0f3d c9b5 0b3e 61ca 553d e694 663d
00000380: f465 a53d dfd5 7a3d b5b1 10bd 1620 b73d
00000390: 1628 b23d 474b f93c b004 2a3c 757d 2bbb
000003a0: c930 30bd feac 6c3d 8b77 5a3d 9e07 bebd
000003b0: 8e2a 003e af7c 323d b554 75bd 754d b83b
000003c0: 612c b33c a837 843b 0c34 d8bc 3603 033d
000003d0: 7a48 963d 0c5e e1bd 74ca 213d 22eb ae3c
000003e0: 58a9 173d 534c 823b 8fc4 2e3e ce44 993c
000003f0: 4e97 9ebc 00e3 4d3d 956a 90bc eb74 e7ba
